model_checkpoint/model_epoch4.pth (torch, 268573 bytes, 24 tensors)

conv1.weight f4 [10, 1, 5, 5]
0	0xbe35cdc6	-0.17754278
1	0xbe5cd9d8	-0.21567476
2	0xbe806502	-0.25077063
3	0xbe98cb92	-0.29842812
4	0xbe827455	-0.2547938
5	0x3e3bb188	0.18329442
6	0x3df80638	0.12110561
7	0xbdd8b322	-0.10581042
8	0xbc89e68b	-0.016833564
9	0xbe2f4e28	-0.17119658
10	0xbe1146cb	-0.14187162
11	0xbb603214	-0.0034209536
12	0x3e2045b5	0.15651591
13	0x3e9abaf2	0.30220753
14	0x3ed4f9aa	0.4159673
15	0x3e69052e	0.22755882
16	0x3e23628d	0.15955563
17	0x3e90423a	0.28175527
18	0x3e459e6b	0.19298713
19	0x3ddc24ad	0.10749183
20	0x3de4dc4d	0.111748315
21	0xbdb951b2	-0.09048785
22	0xbd8dfbdf	-0.06932806
23	0xbe2cb9f7	-0.16867815
24	0xbdebf026	-0.11520414
25	0x3ec5634d	0.38552323
26	0x3ea5a7af	0.32354495
27	0x3e4607f2	0.19338968
28	0xbe365138	-0.1780442
29	0xbdb83aa0	-0.08995557
30	0x3eccd8dc	0.400092
31	0x3ea6bc63	0.32565603
32	0x3d115356	0.035479866
33	0xbe7e06c2	-0.24807265
34	0xbdb7336b	-0.08945354
35	0x3e66ee77	0.22551905
36	0xbd9550a6	-0.07290773
37	0xbe8bc9c6	-0.27302378
38	0x3bc2307f	0.0059261913
39	0x3d881a4e	0.06645642
40	0x3e62b288	0.22138417
41	0xbde1734b	-0.110083185
42	0xbe0c40b6	-0.1369656
43	0xbe8cc621	-0.2749491
44	0x3d9d1f64	0.07672003
45	0xbdb9ff2f	-0.090818755
46	0xbe347c72	-0.17625597
47	0xbdd3f71f	-0.10349869
48	0xbe8aa2ee	-0.2707743
49	0xbe67148e	-0.22566435
50	0xbe3b9950	-0.18320203
51	0xbd50d471	-0.05098385
52	0x3e81bf0f	0.2534108
53	0x3e3fa652	0.1871579
54	0x3e3e0513	0.18556623
55	0x3d810d72	0.063013926
56	0x3ecd2241	0.40065196
57	0x3e83e845	0.25763145
58	0x3e0a8b1a	0.13529626
59	0xbe32b3a5	-0.17451341
60	0x3ea69272	0.32533604
61	0x3e2fd20d	0.17169972
62	0xbe2a1d2f	-0.16612695
63	0xbe7c4568	-0.24635851
64	0xbe9ab2b7	-0.30214474
65	0x3ded407b	0.11584564
66	0xbdc2f1d5	-0.09518782
67	0xbede3793	-0.43401775
68	0xbe79329c	-0.24335712
69	0xba8280da	-0.0009956614
70	0xbd67f6ee	-0.056631975
71	0xbe962905	-0.2932817
72	0xbbd964bd	-0.0066343234
73	0x3e1444fd	0.14479442
74	0x3e5a5bb0	0.21324039
75	0xbdbb032d	-0.09131465
76	0xbb9e6cf2	-0.0048347646
77	0xbe3b30c9	-0.18280329
78	0xbdf7acce	-0.12093507
79	0xbdbba156	-0.09161632
80	0xbcb767e3	-0.022388404
81	0xbe121560	-0.14265966
82	0xbd65facc	-0.05614738
83	0xbe0944d2	-0.13405159
84	0xbe550828	-0.20803893
85	0xbd91a243	-0.07111027
86	0xbd09d684	-0.033651844
87	0xbe7b6347	-0.2454959
88	0xbe4a7c08	-0.19773877
89	0xbe05f057	-0.13079964
90	0xbdc197b5	-0.09452764
91	0xbe2525cd	-0.16127701
92	0xbdddfdc3	-0.10839417
93	0xbc991ed6	-0.018691462
94	0xbc95332d	-0.01821288
95	0xbccdf86f	-0.025142876
96	0xbe318f3c	-0.17339796
97	0xbd2cbaac	-0.04217021
98	0xbe056f97	-0.1303085
99	0x3e687cc7	0.22703849
100	0x3e9346d8	0.28764987
101	0x3ec117af	0.37713382
102	0xbd69fe46	-0.05712726
103	0xbe8eabe5	-0.2786552
104	0xbedbcea0	-0.4293108
105	0x3e5ff252	0.21869782
106	0x3ebb14bb	0.36539254
107	0x3e34a5ca	0.17641369
108	0xbebb3aa6	-0.36568183
109	0xbebfe0fb	-0.37476334
110	0x3dc75a7e	0.09734057
111	0x3e9094b0	0.2823844
112	0x3e58d44c	0.21174735
113	0xbce41544	-0.027842171
114	0xbe74df5f	-0.23913334
115	0xbcfac8de	-0.030613359
116	0x3e7537e8	0.23947108
117	0x3e3cdf0f	0.18444465
118	0xbc2681b9	-0.010162764
119	0xbe7045d7	-0.23464142
120	0x3debd5f6	0.11515419
121	0x3e6d4f84	0.23174864
122	0x3e231e0f	0.15929435
123	0xbe15e666	-0.14638671
124	0xbe7b5f1d	-0.24548002
125	0xbb2d339b	-0.0026428464
126	0xbe0cb294	-0.13739997
127	0xbe476bf3	-0.19474773
128	0xbeaad155	-0.33362833
129	0xbe89421c	-0.2680825
130	0xbdc9ba59	-0.09849996
131	0xbe67067d	-0.22561069
132	0xbe6aa1fc	-0.22913355
133	0xbe110eea	-0.14165846
134	0xbe941f3c	-0.2893008
135	0x3eba97ec	0.36444032
136	0x3e318dfd	0.1733932
137	0xbd734ae2	-0.059397586
138	0xbd132dee	-0.035932474
139	0xbd9cdd7d	-0.07659433
140	0x3e3765c9	0.17909922
141	0x3dba2862	0.09089734
142	0x3eb958da	0.362006
143	0x3e05b844	0.13058573
144	0x3e0aa49f	0.1353936
145	0xbd1881ce	-0.037233166
146	0x3e8f69fb	0.28010544
147	0x3e0e117c	0.13873857
148	0x3eb31169	0.3497422
149	0x3e7ccd54	0.24687701
150	0x3ca747ef	0.020420043
151	0xbe96076d	-0.2930254
152	0x3e56f9d7	0.20993744
153	0x3ead6d27	0.3387234
154	0x3eb1a659	0.34697226
155	0xbe071e1b	-0.13195078
156	0x3dc41b55	0.09575526
157	0xbda616e8	-0.08109838
158	0x3e971158	0.2950542
159	0x3e097414	0.13423187
160	0x3d7ca319	0.06167898
161	0xbd13377d	-0.03594159
162	0xbe67b0d2	-0.22626045
163	0xbe3b6797	-0.18301235
164	0x3e8987eb	0.2686151
165	0xbdbce815	-0.09223954
166	0xbd2767cc	-0.040870473
167	0xbd2bb83d	-0.04192375
168	0xbe6e329a	-0.2326149
169	0x3e35e29a	0.17762223
170	0xbe00740d	-0.1254427
171	0xbdf88919	-0.12135524
172	0xbe8bc36a	-0.27297527
173	0xbde32029	-0.110901184
174	0xbde18908	-0.11012465
175	0xbd68c10f	-0.05682474
176	0x3eaa530e	0.3326649
177	0x3edf409c	0.4360398
178	0x3e97b74d	0.29632035
179	0x3e48502a	0.1956183
180	0x3e202431	0.15638806
181	0x3e2a6a75	0.16642173
182	0xbc8e6d7e	-0.017386194
183	0x3e7fed5e	0.24992892
184	0x3dc85276	0.09781353
185	0xbe077eef	-0.13232015
186	0xbe8fde0e	-0.28099102
187	0x3d23d812	0.040000983
188	0x3e6c18e2	0.23056367
189	0x3ebe6f8a	0.37194473
190	0xbdd94b4b	-0.10610064
191	0xbe24591a	-0.16049615
192	0xbe87666e	-0.26445335
193	0xbe8be144	-0.27320302
194	0xbe222265	-0.15833433
195	0xbe1d7818	-0.15377843
196	0xbd78deac	-0.06075923
197	0xbe6e73da	-0.23286381
198	0xbe96e603	-0.2947236
199	0xbdf0a506	-0.11750226
200	0x3e845dac	0.25852716
201	0xbdb6424e	-0.08899365
202	0xbe87f2c5	-0.26552406
203	0xbe45fc6b	-0.19334571
204	0xbe406234	-0.18787462
205	0xbc5989d0	-0.013277486
206	0x3eaa1f8b	0.3322719
207	0x3ec1cbc6	0.3785078
208	0x3e284f55	0.16436513
209	0x3e21f4ba	0.15816012
210	0x3d7ddc00	0.061977386
211	0x3d6c3988	0.057672054
212	0x3ebeb55c	0.3724774
213	0x3e9a0fd1	0.30090192
214	0x3e776926	0.24161205
215	0xbebd4c52	-0.3697229
216	0xbe846c4c	-0.25863874
217	0xbe356690	-0.17714906
218	0x3c5017d6	0.012700995
219	0xbd3f5ac8	-0.046717435
220	0x3b7022ce	0.003664184
221	0xbe82e8e3	-0.25568303
222	0xbeb3de65	-0.3513061
223	0xbe9e02c7	-0.30861494
224	0xbe6f1243	-0.2334681
225	0x3e62aa5c	0.221353
226	0x3ead2759	0.33819082
227	0xbe3a67bc	-0.18203634
228	0xbea06a12	-0.31330925
229	0x3d983431	0.0743183
230	0x3eed48af	0.46344516
231	0x3e23c530	0.1599319
232	0xbdce45e0	-0.10071921
233	0xbe9d28a8	-0.3069508
234	0xbe4c78e5	-0.19967993
235	0x3eaba28c	0.3352245
236	0xbb9ef86d	-0.004851392
237	0x3e4893b4	0.19587594
238	0x3d9be17a	0.076113656
239	0xbe02c373	-0.1276987
240	0x3e0086e5	0.12551458
241	0xbc14d7c7	-0.009084648
242	0xbd98ba6f	-0.074574344
243	0x3e6b09eb	0.22953002
244	0x3daf2736	0.08552401
245	0x3e407762	0.18795541
246	0x3d607b99	0.054805372
247	0x3eeb297f	0.45930097
248	0x3e9aa45a	0.30203515
249	0x3e62dffd	0.22155757

conv1.bias f4 [10]
0	0xbdbd6548	-0.092478335
1	0xbe7d6611	-0.24745966
2	0x3dbf03b0	0.09326875
3	0xbe865871	-0.2623935
4	0x3b1187dc	0.0022206223
5	0xbd7f1611	-0.062276904
6	0xbe536cd9	-0.20646991
7	0x3bca1b7a	0.0061678262
8	0xbe82c4fd	-0.25540915
9	0x3de7d0a3	0.11319091

conv2.weight f4 [20, 10, 5, 5]
0	0x3dc80c2e	0.09767948
1	0xbcbb440b	-0.022859594
2	0xbb5f325a	-0.0034057111
3	0xbb6640e3	-0.003513389
4	0x3d266930	0.04062766
5	0xbbff01af	-0.007782183
6	0x3cc08f21	0.02350575
7	0x3c17f102	0.009273769
8	0x3d89887d	0.06715486
9	0x3d8d2d85	0.06893448
10	0x3dba0039	0.09082074
11	0x3cecaee6	0.028891992
12	0x3cc7d929	0.024395542
13	0x3dcdda77	0.100514345
14	0x3e0fb853	0.14035158
15	0x3cb01376	0.021493655
16	0x3d45a520	0.04825318
17	0x3db9a462	0.09064557
18	0x3e8235a2	0.25431544
19	0x3e160e9a	0.14654008
20	0x3bf42394	0.0074505303
21	0xbd37a026	-0.044830464
22	0xbd2effd7	-0.042724457
23	0xbcbe6359	-0.023240732
24	0x3de75aab	0.112965904
25	0x3e023806	0.12716684
26	0x3d2d4b81	0.042308334
27	0x3dd128b7	0.10212844
28	0x3e2c2e57	0.16814552
29	0x3de950ac	0.1139234
30	0x3cd566e8	0.026050046
31	0xbcbe26b5	-0.023211816
32	0x3d9686df	0.07349943
33	0x3d8da6ec	0.069166034
34	0x3d72b720	0.059256673
35	0x3c798eee	0.015231831
36	0xba0ecbc0	-0.0005447231
37	0x3d05261a	0.03250704
38	0x3d62854f	0.055302914
39	0xbca060e2	-0.019577447
40	0x3d22f49f	0.03978407
41	0x3d19b8b2	0.037529655
42	0x3dac356c	0.08408627
43	0x3c57aece	0.013164235
44	0xbd6e3596	-0.058156572
45	0x3c837af3	0.016049838
46	0x3d7c056c	0.06152861
47	0xbd07aedd	-0.033125747
48	0x3b00c4c6	0.0019648536
49	0xbc6e3051	-0.014537887
50	0x3d808130	0.062746406
51	0xbda30886	-0.0796061
52	0x3cc1d26b	0.023659905
53	0x3e099fd2	0.13439873
54	0xbc50d12a	-0.012745181
55	0x3db48fcf	0.08816492
56	0xbd86eb2b	-0.065878235
57	0xbd79bc0e	-0.06097036
58	0x3d5f0322	0.054446347
59	0xbd014c9d	-0.031567205
60	0xbda44720	-0.080213785
61	0xbda862b8	-0.08221954
62	0x3d672bab	0.05643813
63	0x3d84ec40	0.064903736
64	0x3c4f5954	0.012655575
65	0x3cc81357	0.024423284
66	0xbd1c7f54	-0.038207367
67	0x3cbc46ce	0.022982981
68	0xbd104ccd	-0.035229493
69	0x3dd791bb	0.10525843
70	0xbd63e62f	-0.055639442
71	0xbe0487d5	-0.12942441
72	0xbbcca331	-0.00624504
73	0x3cfde4a8	0.03099282
74	0x3d7a613b	0.061127882
75	0x3dc2a360	0.095038176
76	0x3d810fea	0.063018635
77	0x3d65534a	0.055987634
78	0x3c317f95	0.010833641
79	0x3d83aec0	0.06429815
80	0x3cb374d3	0.021906292
81	0x3d5b33d3	0.05351622
82	0x3d05f420	0.03270352
83	0xbd90acf4	-0.07064238
84	0xbcc5a1cc	-0.024125002
85	0xbd018ea6	-0.03163018
86	0xbcbfbe4c	-0.02340617
87	0xbd9c4d3b	-0.07631918
88	0xbd0c994d	-0.034325887
89	0xbd078c00	-0.0330925
90	0xbd945510	-0.07242787
91	0xbd3dc979	-0.046334717
92	0xbd067356	-0.032824837
93	0xbbf80182	-0.007568539
94	0x3d1b6787	0.03794053
95	0xbe04b0b6	-0.12958035
96	0xbdaee82c	-0.08540377
97	0xbc7ba9d0	-0.015360311
98	0x3cf118a5	0.029430697
99	0x3d92bfec	0.071655124
100	0x3dad4e63	0.08462217
101	0x3d351f56	0.044219337
102	0x3d5177c2	0.0511396
103	0x3d49f1c6	0.04930284
104	0xbda63f4f	-0.08117544
105	0xbd13461a	-0.035955526
106	0xbd3ecd59	-0.046582554
107	0x3c2981d0	0.010345891
108	0xbd1e3d39	-0.038632605
109	0xbd81dcc6	-0.06340937
110	0xbe408671	-0.18801285
111	0xbd4f41fb	-0.050600033
112	0xbd2116d5	-0.039328415
113	0xbd630d3f	-0.055432554
114	0xbc6ff8ed	-0.014646751
115	0xbdfa9672	-0.122357264
116	0xbd40d4d3	-0.047077965
117	0xbd8b0fe5	-0.06790141
118	0xbd0c1dec	-0.034208223
119	0xbdcba435	-0.099434294
120	0x3dcdeec1	0.10055304
121	0x3d777517	0.0604144
122	0xbbdcaf3d	-0.006734757
123	0xbe11c0c1	-0.14233686
124	0xbe6215f3	-0.22078685
125	0x39b7b2aa	0.00035037595
126	0xbb455f35	-0.0030116562
127	0xbce78d2c	-0.028265558
128	0x3d498505	0.049199123
129	0xbdf09da6	-0.11748819
130	0x3c432995	0.011911769
131	0xbd3314b8	-0.04372093
132	0x3d221363	0.03956927
133	0x3cd3752e	0.025812712
134	0x3cda7762	0.026668254
135	0x3cf4bdae	0.029875603
136	0xbae36406	-0.0017348535
137	0x3bec9d2d	0.0072208853
138	0x3dfc8a18	0.12331027
139	0x3dd269c7	0.10274082
140	0x3c544bdf	0.012957542
141	0x3d26e515	0.040745813
142	0x3d74108a	0.059586085
143	0x3dae8a02	0.08522417
144	0x3dc68108	0.096925795
145	0xbb8ae6f6	-0.0042389585
146	0xbde8bef2	-0.11364545
147	0xbd46bb83	-0.04851867
148	0xbd0458c3	-0.032311212
149	0x3d85ef02	0.06539728
150	0xbdde205d	-0.108460166
151	0xbe50c22e	-0.20386574
152	0x3ca350f0	0.019936055
153	0x3d927cfa	0.07152744
154	0xbd33c34f	-0.043887433
155	0xbe649769	-0.22323383
156	0xbe3bb8bb	-0.18332188
157	0x3d2832bd	0.041064013
158	0x3d8a8dbc	0.06765315
159	0xbc9dd9fa	-0.019268978
160	0xbe22d066	-0.1589981
161	0xbd2606a0	-0.04053366
162	0xbc9b198c	-0.01893308
163	0x3dadbd56	0.084833786
164	0x3c8f900e	0.017524745
165	0xbe25ba68	-0.1618439
166	0x3c0485a7	0.008088506
167	0x3d2730f3	0.040818166
168	0x3d62a72b	0.055335205
169	0x3d7f810a	0.06237892
170	0xbd4929cb	-0.049112123
171	0xbbb704fc	-0.005585311
172	0x3bc71382	0.0060753236
173	0xbd677b23	-0.056513917
174	0xbe227b16	-0.15867266
175	0xbda6d2b7	-0.081456594
176	0xbe58285b	-0.21109144
177	0xbe032782	-0.1280804
178	0xbde03e17	-0.10949343
179	0xbd736d15	-0.0594302
180	0xbe1f386e	-0.1554887
181	0xbe97db9b	-0.29659733
182	0xbdd052ac	-0.101720184
183	0x3cc9aab8	0.024617538
184	0x3c228ab4	0.009920765
185	0xbdffe672	-0.12495126
186	0xbd899709	-0.06718261
187	0x3d0b1ff0	0.033966005
188	0x3d33a4cf	0.043858346
189	0x3d94fe73	0.07275095
190	0xbd0e286f	-0.03470653
191	0x3d8b6234	0.0680584
192	0x3dd9b06d	0.10629354
193	0x3db224ef	0.08698451
194	0x3d9aa84b	0.075516306
195	0xbda4deda	-0.08050318
196	0x3d9d341b	0.07675954
197	0x3e0c178f	0.13680862
198	0x3d0febe8	0.035137087
199	0xbe0a4a69	-0.13504948
200	0x3c2a07c1	0.010377825
201	0xbdbc709f	-0.09201168
202	0xbdf42000	-0.11920166
203	0xbc2bc986	-0.010485059
204	0xbc576d1d	-0.013148573
205	0xbe50da67	-0.20395814
206	0xbe82bf9d	-0.25536814
207	0xbd85d53b	-0.06534811
208	0x3dc9c8f8	0.09852785
209	0x3e0082e4	0.12549931
210	0xbd638bc5	-0.055553216
211	0x3d9c8583	0.07642653
212	0x3dd840be	0.105592236
213	0x3e3aa99b	0.18228762
214	0x3e099777	0.13436686
215	0xbd9280b1	-0.07153452
216	0x3deaf381	0.11472226
217	0x3e514170	0.20435119
218	0x3e8b85d4	0.2725054
219	0x3e75efda	0.24017277
220	0xbd6dad9f	-0.058026906
221	0xbce5ea48	-0.028065816
222	0x3e0de373	0.13856296
223	0x3dbed6b1	0.09318293
224	0xbc8af2a0	-0.016961396
225	0x3d147df7	0.036252942
226	0xbd338881	-0.043831352
227	0xbd721186	-0.059098743
228	0xbdf70c58	-0.12062901
229	0xbe037c7e	-0.12840459
230	0xbd5bc9d6	-0.053659283
231	0x3c801507	0.015635027
232	0xbc21a11b	-0.009865071
233	0x3c6a0973	0.014284479
234	0xbd7eba6e	-0.062189512
235	0x3d002863	0.031288516
236	0xbd6ced39	-0.05784342
237	0x3c83595a	0.016033817
238	0x3c930c71	0.017950268
239	0x3d1bab45	0.038005132
240	0x3d9c67ff	0.07637023
241	0xbdf4740d	-0.119361974
242	0xbd897c7a	-0.06713195
243	0xbd051946	-0.032494806
244	0x3d0f15e8	0.034933
245	0x3d3eaa23	0.046548974
246	0x3d1afc43	0.03783823
247	0x3c0d6215	0.008629342
248	0xbda14f77	-0.07876485
249	0x3d649629	0.055807266
250	0xbc139a3a	-0.009008938
251	0xbe29401a	-0.16528359
252	0x3d1df2b1	0.038561527
253	0xbc1d0d8a	-0.0095857475
254	0xbd70c984	-0.05878593
255	0x3e5466fa	0.20742407

conv2.bias f4 [20]
0	0xbca6f73a	-0.020381559
1	0xbcb28cd5	-0.02179567
2	0xbd047901	-0.03234196
3	0xbd4675e8	-0.048452288
4	0xbd3b2208	-0.04568675
5	0x3c94adc3	0.018149262
6	0xbc6a1b2c	-0.014288705
7	0x3d56faf5	0.052485425
8	0x3d2ccff8	0.042190522
9	0x3d3b1f7b	0.04568432
10	0x3d0f9325	0.035052437
11	0xbc17ae01	-0.009257794
12	0x3dac056b	0.08399471
13	0xbcd61f55	-0.026137987
14	0x3cd5744f	0.026056437
15	0xbc19c340	-0.00938493
16	0xbd9ae6fd	-0.07563589
17	0xbc3b5167	-0.011432982
18	0xbd173711	-0.03691775
19	0x3d222bf9	0.039592717

fc1.weight f4 [50, 320]
0	0xbdaaefcb	-0.08346518
1	0x39a5e700	0.0003164336
2	0xbdb33342	-0.08750011
3	0xbd940b23	-0.07228687
4	0x3dc1aec6	0.094571635
5	0x3d14fae3	0.036372077
6	0xbe7139d5	-0.23557217
7	0xbdd76a62	-0.10518338
8	0x3d3dc33b	0.046328764
9	0x3d9d8e4f	0.07693159
10	0xbd744d12	-0.059643812
11	0x3de05a8d	0.10954771
12	0xbd32f222	-0.043687947
13	0xbc2ffb47	-0.0107410615
14	0x3d222c3b	0.039592963
15	0x3defec9f	0.11715054
16	0xbabffc25	-0.0014647288
17	0xbd2b2522	-0.04178346
18	0xbd11a66f	-0.035559114
19	0xbcba865b	-0.022769144
20	0x3d7f0925	0.06226458
21	0x3c6c7283	0.014431599
22	0xbd939d0a	-0.07207687
23	0xbe33507a	-0.17511168
24	0xbe3a7b48	-0.1821109
25	0x3cf859aa	0.030316193
26	0x3c6645ab	0.014054696
27	0xbdf8ed81	-0.12154675
28	0x3c2a9c09	0.010413178
29	0x3d7ca5bd	0.061681498
30	0x3dc13ceb	0.09435447
31	0xbda27491	-0.079323895
32	0xbe15820d	-0.14600392
33	0xbd898090	-0.067139745
34	0x3cb3129f	0.021859465
35	0xbe320b58	-0.1738714
36	0xbdf816ed	-0.12113748
37	0xbca8a260	-0.020585239
38	0x3ca61077	0.020271523
39	0xbde5cb24	-0.112203866
40	0x3d9a094f	0.07521307
41	0x3d382685	0.04495861
42	0xbd1db1f9	-0.038499806
43	0xb99522bc	-0.00028445374
44	0x3aacba30	0.0013178047
45	0x3d52f845	0.0515063
46	0x3d133d79	0.035947297
47	0xbc49a279	-0.012306803
48	0x3de3a198	0.11114806
49	0x3d3878e9	0.045037184
50	0xbd9065e8	-0.07050687
51	0xbdb185a4	-0.08668068
52	0x3d1eb6d4	0.038748577
53	0x3ced145c	0.028940372
54	0xbc7bc30f	-0.01536633
55	0x3da9368c	0.08262357
56	0x3d976097	0.0739147
57	0x3c61813a	0.01376372
58	0xbe1ef62f	-0.15523599
59	0x3e057b2f	0.13035272
60	0x3d369bcf	0.044582184
61	0xbd671ec0	-0.05642581
62	0xbdcc1e13	-0.09966674
63	0xbc4e0475	-0.012574305
64	0xbe0911a4	-0.13385636
65	0xbdbcbdbe	-0.09215878
66	0x3d1a60fc	0.037690148
67	0x3ca10a34	0.019658186
68	0xbcd305be	-0.025759574
69	0xbd3b0867	-0.04566231
70	0xbd8ed955	-0.069750465
71	0x3c37b02e	0.011211438
72	0x3b3df414	0.0028984593
73	0x3b298b04	0.0025870213
74	0x3d41c685	0.047308464
75	0xbda77e54	-0.08178392
76	0x3cae9893	0.021312987
77	0x3d621252	0.055193253
78	0x3cbe3fb9	0.023223745
79	0x3d9048d7	0.07045143
80	0x3b4b283b	0.003099932
81	0x3d6559d5	0.055993874
82	0x3d15c75a	0.03656707
83	0xbe41e0fb	-0.1893348
84	0xbe47af07	-0.19500361
85	0xbd3115ac	-0.04323356
86	0x3cfafb16	0.030637305
87	0x3d15b42b	0.036548775
88	0x3c152b92	0.009104626
89	0x3dd4bb69	0.10387308
90	0xbc43da8c	-0.011953961
91	0xbd386cc1	-0.04502559
92	0x3d75cc39	0.060009215
93	0xbc7b03c6	-0.015320724
94	0xbd4855c4	-0.048909917
95	0xbd9731d6	-0.07382552
96	0xbd8e28fc	-0.06941411
97	0xbd790e8e	-0.060804896
98	0xbe164e9e	-0.14678428
99	0xbd2ce619	-0.042211626
100	0x3d85dade	0.06535886
101	0x3c507b66	0.012724733
102	0xbd0b91f3	-0.034074735
103	0x3d434555	0.047673542
104	0xbc9b835e	-0.01898354
105	0x3d90c34d	0.07068501
106	0x3d3b80cc	0.045777127
107	0x3d86e051	0.06585754
108	0xbd04e1ef	-0.03244203
109	0xbd44f348	-0.048083574
110	0xbcf02132	-0.029312704
111	0x3b240d3b	0.00250323
112	0xbd9b3788	-0.07578951
113	0xba75ff98	-0.0009384095
114	0xbbaf5ba5	-0.005351501
115	0xbda6eb34	-0.0815033
116	0xbd10ece8	-0.03538218
117	0xbd6ed78a	-0.058311023
118	0xbdf7b323	-0.120947145
119	0xbd627f17	-0.055296984
120	0x3e12ba1e	0.1432881
121	0x3da409d1	0.08009685
122	0x3c83ec3b	0.016103854
123	0xbd8c3f5d	-0.06848023
124	0xbd43f690	-0.047842562
125	0x3d3442a6	0.044008873
126	0x3dcdedcc	0.10055122
127	0xbdd193a4	-0.10233238
128	0xbdccebe0	-0.10005927
129	0x3c03752f	0.008023544
130	0xbb9815ea	-0.0046412842
131	0xbe04ec8c	-0.1298086
132	0x3d6cf487	0.057850387
133	0xbd352f9e	-0.044234864
134	0xbd383719	-0.04497442
135	0x3ce731db	0.028222015
136	0x3e03de8c	0.12877864
137	0xbd6677de	-0.056266658
138	0xbda05c84	-0.07830146
139	0x3d8cee1d	0.06881354
140	0x3e318623	0.17336325
141	0xbc5f26af	-0.013620063
142	0xbd77dd50	-0.060513794
143	0xbd899f4d	-0.06719837
144	0xbd43f92f	-0.047845062
145	0x3d292928	0.041299015
146	0x3d84a5ce	0.06476937
147	0x3d017273	0.031603288
148	0x3d029db7	0.03188869
149	0x3d1c722a	0.038194813
150	0xbd365f0d	-0.04452424
151	0x3d6e7e94	0.058226183
152	0x3e0a0b98	0.13480985
153	0xbd649bca	-0.055812635
154	0xbdb64035	-0.08898965
155	0x3cb3b9ec	0.02193924
156	0x3d04a085	0.032379646
157	0xbdd52d66	-0.1040905
158	0xbda433a5	-0.08017663
159	0xbdfe4eae	-0.12417351
160	0xbc86cf46	-0.016456258
161	0x3b135b95	0.0022485007
162	0x3e0ffd0a	0.1406137
163	0x3c9f7680	0.019465685
164	0x3bda1554	0.0066553745
165	0xbd4fd5a5	-0.050740857
166	0x3db80100	0.08984566
167	0x3c8b419e	0.016999062
168	0x3d2e6f1c	0.04258643
169	0xbd8d198f	-0.068896405
170	0x3db4fcf4	0.088373095
171	0xbc96a05c	-0.018387012
172	0xbbf225ee	-0.0073897755
173	0xbdbb90b2	-0.09158458
174	0xbcf4022a	-0.029786188
175	0xbdc5087d	-0.0962076
176	0xbe0073e9	-0.12544216
177	0xbe399a82	-0.18125346
178	0xbe5cab39	-0.21549691
179	0xbd62a287	-0.05533078
180	0xbb30dec8	-0.0026988257
181	0x3d46b08c	0.048508212
182	0xbd2e861d	-0.04260837
183	0x3d611063	0.05494727
184	0x3d6a3f3f	0.057189222
185	0x3d91d1bc	0.07120082
186	0xbd46cac2	-0.04853321
187	0x3db0137d	0.08597467
188	0x3c22917c	0.0099223815
189	0x3de4fd6a	0.111811474
190	0x3d1e057d	0.038579453
191	0x3d30f3f2	0.043201394
192	0xbdf2314b	-0.11825808
193	0xbd31f440	-0.043445826
194	0x3d47aa61	0.04874647
195	0x3dc457a7	0.09587031
196	0xbc6d3cbf	-0.014479815
197	0xbda70180	-0.08154583
198	0xbc9f471b	-0.019443085
199	0x3e0cd33e	0.13752457
200	0x3d85e6fc	0.065381974
201	0xbdf440db	-0.11926433
202	0xbd331ce2	-0.043728717
203	0xbd6f9325	-0.058489937
204	0x3dacd05e	0.084381804
205	0xbdf21b68	-0.118216336
206	0xbdfc3d36	-0.123163626
207	0xbd457c13	-0.04821403
208	0x3c9b3a33	0.01894865
209	0x3c55955c	0.013036098
210	0xbdaf0372	-0.08545579
211	0xbe15a0c3	-0.14612107
212	0x3d0cee88	0.03440717
213	0x3dbbff23	0.09179523
214	0x3c87fdba	0.016600478
215	0xbd5085ad	-0.050908733
216	0x3d0475cf	0.032338914
217	0xbe1aaacf	-0.15104221
218	0xbd7a121e	-0.061052434
219	0x3db3624d	0.08758984
220	0xbd5b35c0	-0.053518057
221	0xbdb139c4	-0.08653596
222	0x3d4ba307	0.049716022
223	0x3df54e4e	0.11977826
224	0xbe1434ca	-0.14473262
225	0xbe00a68b	-0.12563531
226	0xbe02832e	-0.12745354
227	0xbe1379cc	-0.1440193
228	0x3d1f6eab	0.0389239
229	0x3ce05c2b	0.0273877
230	0xbdbef8f2	-0.09324826
231	0xbdac8d3f	-0.08425378
232	0x3be0cc42	0.006860287
233	0x3d1d42a1	0.03839362
234	0x3da6da6f	0.08147132
235	0x3da690de	0.081331
236	0x3d8b6779	0.06806845
237	0xbdac6837	-0.08418315
238	0x3d11f55f	0.035634395
239	0x3dd2bcdd	0.10289929
240	0xbd886c7b	-0.06661316
241	0x3aff2600	0.0019466281
242	0xbc5e65c6	-0.013574069
243	0x3cbafc4c	0.022825383
244	0x3d116917	0.035500612
245	0xbbc32f08	-0.0059565343
246	0x3d78f88a	0.0607839
247	0x3db64468	0.08899766
248	0xbc665dcf	-0.014060452
249	0xbe0113dd	-0.12605233
250	0x3d29a290	0.041414797
251	0x3dff6df0	0.12472141
252	0xbe423206	-0.18964395
253	0xbcfb4206	-0.03067113
254	0xbd67f0ac	-0.056626007
255	0xbc4f8a80	-0.012667298

fc1.bias f4 [50]
0	0xbc10d7be	-0.008840499
1	0x3de0c63b	0.109753095
2	0x3ddcf981	0.107897766
3	0xbd10c01a	-0.035339452
4	0x3e0cb935	0.13742526
5	0xbc746be0	-0.0149182975
6	0x3e3d9083	0.18512158
7	0x3d1032b9	0.035204623
8	0xbd0bf4fb	-0.03416918
9	0x3cbd2216	0.023087543
10	0x3e17b2db	0.14814322
11	0x3e06f4d9	0.1317934
12	0x3c07093a	0.008241946
13	0x3e3c7d4f	0.18407176
14	0x3d91e15a	0.071230605
15	0x3e3d4c82	0.18486217
16	0x3e857989	0.26069286
17	0x3c12e57a	0.008965844
18	0x3dc7388f	0.097275846
19	0x3d1bad44	0.038007036
20	0x3e2d354f	0.16914867
21	0x3e0d539f	0.1380143
22	0x3d8594c2	0.06522514
23	0x3e1db0c3	0.1539946
24	0x3d960893	0.07325854
25	0x3d6e0696	0.05811175
26	0x3dbca590	0.09211266
27	0x3d5f8eee	0.054579668
28	0xbdad885f	-0.08473276
29	0x3d37f3b9	0.044910166
30	0x3d976e37	0.07394069
31	0x3daf655a	0.08564253
32	0x3d982639	0.074291654
33	0x3b368bf8	0.0027854424
34	0x3e14d247	0.1453334
35	0x3d11c68b	0.035589736
36	0x3de26679	0.11054701
37	0xbd5353d4	-0.051593617
38	0x3d396fe7	0.045272734
39	0x3e0e8661	0.13918449
40	0x3e1664e3	0.14686923
41	0x3e376b35	0.1791199
42	0x3e2db2cd	0.16962738
43	0x3e6a3f86	0.22875795
44	0x3db66570	0.089060664
45	0x3e0d2acc	0.13785857
46	0x3e0c68a8	0.13711798
47	0x3e0779bb	0.1323003
48	0x3e14c94c	0.14529914
49	0x3e8aceb8	0.2711084

fc2.weight f4 [10, 50]
0	0x3e199d41	0.15001394
1	0x3e3f2e7e	0.18670079
2	0xbe37e44b	-0.1795818
3	0xbe55785c	-0.20846695
4	0xbcf18352	-0.029481564
5	0x3dd3bd15	0.10338799
6	0xbe4cebd7	-0.20011841
7	0xbe7813d9	-0.24226321
8	0xbd91da14	-0.07121673
9	0x3d807b8c	0.06273565
10	0xbe163ac4	-0.14670855
11	0xbe818612	-0.252976
12	0xbe8941e9	-0.26808098
13	0xbe44738b	-0.19184701
14	0x3e0ce281	0.1375828
15	0xbeaaece7	-0.33383867
16	0xbe88927c	-0.2667426
17	0xbeba174c	-0.363459
18	0x3e0996f6	0.13436493
19	0x3e3e8f99	0.18609466
20	0xbeb79e7e	-0.35863107
21	0x3ccc81ff	0.02496433
22	0x3d8db248	0.0691877
23	0x3c86f255	0.016472975
24	0xbd6d717f	-0.057969566
25	0x3ca9f5d5	0.020747105
26	0xbe78f187	-0.24310885
27	0xbd8d466f	-0.068982
28	0xbe3b4a80	-0.18290138
29	0x3d6a3764	0.05718173
30	0x3e2780bb	0.163577
31	0x3e16712e	0.14691612
32	0x3e0470bd	0.12933631
33	0xbe9cd8db	-0.30634198
34	0xbe1202be	-0.14258859
35	0x3de106d4	0.109876305
36	0xbe97a541	-0.29618266
37	0xbd84cbed	-0.06484208
38	0x3de9d669	0.114178486
39	0x3dbf8cf8	0.093530595
40	0xbe9b5559	-0.30338553
41	0xbd100def	-0.035169538
42	0xbeabad9d	-0.33530894
43	0xbe624273	-0.22095661
44	0x3dea126b	0.11429294
45	0x3dca882e	0.098892555
46	0xbeba91c7	-0.36439344
47	0xbe9822c9	-0.2971404
48	0x3e2846f2	0.16433313
49	0xbd160c3d	-0.036632765
50	0xbe13fc6b	-0.14451759
51	0xbc0f6a2e	-0.008753343
52	0x3d41f411	0.0473519
53	0xbe7ee150	-0.24890637
54	0x3daecff3	0.08535757
55	0xbe84d0b3	-0.25940475
56	0x3e111d96	0.14171442
57	0xbdc92fc6	-0.09823565
58	0xbe54da80	-0.20786476
59	0xbe4b67a8	-0.1986376
60	0xbe373ef0	-0.17895103
61	0x3da02f33	0.078215025
62	0xbe516d2d	-0.20451804
63	0x3e661865	0.22470243
64	0xbe8f0e28	-0.27940488
65	0x3db1d888	0.08683878
66	0x3e071efa	0.1319541
67	0xbe84e1ca	-0.25953513
68	0xbe2b4d48	-0.16728699
69	0xbe87c4cd	-0.26517335
70	0x3dd2dccc	0.1029602
71	0x3ce5ac56	0.028036278
72	0xbdaa67e6	-0.08320598
73	0x3de1afe9	0.1101988
74	0x3dba6112	0.09100546
75	0xbe861f15	-0.2619559
76	0xbe40282f	-0.18765329
77	0xbe9794b8	-0.2960565
78	0xbdbe3a25	-0.09288434
79	0xbea52853	-0.32257327
80	0x3e07c320	0.13258028
81	0xbe759a38	-0.23984611
82	0xbd81ee8f	-0.063443296
83	0xbe885c94	-0.26633132
84	0x3e2e9130	0.17047572
85	0xbe232676	-0.1593264
86	0x3ddae4bd	0.106881596
87	0xbe972ab9	-0.29524782
88	0xbeb3c9f6	-0.3511502
89	0x3de523b8	0.111884534
90	0x3d9f5642	0.07780124
91	0x3ddcf594	0.10789028
92	0x3db72168	0.089419186
93	0x3df5136e	0.119665965
94	0x3dd61ba4	0.10454491
95	0x3dbfc3a1	0.09363485
96	0x3df0bd7f	0.117548935
97	0x3d4e84fc	0.050419793
98	0xbe14be83	-0.145258
99	0x3e5d8d69	0.21635975
100	0x3dd1caa2	0.10243727
101	0x3e3b3525	0.18281992
102	0xbe0beb5e	-0.13664004
103	0xbde3ce66	-0.11123352
104	0xbe0c9700	-0.13729477
105	0x3d973d7a	0.073847726
106	0x3ddd9038	0.10818523
107	0x3e10231b	0.14075892
108	0x3e10186c	0.14071816
109	0x3cbe8b71	0.02325985
110	0xbdf39ca1	-0.11895109
111	0x3dd41ea0	0.10357404
112	0xbd872414	-0.06598678
113	0xbdbb9bd8	-0.09160584
114	0xbe262364	-0.16224438
115	0xbe59e276	-0.21277794
116	0xbdf65cd5	-0.12029425
117	0xbde06e9e	-0.109585986
118	0xbde65a7f	-0.112477295
119	0xbd3dbaee	-0.04632085
120	0xbe4a0cc4	-0.19731432
121	0x3ddb48b5	0.10707227
122	0xbe4ba10a	-0.1988565
123	0x3dfe9b0d	0.12431917
124	0x3d18dde0	0.03732097
125	0xbc5ae167	-0.013359404
126	0xba98d883	-0.0011661205
127	0xbe62ec95	-0.22160561
128	0x3dbd42a5	0.09241227
129	0xbd45bdff	-0.048276898
130	0x3e03aaca	0.1285812
131	0xbd75fb1e	-0.060053937
132	0x3e15af15	0.1461757
133	0xbe0ed56c	-0.13948601
134	0x3e5b2e43	0.21404366
135	0x3cbe73d6	0.023248594
136	0xbdaeaa33	-0.08528557
137	0x3d231749	0.03981713
138	0xbbd65358	-0.006540697
139	0xbe05862f	-0.13039468
140	0x3de17eac	0.11010489
141	0x3e24b960	0.1608634
142	0xbea06ff3	-0.3133541
143	0x3e06452c	0.13112324
144	0x3dfda9cc	0.12385902
145	0x3dee4afb	0.11635395
146	0xbeaf30af	-0.3421683
147	0xbdc717ad	-0.09721313
148	0xbe3a0b98	-0.18168485
149	0xbdda8b4e	-0.106711015
150	0xbd2947dd	-0.0413283
151	0xbda10c46	-0.07863669
152	0xbe115fe5	-0.14196737
153	0x3de1e6d7	0.11030357
154	0xbe592fe4	-0.21209675
155	0xbe508bbd	-0.20365806
156	0xbe7327ed	-0.23745699
157	0x3e216b3d	0.15763564
158	0x3d75736f	0.05992454
159	0x3d516cc4	0.051129118
160	0xbe12afd5	-0.14324887
161	0x3df11870	0.11772239
162	0x3e242884	0.1603108
163	0xbe910638	-0.28325057
164	0x3ca19479	0.019724118
165	0x3d9b9ac5	0.07597879
166	0xbe7e5167	-0.2483574
167	0x3e170889	0.1474935
168	0xbdff111e	-0.12454437
169	0xbe2ee13a	-0.17078105
170	0xbe1ffb8d	-0.15623303
171	0x3dc6ddb4	0.09710255
172	0xbe2ea4c0	-0.17055035
173	0xbe6e76a0	-0.2328744
174	0xb87a9ccb	-5.975067e-05
175	0xbe1da642	-0.15395454
176	0xbe20ba71	-0.15696122
177	0xbe02d4e1	-0.1277652
178	0x3da4fab2	0.08055629
179	0x3dfdd14b	0.12393435
180	0xbe31ff71	-0.173826
181	0xbe4a9b75	-0.19785865
182	0x3e0df6d7	0.13863693
183	0x3d52a36e	0.05142539
184	0x3d053993	0.03252561
185	0x3d8c24b8	0.06842941
186	0x3e03816a	0.12842336
187	0xbe071ad0	-0.13193822
188	0xbe12316c	-0.14276665
189	0xbd8e6746	-0.069532916
190	0x3dd82a79	0.10554976
191	0xbe0c699a	-0.13712159
192	0xbdff4c89	-0.1246577
193	0xbd0e9b27	-0.034815934
194	0x3dfe82da	0.12427302
195	0x3dcc6d3f	0.099817745
196	0x3bb8ae50	0.005636014
197	0x3df1a3d7	0.11798828
198	0xbdeb2c88	-0.11483103
199	0xbe2bd4a6	-0.16780338
200	0x3e12e68b	0.14345758
201	0xbd5653d9	-0.052326057
202	0xbdfa3717	-0.12217539
203	0xbe5d128f	-0.21589111
204	0x3e21da6c	0.15805978
205	0x3de45e0a	0.11150749
206	0x3ccea608	0.025225654
207	0x3e2fc427	0.1716467
208	0x3e070f46	0.1318942
209	0xbed6efdc	-0.41979873
210	0x3dbc6862	0.09199597
211	0xbe688fb2	-0.22711065
212	0x3d2f25de	0.042760722
213	0x3e53bb27	0.20676862
214	0xbe124398	-0.14283597
215	0xbe15c436	-0.1462563
216	0x3dfd3e05	0.12365345
217	0x3dfb567a	0.122723535
218	0xbe460893	-0.19339208
219	0xbe4bd65a	-0.19905987
220	0x3dca7b7e	0.098868355
221	0xbe623e3f	-0.22094058
222	0xbe810456	-0.2519862
223	0x3dfb43e9	0.12268812
224	0x3de9c361	0.11414219
225	0x3e5bc90a	0.21463409
226	0x3e171347	0.14753447
227	0x3de167e2	0.11006142
228	0x3cef87e0	0.029239595
229	0xbe0d050e	-0.1377146
230	0x3ddd7398	0.108130634
231	0xbe08978e	-0.13339064
232	0x3cda6763	0.026660627
233	0x3ddb0b92	0.10695566
234	0xbcc29cd7	-0.023756428
235	0xbe5708c1	-0.20999433
236	0x3e0b46ed	0.13601275
237	0x3d291097	0.041275587
238	0xbe4f8ae4	-0.20267826
239	0xbe402070	-0.18762374
240	0xbdb92a49	-0.090412684
241	0xbd815e3c	-0.06316802
242	0x3dcfc2e4	0.10144594
243	0xbdefc77f	-0.11707973
244	0xbe27cf03	-0.16387562
245	0xbe5526b0	-0.2081554
246	0x3dbf814a	0.09350832
247	0xbe0248bf	-0.12723063
248	0x3d830038	0.06396526
249	0xbdcd8a0c	-0.10036096
250	0xbe5871ac	-0.21137112
251	0xbdaaab82	-0.08333494
252	0xbe7f4a09	-0.24930586
253	0x3dd7375f	0.10508608
254	0x3dcf1487	0.10111337
255	0xbe5127c7	-0.2042533

fc2.bias f4 [10]
0	0x3d8eaf03	0.069669746
1	0x3ec2da6b	0.38057265
2	0xbe51111a	-0.2041668
3	0x3d9cb3e4	0.07651499
4	0xbdca3081	-0.09872533
5	0x3df5b5fb	0.11997601
6	0x3dcd4e97	0.100247554
7	0xbe18ef0b	-0.14934938
8	0xbd815d0b	-0.06316575
9	0xbdf6c1bb	-0.1204867

exp_avg f4 [10, 1, 5, 5]
0	0x3b4a9b39	0.0030915274
1	0xb91ea822	-0.00015130689
2	0xbb9e40db	-0.0048295087
3	0xbc2823d0	-0.010262445
4	0xbc38797b	-0.011259432
5	0x3b9d767c	0.004805384
6	0x3a33ace4	0.0006854071
7	0xbb06601d	-0.0020504065
8	0xbbf0c693	-0.0073478906
9	0xbc4314a0	-0.011906773
10	0x3b91f509	0.0044542593
11	0x3b105988	0.002202602
12	0xbb30335d	-0.0026886084
13	0xbbd0d0b9	-0.006372538
14	0xbc15f56f	-0.009152754
15	0x3bcd0987	0.0062572393
16	0x3b84c657	0.0040519643
17	0xbb1f8fc5	-0.0024347168
18	0xbbdf4803	-0.0068140044
19	0xbbd510bc	-0.006502239
20	0x3c1c07f6	0.009523382
21	0x3beb8fbc	0.0071887653
22	0x3ad5da69	0.0016315702
23	0xbb69a044	-0.0035648504
24	0xbb9f7d84	-0.0048672576
25	0xbc1d215a	-0.009590471
26	0xbb827ff8	-0.00398254
27	0x3b79482b	0.00380374
28	0x3c0297f1	0.007970796
29	0x3c38c260	0.011276811
30	0xbc1e4a1f	-0.0096612265
31	0xbb808873	-0.003922516
32	0x3c076225	0.008263146
33	0x3c6cf296	0.014462134
34	0x3c787ffc	0.015167233
35	0xbc30a92b	-0.01078252
36	0xbaee691d	-0.0018189285
37	0x3c2981dd	0.010345903
38	0x3c86762c	0.01641377
39	0x3c7bec1b	0.015376116
40	0xbc2e2055	-0.010627826
41	0x3a9dc7ff	0.0012037753
42	0x3c4890fe	0.0122416
43	0x3c74dde9	0.014945486
44	0x3c5fbb9a	0.013655568
45	0xbc0baafb	-0.008524652
46	0x3a54e58f	0.0008121365
47	0x3c221e35	0.009894897
48	0x3c423653	0.011853772
49	0x3c35aad3	0.011088091
50	0x3b2bb976	0.0026203073
51	0x3c21f010	0.0098838955
52	0x3c45beaa	0.012069384
53	0x3c014f86	0.007892495
54	0x3bb55f47	0.0055350396
55	0x3af6cbfd	0.0018829104
56	0x3bb3eb56	0.0054907007
57	0x3bf8a594	0.007588098
58	0x3c1a2c56	0.009409985
59	0x3bfbec92	0.0076881135
60	0x3bc4a3cf	0.006000973
61	0x3bf8fd6f	0.007598571
62	0x3c0ade25	0.008475815
63	0x3c252fa1	0.010082156
64	0x3c2a7488	0.01040376
65	0x3c1049d3	0.008806664
66	0x3c444c48	0.0119810775
67	0x3c3e94dc	0.0116321705
68	0x3c3687c6	0.011140769
69	0x3bfb8c1a	0.0076766135
70	0x3bd749bf	0.0065700705
71	0x3bff0f67	0.0077838185
72	0x3c05be1c	0.008163001
73	0x3b938637	0.0045020836
74	0x3b1caf63	0.002390825
75	0x3a862d52	0.0010236895
76	0xbaa84ba5	-0.0012839927
77	0xbb90d802	-0.0044202814
78	0xbbf42ce3	-0.00745164
79	0xbc4517d1	-0.012029604
80	0x3a6149da	0.00085940736
81	0xbb3c1b1c	-0.0028702682
82	0xbbd2010b	-0.0064088157
83	0xbc2c90c7	-0.0105325645
84	0xbc59032c	-0.013245385
85	0xba8a5a8f	-0.0010555553
86	0xbba772ae	-0.0051101064
87	0xbbd56f67	-0.0065135243
88	0xbc3129c0	-0.010813177
89	0xbc6f6e9a	-0.014613772
90	0xbb882265	-0.004154491
91	0xbb99ba8f	-0.004691429
92	0xbbaf6deb	-0.0053536794
93	0xbc061e25	-0.008185898
94	0xbc485808	-0.01222802
95	0xbb7825ba	-0.0037864284
96	0xbab5eeb3	-0.0013880342
97	0xbb00892d	-0.0019613013
98	0xbbd7f9db	-0.0065910644
99	0xbc17361f	-0.009229212
100	0x3af71453	0.0018850662
101	0x3bd85706	0.006602171
102	0x3c20d95a	0.009817446
103	0x3c431362	0.011906477
104	0x3c46d0cc	0.012134742
105	0xbb43199d	-0.0029769905
106	0x3a04257a	0.0005040985
107	0x3bf027c2	0.0073289583
108	0x3c274888	0.010210164
109	0x3c3cdbbf	0.011527001
110	0xbbc14b0f	-0.0058988403
111	0xbac72aec	-0.0015195287
112	0x3ba04337	0.004890825
113	0x3c225c28	0.009909667
114	0x3c380f69	0.011234143
115	0xbbac6d0c	-0.005262023
116	0xbb43c704	-0.0029873261
117	0x3ab97e5b	0.0014152037
118	0x3bc00bc3	0.005860777
119	0x3c10697d	0.008814213
120	0xbba68bf0	-0.0050826
121	0xbb1557eb	-0.0022788
122	0x39401f17	0.00018322129
123	0x3bcfb2a7	0.0063384357
124	0x3c0c6ce7	0.008570886
125	0x3c217750	0.0098551065
126	0x3bdb53d6	0.0066933436
127	0xbb7f9b46	-0.0039002462
128	0xbc1dc398	-0.009629153
129	0xbc63e362	-0.013909193
130	0x3c3f5e00	0.011680126
131	0x3b7c4e8e	0.003849897
132	0xbb92321f	-0.0044615413
133	0xbc2051fd	-0.0097851725
134	0xbc60348d	-0.013684404
135	0x3bd746d9	0.006569725
136	0x39a66633	0.00031738132
137	0xbbdd3861	-0.0067511057
138	0xbc2b55ae	-0.010457439
139	0xbc483b87	-0.012221224
140	0x3c102c59	0.008799636
141	0x3a04d8fb	0.0005067733
142	0xbbe8a1d7	-0.007099371
143	0xbc153d2d	-0.009108824
144	0xbc2c13dc	-0.010502782
145	0x3c1a5032	0.009418534
146	0x3b277b86	0.0025555803
147	0xbb4dbe85	-0.0031394076
148	0xbb502913	-0.0031762763
149	0xbbb434cc	-0.005499458
150	0xbc0963b4	-0.0083855875
151	0xbbf7c85e	-0.0075617274
152	0x38b2c6eb	8.524753e-05
153	0x3bf9bea7	0.0076216045
154	0x3c3f85ea	0.011689642
155	0xbbd31071	-0.006441169
156	0xbbff6115	-0.0077935555
157	0xbb29002a	-0.0025787451
158	0x3bb1a832	0.005421662
159	0x3be27c50	0.006911792
160	0xbbfaebff	-0.0076575275
161	0xbbb76c09	-0.0055975956
162	0xba966a8f	-0.0011475849
163	0x3b470610	0.0030368604
164	0x3bc084b0	0.0058751926
165	0xbbcbe55b	-0.0062224097
166	0xbb80d1af	-0.003931246
167	0xbace69d9	-0.0015748098
168	0x3ab0dfbc	0.0013494412
169	0x3bc0764a	0.005873476
170	0xbbbeacdd	-0.0058189468
171	0xbbbc11bf	-0.00573942
172	0xbba47d3f	-0.0050198133
173	0x3a9cf27d	0.0011974123
174	0x3b23b171	0.002497759
175	0xbb613d1b	-0.0034368697
176	0xb956865d	-0.00020458685
177	0x3b509117	0.0031824762
178	0x3be7a742	0.007069499
179	0x3b82a107	0.003986481
180	0x3ad9fa74	0.0016630427
181	0x3b23a4a4	0.002496996
182	0x3b2e92f5	0.0026637886
183	0x3b315aed	0.0027062253
184	0xba805847	-0.0009791934
185	0x3b8613f1	0.0040917327
186	0x3b382d56	0.0028103194
187	0x3a88bceb	0.0010432279
188	0x3a27dc3f	0.00064033637
189	0xbaee02c1	-0.001815878
190	0x3b6dfec1	0.0036315175
191	0x39235b3a	0.00015578876
192	0xb9b3fb90	-0.0003432897
193	0x3b4b708e	0.003104243
194	0x3a0353c5	0.0005009736
195	0x3a9b4bcd	0.0011848152
196	0xbb675f9f	-0.0035304797
197	0xbb7ae705	-0.003828467
198	0xba54859e	-0.0008107069
199	0xba2d1171	-0.0006602025
200	0xbbb28d64	-0.005448984
201	0xbc0414c2	-0.00806159
202	0xbbae149d	-0.005312516
203	0xb9bfbc4b	-0.00036570648
204	0x3a1284b7	0.0005589234
205	0xbae18b4f	-0.0017207655
206	0xbbe764aa	-0.0070615606
207	0xbba55833	-0.0050459146
208	0xbb210ab9	-0.0024573042
209	0xbbe74dec	-0.0070588496
210	0x3bb7dc8f	0.0056110094
211	0xbb1abf4a	-0.0023612552
212	0xbb19ac6f	-0.0023448726
213	0xbbd3d87a	-0.006465015
214	0xbc68d0b1	-0.014209912
215	0x3bcd05b7	0.006256785
216	0xb68abe38	-4.134865e-06
217	0xbac5bb15	-0.0015085662
218	0xbbdf6862	-0.0068178633
219	0xbc782017	-0.01514437
220	0x3b30b5f4	0.0026963921
221	0xbb56b2ce	-0.0032760384
222	0xbb9561c4	-0.0045587737
223	0xbc072579	-0.00824868
224	0xbc7a1034	-0.015262652
225	0x3c061271	0.008183108
226	0x3c52e8a3	0.012872848
227	0x3c28b626	0.010297334
228	0x3bef78e1	0.007308111
229	0x3c155e75	0.009116759
230	0x3be2d635	0.006922508
231	0x3c3efbc3	0.011656704
232	0x3c2eb730	0.0106637925
233	0x3be16859	0.0068788943
234	0x3bd46986	0.006482306
235	0x3b9e9ad3	0.004840234
236	0x3c426e5a	0.01186713
237	0x3ba81658	0.0051296167
238	0x3b482d4c	0.0030544577
239	0x3b80edeb	0.003934612
240	0x3bcc15f7	0.0062282044
241	0x3bb7b624	0.0056064297
242	0x38457fdc	4.708754e-05
243	0x39e4e56d	0.00043658484
244	0x3afc4976	0.0019247967
245	0x3c12db06	0.008963352
246	0x3bb0f071	0.0053997566
247	0xbb04c51f	-0.0020259095
248	0xb6c47f24	-5.8560563e-06
249	0x3aa3ade5	0.0012487738

exp_avg_sq f4 [10, 1, 5, 5]
0	0x3a48062f	0.0007630316
1	0x3a264e43	0.00063440594
2	0x3a1dac58	0.0006014756
3	0x3a0dcaf1	0.0005408964
4	0x3a15865a	0.0005703919
5	0x3a3a75ff	0.00071129197
6	0x3a1439ec	0.0005654383
7	0x39f31cdd	0.00046370077
8	0x39ddbeec	0.00042294653
9	0x3a1a90f9	0.00058962364
10	0x3a2396ca	0.0006240426
11	0x3a00bc01	0.0004910827
12	0x39d83c45	0.00041243635
13	0x3a0faa37	0.0005480381
14	0x3a322fd4	0.0006797288
15	0x3a0fd148	0.00054862024
16	0x3a009812	0.0004905473
17	0x3a040bf8	0.0005037184
18	0x3a11dc92	0.00055641786
19	0x3a21b06d	0.0006167952
20	0x3a15b8e2	0.00057114486
21	0x3a02ae03	0.0004985036
22	0x39e38b2d	0.00043400508
23	0x39d1cb44	0.0004001503
24	0x39f9c81f	0.00047642083
25	0x3a066a1c	0.0005127506
26	0x3a0ee5bc	0.0005451103
27	0x39fe9b26	0.0004856225
28	0x3a04fbe1	0.0005072933
29	0x3a135334	0.0005620003
30	0x3a1fcb46	0.0006095659
31	0x3a0e5dd6	0.0005430853
32	0x39eb00bb	0.00044823237
33	0x3a12bbdd	0.0005597452
34	0x3a1c3e1c	0.0005960183
35	0x3a1d0a7a	0.0005990636
36	0x39e2373a	0.00043147226
37	0x39f8641c	0.00047376833
38	0x3a13fa60	0.0005644914
39	0x3a2002a5	0.00061039097
40	0x3a0ffcb4	0.0005492673
41	0x39dbeecf	0.0004194886
42	0x39f9c109	0.00047636803
43	0x3a12b6b1	0.0005596681
44	0x3a1ea59f	0.0006051901
45	0x3a0760e9	0.0005164282
46	0x39f0bb44	0.0004591589
47	0x3a048a3e	0.0005056
48	0x3a15157c	0.00056871003
49	0x3a1d0534	0.000598985
50	0x39ea3aee	0.00044675864
51	0x39f2d91e	0.00046319602
52	0x3a0cb54e	0.00053675927
53	0x3a0882f7	0.00052075036
54	0x39f7ae2e	0.00047241285
55	0x3a0495ca	0.00050577207
56	0x3a0fdf6d	0.000548831
57	0x3a1377e2	0.0005625469
58	0x3a052180	0.0005078539
59	0x39f2d9c9	0.000463201
60	0x3a11a1a5	0.0005555398
61	0x3a085c6f	0.0005201762
62	0x39eb5783	0.00044887894
63	0x39ed24dd	0.00045231628
64	0x39e7f6d0	0.00044243643
65	0x3a0dc3dd	0.0005407909
66	0x39e9efb1	0.00044619807
67	0x39d18915	0.0003996572
68	0x39de2b1d	0.00042375262
69	0x39e14be8	0.000429719
70	0x3a0bbcba	0.00053305516
71	0x39e44de2	0.00043545576
72	0x39c56732	0.00037651655
73	0x39d63323	0.0004085536
74	0x39ff9f42	0.00048756046
75	0x3a6fdaa1	0.0009149705
76	0x3a5753d1	0.0008214089
77	0x3a346e9a	0.0006882936
78	0x3a35c9f0	0.0006934693
79	0x3a49f414	0.0007703912
80	0x3a55d065	0.00081563584
81	0x3a2853fd	0.00064212066
82	0x3a0b9ed4	0.00053260964
83	0x3a0e2f05	0.00054238766
84	0x3a294d04	0.00064583146
85	0x3a3dd5b2	0.0007241621
86	0x3a10a84d	0.0005518243
87	0x39f3170e	0.0004636575
88	0x3a00d3fd	0.0004914401
89	0x3a2da955	0.00066246587
90	0x3a37208a	0.00069857447
91	0x3a0e8626	0.000543686
92	0x3a083c3e	0.0005196965
93	0x3a22ffe2	0.0006217939
94	0x3a576151	0.00082161004
95	0x3a47f1fa	0.0007627305
96	0x3a2a2ecf	0.00064919604
97	0x3a30c63d	0.0006743407
98	0x3a4afec1	0.000774365
99	0x3a7328d4	0.0009275798
100	0x3a276379	0.0006385367
101	0x3a370e00	0.0006982982
102	0x3a2b5dc2	0.00065371033
103	0x3a484ce2	0.0007640851
104	0x3a885309	0.0010400723
105	0x3a08fe91	0.00052259216
106	0x3a1f02c2	0.00060657796
107	0x3a0358e4	0.0005010499
108	0x3a4036a6	0.0007332362
109	0x3a8be1cf	0.0010672155
110	0x3a06528c	0.0005123995
111	0x3a214f59	0.00061534863
112	0x3a0b0bf2	0.0005304209
113	0x3a44a313	0.00075011066
114	0x3a8e6acc	0.0010865568
115	0x3a179dbf	0.0005783699
116	0x3a326b3c	0.00068061403
117	0x3a2d6b40	0.0006615408
118	0x3a5f2b8d	0.00085132645
119	0x3a986b6b	0.0011628693
120	0x3a2105c3	0.0006142521
121	0x3a35623f	0.0006919242
122	0x3a3e4687	0.0007258434
123	0x3a705c44	0.0009169022
124	0x3a9d5435	0.0012003245
125	0x3a89ca78	0.0010512611
126	0x3a54d2ad	0.00081185513
127	0x3a2e8e6a	0.00066587946
128	0x3a3a35e4	0.0007103367
129	0x3a3b05f7	0.0007134373
130	0x3a68abf6	0.0008875722
131	0x3a2b0e0f	0.0006525227
132	0x3a17b850	0.00057876576
133	0x3a228700	0.0006199926
134	0x3a2d358a	0.0006607404
135	0x3a477742	0.00076090184
136	0x3a1cb2fb	0.0005977598
137	0x39ff4a26	0.00048692635
138	0x3a03409b	0.00050068804
139	0x3a1f9d3d	0.0006088799
140	0x3a2bcd31	0.0006553708
141	0x3a143c9f	0.0005654785
142	0x3a006897	0.00048983976
143	0x3a050ac4	0.00050751516
144	0x3a266e6c	0.00063488516
145	0x3a12f9da	0.0005606689
146	0x3a043731	0.00050436246
147	0x3a00d261	0.00049141614
148	0x3a1128ad	0.0005537372
149	0x3a23e610	0.00062522385
150	0x3a158a6e	0.00057045266
151	0x3a1b0114	0.00059129414
152	0x3a237a17	0.00062361493
153	0x3a2b8258	0.0006542555
154	0x3a2b3535	0.0006531061
155	0x3a2a1a66	0.0006488919
156	0x3a3fb3e1	0.0007312876
157	0x3a3a040e	0.0007095941
158	0x3a24ec84	0.0006291347
159	0x3a25298d	0.0006300442
160	0x3a38f1ab	0.00070550543
161	0x3a3bc9ec	0.00071635726
162	0x3a1eb5aa	0.0006054292
163	0x3a0539e7	0.00050821755
164	0x3a17bb5b	0.0005788111
165	0x3a28a2c0	0.0006432943
166	0x3a1cebae	0.0005986047
167	0x3a071759	0.00051533204
168	0x39fffb4b	0.00048824618
169	0x3a13d064	0.00056386576
170	0x3a193767	0.00058447424
171	0x3a0dedea	0.0005414175
172	0x3a031dcd	0.0005001694
173	0x3a0c77a4	0.0005358404
174	0x3a1ac047	0.00059032853
175	0x3a0fd7db	0.0005487182
176	0x39eb0256	0.00044824433
177	0x39e33588	0.00043336698
178	0x3a01edb7	0.0004956382
179	0x3a15e441	0.00057179114
180	0x3a05c697	0.00051031396
181	0x39fb2ce3	0.00047907894
182	0x39ef98cf	0.00045699484
183	0x39fa6dd8	0.00047765556
184	0x3a14050e	0.0005646505
185	0x3a157aac	0.00057021785
186	0x3a0b4394	0.0005312499
187	0x39eb23a7	0.00044849256
188	0x39e8fd86	0.00044439378
189	0x3a1003f1	0.00054937514
190	0x3a14f457	0.00056821614
191	0x3a064b30	0.0005122898
192	0x39e43e4f	0.00043533972
193	0x39e5844d	0.00043776855
194	0x3a0d24ba	0.0005384196
195	0x3a0ad50d	0.0005296029
196	0x39faff29	0.00047873825
197	0x39f6828c	0.0004701804
198	0x3a052543	0.00050791
199	0x3a16c0b3	0.00057507603
200	0x3b3d987a	0.0028929994
201	0x3b3e2e29	0.0029019213
202	0x3b40b0ab	0.0029402177
203	0x3b3cd244	0.0028811852
204	0x3b3c9092	0.0028772694
205	0x3b3d6cd5	0.002890398
206	0x3b5609d9	0.0032659678
207	0x3b65e904	0.0035081515
208	0x3b6234cf	0.003451634
209	0x3b55bbf2	0.0032613245
210	0x3b3fa35a	0.0029241652
211	0x3b4e1f05	0.0031451595
212	0x3b557429	0.0032570458
213	0x3b4de8c5	0.003141926
214	0x3b3ce2cc	0.0028821705
215	0x3b2d31a6	0.0026427298
216	0x3b286c81	0.002569944
217	0x3b1f5dc0	0.0024317354
218	0x3b1e8b0c	0.0024191765
219	0x3b225f32	0.002477598
220	0x3b1dc530	0.0024073832
221	0x3b14c524	0.0022700513
222	0x3b0cffbd	0.0021514737
223	0x3b0f1ec6	0.002183841
224	0x3b1a3d1b	0.0023534957
225	0x3a0e40fd	0.0005426554
226	0x3a0b815a	0.0005321704
227	0x39f8ff6e	0.00047492556
228	0x3a065c01	0.0005125404
229	0x3a0edb81	0.0005449579
230	0x3a0085d8	0.0004902757
231	0x39da39d1	0.00041623277
232	0x39d9f1dd	0.00041569668
233	0x3a0b00fd	0.00053025765
234	0x3a1e2ce7	0.00060339127
235	0x39e8e0f7	0.000444181
236	0x39ccdc05	0.0003907384
237	0x39f886d5	0.00047402704
238	0x3a244465	0.0006266295
239	0x3a33f3fe	0.0006864666
240	0x39dcc1ff	0.00042106208
241	0x39e7d13f	0.00044215654
242	0x3a1ffe46	0.00061032583
243	0x3a4f3657	0.00079045206
244	0x3a4653d3	0.00075655914
245	0x39e33ad0	0.00043340633
246	0x3a03066e	0.00049982115
247	0x3a369560	0.00069650076
248	0x3a598959	0.00082983595
249	0x3a389d88	0.0007042517

exp_avg f4 [10]
0	0x3bcfd9db	0.006343109
1	0xbc4a7621	-0.012357266
2	0xbb87a944	-0.004140051
3	0x3c0b2282	0.008492114
4	0xbbc371f8	-0.005964514
5	0x3c3828f0	0.011240229
6	0x3c0d4641	0.008622707
7	0x3b974d32	0.0046173567
8	0x3c582a72	0.0131937135
9	0x3c0bacf8	0.008525126

exp_avg_sq f4 [10]
0	0x3a82e4aa	0.000998636
1	0x3a2e8bf3	0.00066584273
2	0x39fd586e	0.00048321806
3	0x39ee8792	0.00045495905
4	0x3ab9ca77	0.0014174719
5	0x3a82b8ae	0.0009973252
6	0x39e8362f	0.00044290858
7	0x3a5cbaae	0.00084201514
8	0x3b064c3d	0.002049222
9	0x39fdfa70	0.0004844251
