model_checkpoint/model_epoch3.pth (torch, 268573 bytes, 24 tensors)

conv1.weight f4 [10, 1, 5, 5]
0	0xbe4c4145	-0.19946773
1	0xbe70ae63	-0.23504023
2	0xbe89a5d9	-0.26884344
3	0xbe9e48a3	-0.30914792
4	0xbe78832b	-0.24268787
5	0x3e2358c2	0.15951827
6	0x3dd676f7	0.104719095
7	0xbdc33892	-0.09532274
8	0xbc665e12	-0.014060514
9	0xbe37c194	-0.17944938
10	0xbe1c1e8e	-0.1524603
11	0x3b3f032b	0.0029146175
12	0x3e3236b9	0.17403688
13	0x3e9b989f	0.30389878
14	0x3ed1d723	0.4098445
15	0x3e586440	0.21131992
16	0x3e1ab649	0.15108599
17	0x3e8c9545	0.27457634
18	0x3e421535	0.18953402
19	0x3df51894	0.119675785
20	0x3dd3247e	0.10309695
21	0xbdb04e28	-0.08608657
22	0xbd8379e3	-0.064197324
23	0xbe26b40d	-0.16279621
24	0xbe0516a2	-0.12996915
25	0x3eb874c9	0.360266
26	0x3e9f6e85	0.31139007
27	0x3e3d30fe	0.1847572
28	0xbe448e26	-0.1919485
29	0xbdc6ea24	-0.097126275
30	0x3eb8d2f4	0.36098444
31	0x3ea29630	0.3175521
32	0x3d395923	0.045251023
33	0xbe814e1c	-0.25254905
34	0xbdc041d2	-0.09387554
35	0x3e3aa3c3	0.18226533
36	0xbdb1b344	-0.0867677
37	0xbe8d98bf	-0.276556
38	0x3abd5806	0.0014445789
39	0x3d9747b1	0.07386721
40	0x3e60e08f	0.21960662
41	0xbde19799	-0.11015243
42	0xbe1a273c	-0.15054029
43	0xbe93d8a8	-0.28876233
44	0x3da90457	0.08252781
45	0xbda66f2d	-0.08126674
46	0xbe2ce28b	-0.16883294
47	0xbdcb926a	-0.09940036
48	0xbe8f54ec	-0.27994478
49	0xbe6a5af9	-0.22886266
50	0xbe21d46c	-0.15803689
51	0xbd129e27	-0.035795357
52	0x3e7d9b77	0.24766336
53	0x3e383a23	0.17990927
54	0x3e470d06	0.19438562
55	0x3daf016a	0.085451916
56	0x3eb5343f	0.35391423
57	0x3e5b4717	0.21413837
58	0x3e199046	0.14996442
59	0xbe02c931	-0.12772061
60	0x3e9fc691	0.31206182
61	0x3e205976	0.15659127
62	0xbe1dd59e	-0.1541352
63	0xbe5495f2	-0.20760325
64	0xbe974ad7	-0.29549286
65	0x3e061a9d	0.1309609
66	0xbd8eba46	-0.069691226
67	0xbed1e15c	-0.40992248
68	0xbe70f313	-0.23530225
69	0xbd30f657	-0.043203678
70	0xbd512086	-0.051056407
71	0xbea1d6b8	-0.3160913
72	0xbd210e76	-0.03932043
73	0x3dbf95f1	0.09354771
74	0x3e10ec56	0.14152655
75	0xbdd2bd22	-0.102899805
76	0xbbcc9f6d	-0.006244591
77	0xbe4c5530	-0.19954371
78	0xbe21ed5b	-0.158132
79	0xbdec10ae	-0.11526619
80	0xbd104a7a	-0.035227276
81	0xbe1269f9	-0.14298238
82	0xbd8ca237	-0.068668775
83	0xbe26242b	-0.16224734
84	0xbe61b385	-0.22041138
85	0xbda2c84f	-0.07948362
86	0xbc966e53	-0.018363154
87	0xbe80320c	-0.25038183
88	0xbe608a90	-0.21927857
89	0xbe120065	-0.14257963
90	0xbdeb738d	-0.11496649
91	0xbe2cbb88	-0.16868412
92	0xbdedfdb4	-0.11620656
93	0xbcabebad	-0.020986402
94	0xbcc1a37f	-0.023637531
95	0xbd1c0674	-0.03809209
96	0xbe34fa3c	-0.17673582
97	0xbd3b77d9	-0.045768593
98	0xbe1d360c	-0.15352648
99	0x3e74a154	0.23889667
100	0x3ea4e9a2	0.32209498
101	0x3ecd6093	0.40112743
102	0xbd86f885	-0.0659037
103	0xbe93f853	-0.28900394
104	0xbed2f5d8	-0.4120319
105	0x3e609e57	0.21935402
106	0x3eb9d01b	0.36291584
107	0x3e2e0cd7	0.16997086
108	0xbebd4e32	-0.3697372
109	0xbeb0f3cb	-0.34561
110	0x3da661b6	0.08124106
111	0x3e86eab4	0.2635094
112	0x3e56cead	0.20977278
113	0xbc5387a4	-0.012910757
114	0xbe546258	-0.2074064
115	0xbca162e0	-0.019700468
116	0x3e786c9e	0.24260184
117	0x3e3ad8cf	0.18246768
118	0xbbf1fc8d	-0.0073848427
119	0xbe671277	-0.22565638
120	0x3e0cc52d	0.13747092
121	0x3e819a9a	0.25313264
122	0x3e2e3e78	0.17016017
123	0xbe1b45a1	-0.1516328
124	0xbe7bf78f	-0.24606155
125	0xbbf062c0	-0.0073359907
126	0xbdf53b34	-0.11974183
127	0xbe44b2e3	-0.19208865
128	0xbeb3ae44	-0.35093892
129	0xbea74604	-0.32670605
130	0xbdc0d7e2	-0.094161764
131	0xbe599dc0	-0.21251583
132	0xbe5f6444	-0.21815592
133	0xbe306345	-0.17225368
134	0xbe9cbd08	-0.3061297
135	0x3eba7043	0.36413774
136	0x3e226123	0.15857367
137	0xbd727407	-0.059192684
138	0xbd244a88	-0.04011014
139	0xbd55ff34	-0.052245334
140	0x3e3193a6	0.1734148
141	0x3d698711	0.057013575
142	0x3eb8888f	0.36041686
143	0x3e068fb2	0.13140753
144	0x3e2007eb	0.1562802
145	0xbd219914	-0.039452627
146	0x3e87fbf0	0.265594
147	0x3e0a6dbb	0.13518421
148	0x3eb1941a	0.34683305
149	0x3e70f46c	0.2353074
150	0xbb919304	-0.0044425745
151	0xbe8e0ee1	-0.27745727
152	0x3e72cd64	0.23711163
153	0x3eab8f3f	0.33507726
154	0x3eb114f4	0.34586298
155	0xbe1d7d4c	-0.15379828
156	0x3dd085e1	0.101817854
157	0xbd810462	-0.06299664
158	0x3e90822c	0.28224313
159	0x3de9d36b	0.11417278
160	0x3d863c87	0.065545134
161	0xbc81e31b	-0.015855363
162	0xbe58e3db	-0.2118067
163	0xbe42f47a	-0.19038573
164	0x3e8049e3	0.2505637
165	0xbdabbddd	-0.08385823
166	0xbd1c6ccb	-0.03818969
167	0xbd22b6d6	-0.039725147
168	0xbe7466c0	-0.23867321
169	0x3e28d213	0.16486387
170	0xbe002ed7	-0.12517868
171	0xbdff2824	-0.12458828
172	0xbe93487e	-0.28766245
173	0xbdf49a16	-0.11943452
174	0xbe1091c9	-0.14118113
175	0xbd8b16bc	-0.067914456
176	0x3ea9ad81	0.33140185
177	0x3edba7ab	0.42901358
178	0x3e95ad44	0.29233754
179	0x3e441cff	0.19151686
180	0x3e1e1926	0.15439281
181	0x3e34aa89	0.17643179
182	0xbcb48af3	-0.022038912
183	0x3e7bf621	0.2460561
184	0x3d9d69e1	0.076862104
185	0xbdd86063	-0.10565259
186	0xbe8714b7	-0.26382992
187	0x3d188f94	0.0372463
188	0x3e68e8fe	0.2274513
189	0x3ebd13e5	0.3692924
190	0xbddb7c46	-0.10717063
191	0xbe1d63c4	-0.15370089
192	0xbe9177f3	-0.28411826
193	0xbe8c71bf	-0.2743053
194	0xbe2756b0	-0.16341662
195	0xbe36c25d	-0.17847581
196	0xbd84b660	-0.06480098
197	0xbe841ae2	-0.2580176
198	0xbea549a9	-0.3228276
199	0xbdfe9a93	-0.124318264
200	0x3e82622f	0.25465533
201	0xbdb956f2	-0.090497866
202	0xbe7f18d6	-0.24911818
203	0xbe31fc32	-0.17381361
204	0xbe28b147	-0.16473876
205	0xbb7b7c2d	-0.0038373575
206	0x3ea9980c	0.33123815
207	0x3ec16f53	0.37780246
208	0x3e2b0653	0.16701631
209	0x3e2f17b6	0.17098889
210	0x3d926480	0.07148075
211	0x3d2fe4d2	0.04294283
212	0x3eb894df	0.3605108
213	0x3e934e38	0.28770614
214	0x3e6dc301	0.2321892
215	0xbebf4792	-0.3735929
216	0xbe86bbff	-0.26315305
217	0xbe45d6ed	-0.19320269
218	0xbb40c4d0	-0.0029414184
219	0xbd8a25e7	-0.067455105
220	0xbc00f27a	-0.007870311
221	0xbe870e93	-0.26378307
222	0xbebb5850	-0.36590815
223	0xbea052ed	-0.31313267
224	0xbe822c47	-0.25424406
225	0x3e6d8391	0.2319472
226	0x3eb5d423	0.3551341
227	0xbe15e6f8	-0.14638889
228	0xbe96ede2	-0.29478365
229	0x3d67f193	0.056626868
230	0x3eeb5fc7	0.4597151
231	0x3e1bf409	0.15229811
232	0xbd99a997	-0.0750305
233	0xbe97b8dc	-0.29633224
234	0xbe5b4227	-0.21411954
235	0x3eacfe0e	0.33787578
236	0xbc6dc9f5	-0.014513482
237	0x3e58e17e	0.21179768
238	0x3d960099	0.07324333
239	0xbdf9d081	-0.12197972
240	0x3e0c3363	0.13691477
241	0x3c2e35ca	0.0106329415
242	0xbd6ab35a	-0.05729995
243	0x3e62f826	0.22164974
244	0x3da40946	0.08009581
245	0x3e4e531a	0.20148888
246	0x3d97b1d7	0.07406967
247	0x3eeee460	0.4665861
248	0x3e94f65b	0.29094204
249	0x3e5ea585	0.21742828

conv1.bias f4 [10]
0	0xbd98f9bc	-0.07469508
1	0xbe4c754e	-0.19966623
2	0x3e1243fa	0.14283744
3	0xbe36cd71	-0.17851807
4	0x3c7d9f0c	0.015479814
5	0xbcf08357	-0.029359503
6	0xbe11b6e6	-0.14229926
7	0x3cf02993	0.0293167
8	0xbe5a2f1c	-0.21307033
9	0x3e11921a	0.1421589

conv2.weight f4 [20, 10, 5, 5]
0	0x3dd31e3c	0.10308501
1	0xbcfd7aad	-0.030942285
2	0x3c38c6e5	0.011277889
3	0xbca8ecf4	-0.0206208
4	0xbb119a9a	-0.0022217394
5	0x3c821c42	0.015882615
6	0x3d3e2ecd	0.04643135
7	0x3bc21c90	0.005923815
8	0x3d770e36	0.060316287
9	0x3daa77fd	0.08323667
10	0x3daf91fa	0.08572765
11	0x3cbe7d46	0.023253094
12	0x3cdcad48	0.026938096
13	0x3deb9315	0.11502663
14	0x3e20eb62	0.15714791
15	0x3c04f3df	0.008114784
16	0x3cba5418	0.022745177
17	0x3da717fc	0.081588715
18	0x3e6cf5ef	0.23140691
19	0x3e076eda	0.1322588
20	0xbcc58cbc	-0.024114959
21	0xbd2502bb	-0.040285807
22	0xbd305403	-0.04304887
23	0xbd29b0b2	-0.041428275
24	0x3d984d50	0.07436621
25	0x3dd11dc1	0.10210753
26	0x3d392fae	0.045211487
27	0x3d474076	0.04864546
28	0x3e201567	0.15633164
29	0x3dfb3381	0.12265683
30	0x3b7682f6	0.003761468
31	0xbd17b341	-0.037036184
32	0x3d6ede68	0.058317572
33	0x3d9302e0	0.07178283
34	0x3d8f10f4	0.069856554
35	0x3c85240e	0.016252544
36	0xbbc8f7e0	-0.0061330646
37	0x3d46fa73	0.04857869
38	0x3d6d04e4	0.057865992
39	0xbcb949f6	-0.022618275
40	0x3cd68763	0.026187604
41	0x3d227844	0.039665475
42	0x3d92e225	0.0717204
43	0xbbea861b	-0.0071571
44	0xbd393136	-0.045212947
45	0x3c23f742	0.010007681
46	0x3d5f2551	0.054478947
47	0xbd8ec215	-0.06970612
48	0x3c3a0d9d	0.011355785
49	0xbb9104c7	-0.0044256183
50	0x3dac1820	0.08403039
51	0xbd5422b5	-0.05179091
52	0x3b87cd11	0.004144319
53	0x3e1366fd	0.14394756
54	0x3aac2b63	0.0013135489
55	0x3de815e4	0.113323
56	0xbd9b4abd	-0.075826146
57	0xbd4a583b	-0.04940055
58	0x3d903524	0.07041386
59	0xbd5d4113	-0.054017138
60	0xbd601bd7	-0.05471405
61	0xbd6f106f	-0.05836528
62	0x3d748d3e	0.05970501
63	0x3d15c073	0.036560487
64	0x3bcf3132	0.006323003
65	0x3d0c7b96	0.03429755
66	0xbca59928	-0.020214632
67	0x3cac8222	0.021058146
68	0xbcf88732	-0.030337904
69	0x3dca578c	0.098799795
70	0xbcbd79c5	-0.023129353
71	0xbde4127b	-0.11136337
72	0xbd27e8eb	-0.040993612
73	0x3d242b7a	0.040080525
74	0x3d4ead69	0.050458346
75	0x3d995065	0.07486037
76	0x3d67189d	0.056419957
77	0x3d445acb	0.04793815
78	0xbb7177f8	-0.0036845189
79	0x3d739a8d	0.059473563
80	0x3c0d086e	0.008607967
81	0x3d3ba172	0.045808263
82	0x3cb9ed3a	0.022696126
83	0xbd89340c	-0.0669938
84	0xbc62104b	-0.01379783
85	0xbd09b8fa	-0.033623673
86	0xbce31af2	-0.02772281
87	0xbd87b9b2	-0.066272154
88	0xbd3d70c2	-0.046250112
89	0xbd3b4677	-0.045721497
90	0xbda0ee9e	-0.078580126
91	0xbd1374ea	-0.03600017
92	0xbd029a0a	-0.031885184
93	0xbc85a849	-0.016315596
94	0x3d0c9eaa	0.034331
95	0xbdfbe18f	-0.12298881
96	0xbd8e8c65	-0.06960372
97	0xbcd063ba	-0.025438178
98	0x3ce9d465	0.02854366
99	0x3d8f05a5	0.069834985
100	0x3d82f396	0.063941166
101	0x3ce6534c	0.02811589
102	0x3c64805f	0.013946622
103	0x3d5e405f	0.054260608
104	0xbd955e6b	-0.072933994
105	0xbd209b04	-0.039210334
106	0xbd3f4f33	-0.04670639
107	0xbbdd18e9	-0.0067473543
108	0xbd1435f5	-0.03618427
109	0xbd80bad5	-0.062856354
110	0xbe2c499e	-0.16824958
111	0xbd20872d	-0.039191414
112	0xbd320a20	-0.043466687
113	0xbd5166e0	-0.0511235
114	0xbcd31a43	-0.025769359
115	0xbdeb943b	-0.11502882
116	0xbd4bab02	-0.049723633
117	0xbd9b4919	-0.07582302
118	0xbd413704	-0.047171608
119	0xbddc1c6c	-0.107476085
120	0x3dbd867c	0.092541665
121	0x3d00432c	0.03131406
122	0xbd06ff43	-0.03295828
123	0xbe04b1d8	-0.12958467
124	0xbe5e4a42	-0.21708015
125	0x3c138bda	0.009005511
126	0x3cf36da4	0.029715367
127	0xbd1c959f	-0.038228627
128	0x3cd306f4	0.025760151
129	0xbe06534e	-0.13117716
130	0x3c26b770	0.010175571
131	0xbd0f81de	-0.03503596
132	0x3d3bc304	0.04584028
133	0x3d1f6813	0.038917612
134	0x3d2a943e	0.04164528
135	0x3c68249d	0.014168886
136	0xbce6e0ff	-0.028183458
137	0x3c0a8648	0.008454867
138	0x3e0b6d40	0.13615894
139	0x3df26d67	0.11837273
140	0xbd06cacf	-0.032908257
141	0x3c283a23	0.010267767
142	0x3d0f47da	0.034980632
143	0x3d8e25e5	0.069408216
144	0x3ddbf566	0.107401654
145	0xbcdd7c18	-0.027036712
146	0xbdcfa7ed	-0.10139451
147	0xbd34aafa	-0.04410837
148	0xbd44c4d4	-0.048039272
149	0x3d1b3588	0.03789285
150	0xbde7326d	-0.11288915
151	0xbe4b881a	-0.19876137
152	0x3ce5eb7a	0.028066386
153	0x3da73c43	0.08165791
154	0xbce5dd13	-0.028059518
155	0xbe5ef3b7	-0.21772657
156	0xbe5163f1	-0.20448281
157	0x3d641ae0	0.055689692
158	0x3d25c71d	0.040473092
159	0xbd5779a7	-0.05260625
160	0xbe2e976d	-0.17049952
161	0xbc6e23fb	-0.014534946
162	0xbc3774c7	-0.0111972755
163	0x3d9ce08c	0.076600164
164	0x3d551eca	0.052031316
165	0xbe2048a3	-0.15652709
166	0x3c838c5b	0.016058138
167	0x3d3313a6	0.04371991
168	0x3d981887	0.07426553
169	0x3dc988b3	0.098405264
170	0xbd5a2e45	-0.053266782
171	0xbcd05081	-0.025429012
172	0xbc6136a8	-0.013745941
173	0xbd69ece7	-0.057110693
174	0xbdde9caf	-0.10869729
175	0xbd839507	-0.06424909
176	0xbe465dc1	-0.19371702
177	0xbdbc6258	-0.09198445
178	0xbd9d4d59	-0.076807685
179	0xbcdbcdda	-0.026831556
180	0xbe232992	-0.15933827
181	0xbe8afb18	-0.27144694
182	0xbda3c706	-0.07996945
183	0x3d018224	0.031618252
184	0xbc85b72e	-0.016322698
185	0xbe0eaa9b	-0.13932268
186	0xbd3d190d	-0.04616647
187	0x3d47115d	0.048600543
188	0x3d21a09d	0.039459813
189	0x3d9f2d96	0.07772367
190	0xbcffdfe0	-0.031234682
191	0x3d794510	0.06085688
192	0x3dc673ce	0.09690057
193	0x3d9bf0d5	0.076142944
194	0x3dd2462f	0.10267293
195	0xbd9c881d	-0.07643149
196	0x3d81f1b5	0.0634493
197	0x3ddb8c92	0.10720171
198	0x3ce56756	0.028003376
199	0xbde49ffa	-0.111633256
200	0x3cd25b61	0.025678338
201	0xbda96e91	-0.08273042
202	0xbdf6a13c	-0.12042472
203	0x3b83ebce	0.004025913
204	0xbc87432c	-0.016511522
205	0xbe38fff6	-0.18066391
206	0xbe4d0fed	-0.20025606
207	0xbd7df6bb	-0.06200288
208	0x3dce384e	0.10069333
209	0x3de96759	0.11396665
210	0xbd9580ea	-0.07299979
211	0x3d3bd2a7	0.04585519
212	0x3dd3d963	0.103441976
213	0x3e3b51aa	0.18292871
214	0x3e0b963f	0.13631533
215	0xbd827809	-0.06370551
216	0x3dd53b45	0.104116954
217	0x3e45ccf1	0.1931646
218	0x3e856fe3	0.26061925
219	0x3e756469	0.23964085
220	0xbdab0cfd	-0.08352087
221	0xbd56ee16	-0.05247315
222	0x3dee8da0	0.116481066
223	0x3d8da875	0.06916896
224	0xbc6b2299	-0.01435151
225	0x3d4537b7	0.048148837
226	0xbbf1959e	-0.007372572
227	0xbdc3d2f4	-0.095617205
228	0xbe0c0233	-0.13672714
229	0xbde8a602	-0.113597885
230	0xbd02fed5	-0.031981308
231	0x3cfe800a	0.031066913
232	0xbd456d11	-0.048199717
233	0x3c863745	0.016383776
234	0xbd55d38f	-0.05220371
235	0x3cb35e4e	0.021895554
236	0xbd88e3e8	-0.06684095
237	0x3ba365fa	0.004986522
238	0x3cacd37f	0.021096943
239	0x3d0ef73e	0.034903757
240	0x3d282090	0.04104668
241	0xbdff35ca	-0.12461431
242	0xbd63f3ee	-0.05565255
243	0xbcdf0076	-0.0272219
244	0x3d33cdff	0.043897625
245	0x3ccf4948	0.025303498
246	0x3d4abb30	0.049494922
247	0x3c78d734	0.015188027
248	0xbdcb2787	-0.099196486
249	0x3d25e2db	0.04049955
250	0xbc4ae0b9	-0.01238268
251	0xbe1a0a06	-0.15042886
252	0x3d38aaf8	0.045084924
253	0xbbe58375	-0.0070041963
254	0xbd375204	-0.04475595
255	0x3e19f26a	0.1503388

conv2.bias f4 [20]
0	0xbcd4eb38	-0.025991067
1	0xbc23a8c3	-0.009988966
2	0xbcedbf0e	-0.029021766
3	0xbd3e51c7	-0.046464708
4	0xbd52092f	-0.05127829
5	0x3c951ffe	0.018203732
6	0xbc3ca608	-0.011514194
7	0x3d4ea473	0.0504498
8	0x3d168f3a	0.036757685
9	0x3d59a63d	0.053137053
10	0x3c9e2a8a	0.019307394
11	0xbc4ced66	-0.012507772
12	0x3da787a9	0.08180172
13	0xbcc47f62	-0.023986522
14	0x3c8d9b31	0.017285915
15	0xbc9b3288	-0.018944994
16	0xbd88e1bd	-0.06683681
17	0xbc3b5167	-0.011432982
18	0xbd09622a	-0.033540882
19	0x3d18ad5f	0.037274715

fc1.weight f4 [50, 320]
0	0xbdc0b6df	-0.0940988
1	0xbcc2afff	-0.023765562
2	0xbded5c9a	-0.11589928
3	0xbd8c7867	-0.068589024
4	0x3d6fb84e	0.058525376
5	0x3cb94460	0.022615612
6	0xbe526feb	-0.20550506
7	0xbd9c9cbd	-0.07647083
8	0x3ca87f3a	0.020568479
9	0x3d66d983	0.05635978
10	0xbd2f38ae	-0.042778663
11	0x3df0f647	0.11765724
12	0xbd0c4228	-0.03424278
13	0xbc428d64	-0.01187453
14	0x3d193245	0.037401456
15	0x3df4eb3e	0.119589314
16	0x3c685704	0.014180902
17	0xbcdceba3	-0.02696783
18	0xbca213d5	-0.019784847
19	0xbb049e9e	-0.0020236145
20	0x3d98eb7b	0.07466789
21	0x3cab803c	0.02093517
22	0xbd4fa49f	-0.050694104
23	0xbe1cf0c9	-0.15326227
24	0xbe1ea639	-0.15493096
25	0x3d48947a	0.048969723
26	0x3d1822e7	0.03714266
27	0xbddba5d9	-0.10724992
28	0x3c90d3c0	0.017679095
29	0x3d6cc647	0.05780628
30	0x3dbfa29c	0.09357187
31	0xbdc18978	-0.09450048
32	0xbe06f7a4	-0.13180405
33	0xbd676caf	-0.056500133
34	0x3cbf75fa	0.023371685
35	0xbe33764e	-0.17525598
36	0xbde1b217	-0.11020296
37	0xbc83bbdc	-0.01608079
38	0x3c27087b	0.010194893
39	0xbdc5e6b8	-0.09663147
40	0x3d6c753f	0.057729002
41	0x3d22bdd9	0.039731834
42	0xbd86c3c5	-0.06580309
43	0xbc5f7288	-0.013638146
44	0x3b14c237	0.002269877
45	0x3d5453e0	0.051837802
46	0x3d3713bb	0.04469655
47	0x3cd1d7d4	0.02561561
48	0x3deeb06e	0.11654745
49	0x3ce3dfc2	0.027816657
50	0xbda814e1	-0.08207107
51	0xbd9bff5a	-0.07617064
52	0x3d032223	0.032014977
53	0xbc90b4af	-0.017664282
54	0xbbc35c29	-0.005961914
55	0x3d74991a	0.05971632
56	0x3d2b783f	0.041862722
57	0xbade62df	-0.0016966722
58	0xbe23c7ad	-0.15994139
59	0x3db65ed4	0.08904806
60	0x3c3bd21e	0.01146367
61	0xbd81a49e	-0.06330226
62	0xbdacd3a1	-0.084388025
63	0xbd23348d	-0.03984504
64	0xbdf4461c	-0.11927435
65	0xbd88a30f	-0.06671726
66	0x3cb5022f	0.022095768
67	0xbc5539f4	-0.013014305
68	0xbd4a2464	-0.04935111
69	0xbda9bb85	-0.0828772
70	0xbd8fe4ae	-0.07026039
71	0xbb11fea7	-0.0022277029
72	0x3b328205	0.0027238142
73	0xbbd64541	-0.0065390174
74	0x3cd62372	0.026139949
75	0xbd9c4ed9	-0.076322265
76	0x3c313231	0.010815189
77	0x3d56b188	0.0524154
78	0xba80ff96	-0.0009841796
79	0x3d929ad0	0.071584344
80	0x3ccc720a	0.024956722
81	0x3d724816	0.059150778
82	0x3d1c442f	0.038150962
83	0xbe24d1cb	-0.16095655
84	0xbe2c1f8d	-0.1680891
85	0xbd17edfe	-0.0370922
86	0x3bdec79d	0.006798698
87	0x3d0646d6	0.0327824
88	0x3d4d348e	0.05009895
89	0x3df7c044	0.12097219
90	0x3c45feca	0.012084672
91	0xbc058ca9	-0.008151212
92	0x3dbe7bcd	0.09300957
93	0x3ca52cb6	0.020162921
94	0xbd01000c	-0.031494185
95	0xbd86e1ea	-0.065860584
96	0xbd8e3f41	-0.069456585
97	0xbd8ee8dd	-0.06978009
98	0xbe175342	-0.14777854
99	0xbbc4e9e1	-0.006009326
100	0x3d381e0f	0.04495054
101	0xbb92dfe9	-0.0044822586
102	0xbd4e39f5	-0.05034824
103	0x3cdcfad9	0.026975082
104	0xbcb52317	-0.022111459
105	0x3d872325	0.065985
106	0x3bd79750	0.006579317
107	0x3cf86bdc	0.030324869
108	0xbd262f41	-0.04057241
109	0xbd195223	-0.037431847
110	0xbd1a5b76	-0.03768488
111	0xbc159057	-0.009128652
112	0xbd562880	-0.052284718
113	0x3cb9a3ff	0.022661207
114	0xbc464ed9	-0.01210376
115	0xbde12ca7	-0.10994845
116	0x3b4245dd	0.0029643693
117	0xbd68c6d5	-0.056830246
118	0xbe0bdd85	-0.13658722
119	0xbd7630d8	-0.060105175
120	0x3dedbc7d	0.11608217
121	0x3d97fa17	0.07420748
122	0x3be073fb	0.0068497634
123	0xbd83a32f	-0.06427609
124	0xbc4a0d05	-0.012332206
125	0x3cdd032c	0.026979052
126	0x3d96ad4e	0.07357274
127	0xbdee8aad	-0.11647544
128	0xbdd5ae32	-0.10433616
129	0x3b95dcf5	0.0045734593
130	0x3ab316ce	0.0013663413
131	0xbe02358e	-0.12715742
132	0x3d32d669	0.04366151
133	0xbd63020c	-0.055421874
134	0xbcb2607f	-0.021774529
135	0x3d360e65	0.04444732
136	0x3ddbf661	0.107403524
137	0xbd168cc4	-0.03675534
138	0xbcf9fb93	-0.030515468
139	0x3d9ec860	0.07753062
140	0x3e201745	0.15633877
141	0xbc921781	-0.017833473
142	0xbd08ae71	-0.033369485
143	0xbd47e25c	-0.048799857
144	0xbd964273	-0.07336893
145	0x3becd85d	0.007227941
146	0x3d1fc6a4	0.039007798
147	0x3c0391be	0.008030353
148	0x3c8a1b42	0.0168587
149	0x3cbfa187	0.023392452
150	0xbd41c37c	-0.04730557
151	0x3d16cf2e	0.036818676
152	0x3df2d811	0.11857618
153	0xbd9cdd62	-0.07659413
154	0xbdb54d24	-0.08852604
155	0x3cda01f1	0.026612254
156	0x3c35ff2e	0.011108203
157	0xbdd0ab59	-0.10188932
158	0xbdc8b225	-0.097996034
159	0xbe0db0ab	-0.13836925
160	0xbb86fa81	-0.004119218
161	0x3d13be43	0.03607012
162	0x3e04e9cf	0.12979816
163	0x3cb837b0	0.022487491
164	0x3ca65583	0.020304447
165	0xbd281ed9	-0.041045044
166	0x3d90d2cf	0.070714585
167	0x3cdaf1fc	0.026726715
168	0x3d36d457	0.044636097
169	0xbd823cb4	-0.063592345
170	0x3d4df5fc	0.050283417
171	0xbc30eb68	-0.010798313
172	0xbc170f6f	-0.009219988
173	0xbdbb8202	-0.091556564
174	0xbd99aed9	-0.07504053
175	0xbdde411e	-0.10852264
176	0xbdb62a62	-0.08894803
177	0xbe14360e	-0.14473745
178	0xbe395c3e	-0.18101594
179	0xbd534db4	-0.051587775
180	0xbbfec39f	-0.0077747847
181	0x3cd722fa	0.026261795
182	0xbd652425	-0.055942673
183	0x3c6640ff	0.014053582
184	0x3de27609	0.1105767
185	0x3ddd90da	0.10818644
186	0xbd82abf8	-0.06380457
187	0x3ce39b3f	0.027783988
188	0x3d43b25c	0.04777752
189	0x3dd9cff2	0.106353655
190	0x3b85f9fc	0.0040886384
191	0xbc6c163b	-0.014409597
192	0xbe10ed61	-0.14153053
193	0xbcfc1cfc	-0.03077554
194	0x3d695791	0.056968275
195	0x3dbcbaf2	0.092153445
196	0xbd108d34	-0.03529091
197	0xbd9269a2	-0.07149054
198	0xbcae0aed	-0.021245444
199	0x3e100de1	0.14067794
200	0x3d6ebb9b	0.058284383
201	0xbdb1ba78	-0.08678144
202	0xbcb547ca	-0.022128958
203	0xbd8676d6	-0.06565635
204	0x3d6755a3	0.056478154
205	0xbdf5820b	-0.11987694
206	0xbdd489ac	-0.10377821
207	0xbb868b95	-0.004105995
208	0xbcd66fd9	-0.02617638
209	0xbd0be856	-0.03415712
210	0xbd7b772c	-0.061392948
211	0xbe0162bc	-0.1263532
212	0xbc9adb2d	-0.01890334
213	0x3d8bc26b	0.06824192
214	0x3c173c2a	0.009230653
215	0xbca863fb	-0.020555487
216	0x3c96cb55	0.018407503
217	0xbe0a748b	-0.1352102
218	0xbd81b28d	-0.06332884
219	0x3e02d3b9	0.12776078
220	0xbd79839f	-0.06091654
221	0xbd8ff0b1	-0.0702833
222	0x3c98695d	0.018604929
223	0x3e0bca9f	0.13651513
224	0xbe0850ea	-0.13312116
225	0xbde054b4	-0.10953656
226	0xbdce44b3	-0.10071697
227	0xbdc5116a	-0.09622462
228	0x3ce59f1c	0.02802997
229	0x3d06efb6	0.03294345
230	0xbd850fe3	-0.06497171
231	0xbd919359	-0.071081825
232	0xbbd7777f	-0.0065755243
233	0x3d057dfc	0.03259085
234	0x3da7361b	0.08164617
235	0x3d9abdce	0.075557336
236	0x3d35e680	0.044409275
237	0xbdc8d52b	-0.098062836
238	0xbc1c0316	-0.00952222
239	0x3d9b986e	0.07597433
240	0xbd49f7f8	-0.049308747
241	0x3c8a0b13	0.016850984
242	0x3cd6fc18	0.026243255
243	0x3d235fc6	0.03988626
244	0x3d03602c	0.03207414
245	0x3c85c06f	0.016327111
246	0x3d9145a9	0.07093365
247	0x3dbcf7f0	0.09226978
248	0xbd1160a4	-0.035492554
249	0xbdea6a71	-0.11446083
250	0x3d0b2299	0.03396854
251	0x3e17bd82	0.14818385
252	0xbe193992	-0.14963368
253	0xbbffca45	-0.007806095
254	0xbd8f5cdd	-0.07000134
255	0xb8da9467	-0.00010422692

fc1.bias f4 [50]
0	0xbcc5240e	-0.024065044
1	0x3d9ec522	0.07752444
2	0x3dd60a2a	0.104511574
3	0xbcef7d8a	-0.029234666
4	0x3de4408c	0.11145124
5	0xbc807398	-0.01568012
6	0x3e1b9c75	0.15196402
7	0x3c07ca5b	0.008287991
8	0xbcf11e35	-0.02943335
9	0x3cfd1272	0.030892584
10	0x3deacdf2	0.11465062
11	0x3df26258	0.11835164
12	0x3c57c055	0.013168414
13	0x3e171ed3	0.14757852
14	0x3cfcabec	0.030843697
15	0x3e1e5f60	0.1546607
16	0x3e5a3640	0.21309757
17	0xbb5cc02e	-0.0033683884
18	0x3da62fd1	0.08114589
19	0x3d430b4b	0.04761819
20	0x3def99e4	0.11699274
21	0x3de57f64	0.112059385
22	0x3d12ca10	0.035837233
23	0x3e070f12	0.13189343
24	0x3d3d63dc	0.04623781
25	0x3d25c85e	0.04047429
26	0x3da3b7a7	0.07994013
27	0x3d539fd7	0.051666107
28	0xbd5b3555	-0.05351766
29	0x3c983ac6	0.018582713
30	0x3d1228f0	0.035683572
31	0x3d761da7	0.060086872
32	0x3d0530ea	0.03251735
33	0xbc368e1f	-0.011142283
34	0x3df0fce7	0.11766987
35	0x3d1e05f8	0.03857991
36	0x3db7853b	0.089609586
37	0xbd3ea90c	-0.046547934
38	0x3cf58e05	0.029974947
39	0x3ddc6812	0.10762037
40	0x3dcec1d9	0.10095567
41	0x3e2131df	0.1574168
42	0x3e1418fd	0.14462657
43	0x3e41c1b9	0.18921556
44	0x3d8dfac4	0.06932595
45	0x3dc05551	0.09391273
46	0x3dd4ea79	0.103962846
47	0x3dd616cf	0.10453569
48	0x3dc8abc7	0.09798389
49	0x3e59801d	0.21240278

fc2.weight f4 [10, 50]
0	0x3e13929e	0.14411399
1	0x3e5f422c	0.21802586
2	0xbe48c5ff	-0.1960678
3	0xbe50dd7e	-0.20396993
4	0xbc80efd8	-0.015739366
5	0x3e019cf0	0.12657523
6	0xbe1b0298	-0.15137708
7	0xbe6c9899	-0.23105086
8	0xbda22880	-0.07917881
9	0x3d87ba85	0.06627373
10	0xbe184ae0	-0.14872313
11	0xbe78a19c	-0.24280399
12	0xbe831c69	-0.25607613
13	0xbe3927a3	-0.18081526
14	0x3dc9b512	0.098489895
15	0xbeaa69d1	-0.33283857
16	0xbe7f8f9b	-0.24957125
17	0xbea2866a	-0.31743175
18	0x3e014a8d	0.12626095
19	0x3e35460d	0.17702504
20	0xbeb03047	-0.34411833
21	0x3d66670e	0.056250624
22	0x3dae99c3	0.085254215
23	0xbc9f420c	-0.019440673
24	0xbcc7ceca	-0.024390597
25	0xba9c43cb	-0.0011922059
26	0xbe899eee	-0.26879066
27	0xbd7505c0	-0.059819937
28	0xbe3f7e8c	-0.18700618
29	0x3d983a5a	0.07433005
30	0x3e298b7a	0.16557112
31	0x3e2e8721	0.17043735
32	0x3e07dc19	0.13267554
33	0xbe8f4c3b	-0.27987847
34	0xbe0acf79	-0.13555707
35	0x3dd08163	0.101809286
36	0xbe83d626	-0.2574932
37	0xbd5247a8	-0.051337868
38	0x3e058034	0.13037187
39	0x3d8d8b68	0.06911355
40	0xbe7207f8	-0.23635852
41	0xbca152b7	-0.019692762
42	0xbea271ea	-0.31727535
43	0xbe435705	-0.19076164
44	0x3ddd6ec6	0.10812144
45	0x3ddec9a1	0.108783014
46	0xbeb7324b	-0.35780558
47	0xbe8c3bcc	-0.2738937
48	0x3e205c89	0.156603
49	0xbb19760e	-0.0023416313
50	0xbe07c394	-0.13258201
51	0x3bc36bf1	0.0059637954
52	0x3abebd55	0.0014552275
53	0xbe72fdc9	-0.23729624
54	0x3d32bd5a	0.04363761
55	0xbe7eb84f	-0.24874996
56	0x3e03bdfe	0.12865445
57	0xbda2267c	-0.079174966
58	0xbe29f2ca	-0.16596523
59	0xbe457b84	-0.19285399
60	0xbe3dc0f0	-0.18530631
61	0x3d75be27	0.059995797
62	0xbe4b7052	-0.19867066
63	0x3e51c217	0.20484196
64	0xbe7f37f5	-0.2492369
65	0x3d93110c	0.07180986
66	0x3e02dd4b	0.12779729
67	0xbe6d03c3	-0.23145966
68	0xbe0d05e3	-0.13771777
69	0xbe8a88a3	-0.2705737
70	0x3dd935cf	0.10605966
71	0x3d12e902	0.035866745
72	0xbdc7e0f0	-0.097597
73	0x3dda52a1	0.106602915
74	0x3dc2a99d	0.095050074
75	0xbe56a0ac	-0.20959729
76	0xbe2b538f	-0.16731094
77	0xbe944d1e	-0.28965086
78	0xbd904e8c	-0.070462316
79	0xbe952fbd	-0.29137984
80	0x3e059443	0.13044839
81	0xbe63ecde	-0.22258326
82	0xbda2f9d2	-0.07957806
83	0xbe85a7b6	-0.26104516
84	0x3e2811d5	0.16413052
85	0xbe11a64c	-0.14223593
86	0x3dafc667	0.08582764
87	0xbe92e9a9	-0.28693894
88	0xbead63da	-0.33865243
89	0x3dec5060	0.11538768
90	0x3dbc8403	0.09204867
91	0x3ddd2556	0.10798137
92	0x3d9db8b9	0.07701249
93	0x3df1498e	0.117816076
94	0x3dc5dd04	0.09661296
95	0x3de67bd3	0.11254086
96	0x3dbfd2f2	0.093664065
97	0x3d52966b	0.05141298
98	0xbdcf0c6e	-0.10109793
99	0x3e51b874	0.2048052
100	0x3db5e0a9	0.08880741
101	0x3e221e79	0.15831937
102	0xbdf614a9	-0.12015659
103	0xbdd9f0c3	-0.10641625
104	0xbdaaff7a	-0.083495095
105	0x3d7f74c8	0.06236723
106	0x3dcb5375	0.099280275
107	0x3e27cab1	0.16385914
108	0x3dcb3d3a	0.099237874
109	0x3d5ea9ff	0.05436134
110	0xbe072ed8	-0.13201463
111	0x3e06b452	0.13154724
112	0xbd718c5d	-0.05897175
113	0xbde08bca	-0.10964163
114	0xbe20ebe1	-0.1571498
115	0xbe500fe5	-0.20318563
116	0xbdf92385	-0.12164978
117	0xbdcc2d56	-0.09969585
118	0xbdb33cda	-0.08751841
119	0xbd8114c3	-0.06302788
120	0xbe527102	-0.20550922
121	0x3de7cdb9	0.11318535
122	0xbe2707e9	-0.16311611
123	0x3deb887a	0.1150064
124	0xbb81c8fb	-0.0039607263
125	0xbca3e73f	-0.020007728
126	0x3c88d96e	0.016705241
127	0xbe456ce2	-0.19279817
128	0x3dcf2fd3	0.101165436
129	0xbd11d641	-0.03560472
130	0x3e06781c	0.13131756
131	0xbdad431d	-0.084600665
132	0x3e00c50f	0.12575172
133	0xbe019588	-0.12654698
134	0x3e54ee93	0.20794134
135	0x3bece4c2	0.0072294185
136	0xbddb54ab	-0.107095085
137	0x3d0dc0c9	0.034607682
138	0xbc68ee6b	-0.0142169995
139	0xbe110f2f	-0.14165948
140	0x3dd1789a	0.10228081
141	0x3e1ce3f6	0.15321335
142	0xbe987156	-0.29773968
143	0x3e0cfdd5	0.13768704
144	0x3e045eec	0.12926835
145	0x3dcc0e18	0.09963626
146	0xbeaa7807	-0.332947
147	0xbdb8c4c7	-0.09021907
148	0xbe092626	-0.13393459
149	0xbdfde133	-0.12396469
150	0xbc4be6fd	-0.012445209
151	0xbd715cb1	-0.058926288
152	0xbe0d364b	-0.13790242
153	0x3dd1547c	0.10221192
154	0xbe48a83f	-0.19595431
155	0xbe359a45	-0.1773463
156	0xbe7ff629	-0.24996246
157	0x3e138a06	0.1440812
158	0x3d4873a5	0.048938412
159	0x3d36103c	0.044449076
160	0xbdea5f67	-0.11443978
161	0x3db6ee55	0.08932177
162	0x3e276656	0.16347632
163	0xbe8989a1	-0.26862815
164	0x3d313c06	0.043270133
165	0x3da8ab35	0.0823578
166	0xbe83879e	-0.25689405
167	0x3e14e8f3	0.14541988
168	0xbdd8b1dc	-0.10580799
169	0xbe3609fa	-0.17777243
170	0xbe0924cc	-0.13392943
171	0x3dbb6e62	0.09151913
172	0xbe2252a1	-0.15851833
173	0xbe65fa31	-0.22458722
174	0x3c97ce4b	0.018530985
175	0xbe02fa0a	-0.12790695
176	0xbe3da1a9	-0.185187
177	0xbe08ea7a	-0.13370696
178	0x3d7cc30b	0.061709445
179	0x3de7048f	0.11280166
180	0xbe1a7512	-0.15083721
181	0xbe477494	-0.19478065
182	0x3e1c6886	0.15274248
183	0x3d7658ca	0.06014327
184	0x3cfd41ec	0.030915223
185	0x3d895ba7	0.067069344
186	0x3e116949	0.1420032
187	0xbddfde9d	-0.10931132
188	0xbe15ba1b	-0.14621775
189	0xbd9bb50c	-0.07602891
190	0x3ddab25a	0.10678549
191	0xbe137e8d	-0.14403744
192	0xbe18df5c	-0.14928955
193	0xbd4f1026	-0.05055251
194	0x3dd8b68d	0.10581694
195	0x3dbebb6e	0.09313093
196	0x3c21aa91	0.009867326
197	0x3e092190	0.1339171
198	0xbda30b85	-0.079611816
199	0xbe389722	-0.18026403
200	0x3e142eda	0.14470997
201	0xbd908723	-0.07057025
202	0xbe11addc	-0.14226478
203	0xbe4602a0	-0.19336939
204	0x3e225cf7	0.15855776
205	0x3ddf4471	0.10901726
206	0x3be4801b	0.006973279
207	0x3dea998c	0.11455068
208	0x3e115b58	0.14195001
209	0xbed5df83	-0.41772088
210	0x3dabb123	0.083833955
211	0xbe6212ee	-0.22077534
212	0x3d3e1948	0.04641083
213	0x3e51c2da	0.20484486
214	0xbdbe79ee	-0.093006
215	0xbe08e5f7	-0.13368975
216	0x3dd82f12	0.10555853
217	0x3e090816	0.13381991
218	0xbe3b93ff	-0.18318175
219	0xbe655bb8	-0.22398269
220	0x3db44b1c	0.088033885
221	0xbe595777	-0.21224771
222	0xbe85102a	-0.25988895
223	0x3e0f2644	0.13979441
224	0x3de86e5c	0.113491744
225	0x3e58d5c8	0.21175301
226	0x3e248f29	0.16070236
227	0x3de187b3	0.11012211
228	0x3cada8c4	0.021198638
229	0xbe20fc16	-0.15721163
230	0x3d9a171e	0.075239405
231	0xbe130ebf	-0.14361094
232	0x3d0519f6	0.03249546
233	0x3dbe1e4d	0.09283123
234	0xbd0358eb	-0.03206722
235	0xbe6713e6	-0.22566184
236	0x3e0e71ab	0.13910548
237	0x3d343a44	0.04400088
238	0xbe38e3ff	-0.18055724
239	0xbe2f0d58	-0.17094934
240	0xbdb4d80e	-0.08830272
241	0xbd5680a4	-0.052368775
242	0x3db91dde	0.090389
243	0xbdf3eb60	-0.119101286
244	0xbe2758be	-0.16342446
245	0xbe4d7102	-0.2006264
246	0x3dd31bf4	0.10308066
247	0xbdf1ea22	-0.118122354
248	0x3d4f15c9	0.050557885
249	0xbdb62310	-0.088934064
250	0xbe4dfe3b	-0.20116512
251	0xbd3ab715	-0.045584757
252	0xbe7b7576	-0.24556527
253	0x3dc4b318	0.09604472
254	0x3dd5357d	0.10410593
255	0xbe662e91	-0.22478701

fc2.bias f4 [10]
0	0x3c8648dd	0.016392166
1	0x3e989e94	0.29808486
2	0xbe45ffa9	-0.19335808
3	0x3da4efc9	0.08053548
4	0xbd9edfc4	-0.07757524
5	0x3ddf53bd	0.10904644
6	0x3ddc502a	0.107574776
7	0xbe136289	-0.14393057
8	0xbd17f3be	-0.037097685
9	0xbda58a63	-0.08083036

exp_avg f4 [10, 1, 5, 5]
0	0x3b89d89b	0.0042067296
1	0x3b34a7c7	0.0027565823
2	0x3b7f57e3	0.0038962297
3	0x3b206122	0.0024471958
4	0xb8b38888	-8.560816e-05
5	0x3c31cded	0.010852319
6	0x3c059731	0.008153723
7	0x3b9f1026	0.00485422
8	0xba333ddd	-0.00068375265
9	0xbaf4a511	-0.0018664916
10	0x3c10b471	0.008832083
11	0x3bdbca85	0.006707492
12	0xbb30ec72	-0.00269964
13	0xbbfd0b5e	-0.0077223023
14	0xbc66afdf	-0.014080017
15	0x3c0ca473	0.00858413
16	0x3b513f61	0.0031928646
17	0xbbed085e	-0.0072336635
18	0xbc34baa5	-0.011030828
19	0xbc6f534b	-0.014607261
20	0x3c2c3616	0.010510942
21	0x3be41859	0.0069609103
22	0x3b392818	0.0028252658
23	0x3af84583	0.0018941615
24	0xbb7783ac	-0.0037767692
25	0xbbb992c5	-0.0056632482
26	0xbbd30287	-0.0064395103
27	0xbbefcb2b	-0.0073179207
28	0xbc05a617	-0.008157275
29	0xbc1527e1	-0.009103746
30	0xbbd7349a	-0.00656755
31	0xbc2e193d	-0.010626134
32	0xbc274202	-0.010208609
33	0xbc0e8e5c	-0.008700933
34	0xbc0d1960	-0.008612007
35	0xbc11d986	-0.008901959
36	0xbc5e845f	-0.013581364
37	0xbc4a4131	-0.012344644
38	0xbc07d804	-0.008291248
39	0xbc183af0	-0.009291396
40	0xbc00835c	-0.0078438185
41	0xbc37c6e4	-0.011216853
42	0xbbea5836	-0.007151629
43	0xbbd9c0af	-0.006645284
44	0xbbe680ea	-0.0070344107
45	0xbc3dece1	-0.011592121
46	0xbc2d2679	-0.010568255
47	0xbc1b53c1	-0.009480418
48	0xbbcaf572	-0.00619381
49	0xbb8d4b53	-0.004311958
50	0xbb485a3c	-0.0030571362
51	0xbc205a32	-0.009787129
52	0xbc485b72	-0.0122288335
53	0xbc446d0f	-0.011988892
54	0xbc3d6f22	-0.011562141
55	0x39f4522c	0.0004660053
56	0xbc194f31	-0.00935726
57	0xbc29e1d4	-0.010368783
58	0xbc2144cb	-0.009843062
59	0xbc0373ed	-0.008023244
60	0xba979092	-0.0011563471
61	0xbc4019c9	-0.011724898
62	0xbc27cd7f	-0.010241865
63	0xbbb72d2a	-0.005590101
64	0xbbea43a2	-0.0071491757
65	0xbb7191cd	-0.0036860586
66	0xbc1e2c36	-0.009654095
67	0xbbbe367c	-0.005804835
68	0xbb5378c6	-0.0032268032
69	0xbb353ebe	-0.0027655805
70	0xbbde1c2f	-0.006778262
71	0xbc36f68b	-0.011167179
72	0xbbb311d1	-0.0054647704
73	0xbb2d54e5	-0.0026448306
74	0xbabb28b1	-0.0014279095
75	0xbb5eb7eb	-0.0033984135
76	0xbad5c017	-0.0016307858
77	0xbb96f638	-0.0046069883
78	0xbbd11977	-0.0063812095
79	0xbb56a08e	-0.0032749507
80	0x3a87e55b	0.0010368036
81	0x3b931703	0.004488827
82	0x3a51bf7d	0.0008001251
83	0xba2f53c5	-0.0006688203
84	0xbada0709	-0.0016634177
85	0x3a56a6df	0.0008188318
86	0x3ae7fada	0.0017698661
87	0xbb53e9a6	-0.003233531
88	0xbb8f48ef	-0.004372708
89	0xbbabe9b9	-0.005246368
90	0xbb1a609f	-0.0023556126
91	0xbb1a8989	-0.0023580512
92	0xbba752ae	-0.0051062917
93	0xbbaa8a66	-0.0052044867
94	0xbbe0d80a	-0.0068616914
95	0xbbd1a685	-0.0063980245
96	0xbb9f5149	-0.004861985
97	0xbbd8c94c	-0.0066157933
98	0xbbdb32dc	-0.0066894125
99	0xbbf29154	-0.0074025784
100	0x3c1d41d3	0.009598213
101	0x3c385d72	0.011252748
102	0x3c2a0ae7	0.010378576
103	0x3b3e8187	0.0029068904
104	0x3ab65532	0.0013910888
105	0x3ba53cc3	0.0050426438
106	0x3be5f72b	0.00701799
107	0x3ad6c310	0.0016385037
108	0xbb42327f	-0.0029632149
109	0xbb104a9b	-0.0022017125
110	0x3b87e05b	0.0041466183
111	0x3bb06899	0.0053835628
112	0x3b018c7d	0.0019767575
113	0x3b12c1ee	0.0022393423
114	0x3b10061b	0.0021976295
115	0xbaec2854	-0.001801739
116	0x3a39cb3f	0.0007087476
117	0x3b7e2429	0.0038778877
118	0x3be2ee78	0.0069254003
119	0x3b7dccaa	0.0038726726
120	0xbb94ecc2	-0.0045448253
121	0xbb4525b9	-0.00300823
122	0x3add2b65	0.0016873894
123	0x3b64e076	0.0034923828
124	0x3b88e3a9	0.00417753
125	0xba8ad2a7	-0.0010591344
126	0xb98206ff	-0.00024800745
127	0x3b52aabb	0.003214522
128	0x3bb86cf1	0.005628221
129	0x3a6adf1e	0.00089596387
130	0x3ba0d2aa	0.0049079256
131	0x3b2c0074	0.0026245387
132	0x3bcae2f2	0.006191605
133	0x3be4b7a7	0.006979901
134	0x3adffb8f	0.001708852
135	0x3bc1ad76	0.0059105707
136	0x3b5b4a1d	0.0033460923
137	0x3bb94028	0.0056534
138	0x3b6b5ba3	0.0035912774
139	0xbaf25a55	-0.0018490056
140	0x3bb0cb89	0.005395357
141	0x3b43a2bf	0.0029851643
142	0x39ba0d50	0.00035486603
143	0xbba608fa	-0.005066988
144	0xbbf3a816	-0.007435809
145	0x3aac1b0c	0.0013130619
146	0xbb43f69a	-0.0029901625
147	0xbc33cf9d	-0.010974792
148	0xbc48e133	-0.012260723
149	0xbc8025cc	-0.015643023
150	0x3a4608ec	0.000755443
151	0x3add6554	0.001689116
152	0x3991f8a0	0.00027841795
153	0xba37d22c	-0.0007012214
154	0xbb832c69	-0.004003097
155	0xbb8038e5	-0.0039130324
156	0xbba5f88f	-0.005065031
157	0xbbb3ea30	-0.005490564
158	0xbbf1194b	-0.0073577515
159	0xbb88c1ca	-0.004173492
160	0xbb935213	-0.004495868
161	0xbb9a4360	-0.0047077388
162	0xbbda6e0e	-0.0066659516
163	0xbc07c7fb	-0.008287425
164	0xbbb47113	-0.0055066436
165	0xbbb9adb0	-0.005666457
166	0xbb93bec3	-0.0045088246
167	0xbc0e6e7d	-0.008693335
168	0xbc14c254	-0.009079535
169	0xbc3a8ffc	-0.011386868
170	0xbbec8ea7	-0.007219154
171	0xbbe2d495	-0.0069223144
172	0xbbecaa87	-0.007222477
173	0xbbc1f32c	-0.005918881
174	0xbc181f09	-0.009284743
175	0x3b7b0a2d	0.0038305626
176	0x3b7316dd	0.0037092485
177	0xbb8cd818	-0.0042982213
178	0xbbeb30ef	-0.007177464
179	0xbc342cc2	-0.010996999
180	0x3b90a4bf	0.0044141705
181	0xb9957462	-0.00028506207
182	0xbc1d0d81	-0.009585739
183	0xbc41223d	-0.011787948
184	0xbc5d424b	-0.013504575
185	0x3ba8322d	0.0051329345
186	0xbb0b1424	-0.0021221722
187	0xbc0ae181	-0.008476616
188	0xbc3f5251	-0.011677341
189	0xbc42c15f	-0.011886924
190	0x39bf7faa	0.00036525476
191	0xba800d5d	-0.0009769608
192	0xbb8cb99f	-0.0042945887
193	0xbbf6c5d2	-0.0075309062
194	0xbc3432f1	-0.0109984735
195	0xba806690	-0.0009796191
196	0xbabf560c	-0.0014597788
197	0xbaeb3f58	-0.0017947955
198	0xbbb81fd8	-0.0056190304
199	0xbc141332	-0.00903778
200	0x3ca3f8e2	0.020016138
201	0x3c91d601	0.01780224
202	0x3c226c03	0.009913447
203	0xba764378	-0.0009394209
204	0xbbabbfdc	-0.0052413773
205	0x3cbbf8bb	0.022945752
206	0x3c879a82	0.016553167
207	0x3b615a8e	0.003438625
208	0xbc4639fc	-0.0120987855
209	0xbc702f02	-0.014659645
210	0x3c5ef0a8	0.013607182
211	0x3b4d093f	0.0031286029
212	0xbc0665f5	-0.008203019
213	0xbc83511a	-0.016029883
214	0xbc77a6e3	-0.0151154725
215	0x3b8882e3	0.0041659935
216	0x3b857cdd	0.0040737228
217	0xbbcd40bd	-0.006263821
218	0xbc2eba30	-0.010664508
219	0xbc66ac8c	-0.014079224
220	0x3c2355df	0.009969204
221	0x3bf8879c	0.0075845253
222	0x3aa9991a	0.0012939305
223	0xbb01fbfc	-0.0019834032
224	0xbc1190bc	-0.008884605
225	0x3a2f21aa	0.00066807366
226	0x3a3dedff	0.0007245242
227	0x3a3c9a49	0.0007194621
228	0x3ab0c3f9	0.0013486139
229	0x39e2c038	0.00043249293
230	0xb76ce761	-1.4120568e-05
231	0xb93d7f44	-0.00018071855
232	0x3a255507	0.00063069205
233	0x3b39fba1	0.0028378742
234	0x3b205765	0.0024466154
235	0x3a5f7eff	0.0008525699
236	0x3a675985	0.000882529
237	0x3ba1f0ae	0.0049420213
238	0x3bdceaea	0.006741871
239	0x3b9609a6	0.004578787
240	0xbba2d0e6	-0.0049687503
241	0x3acce53d	0.0015632283
242	0x3c08022d	0.0083013
243	0x3c1dbf7c	0.009628173
244	0x3c0a2bb5	0.008433272
245	0xbbc316a5	-0.005953627
246	0xbad7168c	-0.0016409918
247	0x3bd0dbd0	0.00637386
248	0x3c2b22de	0.010445325
249	0x3c173aa6	0.0092302915

exp_avg_sq f4 [10, 1, 5, 5]
0	0x3a3b771d	0.0007151233
1	0x3a1a22ad	0.0005879801
2	0x3a0c1147	0.00053431507
3	0x3a015f3d	0.0004935151
4	0x3a08edf8	0.00052234484
5	0x3a2dfa02	0.00066366803
6	0x3a0ab061	0.0005290565
7	0x39edaeb8	0.00045334338
8	0x39d40d7a	0.00040445832
9	0x3a03ad96	0.000502312
10	0x3a1d96d9	0.0006011553
11	0x39f9c213	0.00047637578
12	0x39e22bdf	0.00043138766
13	0x3a0a0c98	0.0005266159
14	0x3a208779	0.00061237026
15	0x3a0d8405	0.00053983956
16	0x39fa7ba0	0.00047775824
17	0x39ff6745	0.00048714332
18	0x3a11501d	0.0005543249
19	0x3a1ca797	0.00059759006
20	0x3a102619	0.0005498841
21	0x39fb53c7	0.0004793687
22	0x39d9440e	0.0004144017
23	0x39cc8939	0.0003901215
24	0x39edcbc5	0.00045355983
25	0x39b879fe	0.00035186106
26	0x39cb81ed	0.0003881598
27	0x39adaa5d	0.00033124062
28	0x39b6bf17	0.00034856118
29	0x39d505f5	0.00040630964
30	0x39da9e30	0.0004169806
31	0x39c2cc8b	0.0003715496
32	0x399b0528	0.00029567746
33	0x39c4364e	0.00037424493
34	0x39dbc087	0.0004191438
35	0x39d80618	0.0004120327
36	0x399bf111	0.00029743512
37	0x39a8a1dd	0.00032164055
38	0x39cb7b72	0.0003881115
39	0x39df5247	0.00042595176
40	0x39c5f536	0.00037757464
41	0x39a42bc5	0.00031313128
42	0x39bbb328	0.000358009
43	0x39d3ac3e	0.00040373387
44	0x39e0e067	0.00042891802
45	0x39beaa8e	0.00036366697
46	0x39b9b390	0.00035419734
47	0x39c5349c	0.00037613965
48	0x39d2fe04	0.00040243578
49	0x39df082f	0.00042539972
50	0x398be584	0.00026683148
51	0x399cca4e	0.00029905367
52	0x39b0d830	0.00033730408
53	0x39afa9e0	0.00033505168
54	0x399b1096	0.0002957626
55	0x3995aaba	0.00028546696
56	0x39b218f2	0.0003396939
57	0x39b20b30	0.0003395914
58	0x39a20b1f	0.00030907334
59	0x3994aeb5	0.00028358927
60	0x399fa6e0	0.00030451175
61	0x39a60d9e	0.00031672133
62	0x398d1684	0.0002691039
63	0x398ca0ee	0.00026822783
64	0x398ede17	0.0002724982
65	0x39a61cb3	0.0003168337
66	0x399962d0	0.00029256055
67	0x39828cf8	0.00024900562
68	0x398c50af	0.00026762995
69	0x398c4525	0.00026754398
70	0x39b00525	0.0003357317
71	0x399b6d79	0.00029645467
72	0x39870432	0.00025752332
73	0x3992f599	0.00028030275
74	0x399e901b	0.00030243475
75	0x3a38e1a4	0.0007052666
76	0x3a26f903	0.0006369503
77	0x3a0ced72	0.0005375958
78	0x3a0c6e7c	0.00053570396
79	0x3a1a3da9	0.0005883822
80	0x3a24be6a	0.00062844774
81	0x3a053918	0.0005082055
82	0x39e0ed35	0.00042901342
83	0x39e3f500	0.00043479353
84	0x3a072cef	0.0005156537
85	0x3a12a54f	0.0005594091
86	0x39e0d96b	0.00042886598
87	0x39bfa888	0.00036555924
88	0x39d339fa	0.00040288252
89	0x3a06c954	0.00051416946
90	0x3a0a5fbe	0.0005278549
91	0x39dab909	0.00041718062
92	0x39d269c7	0.00040133132
93	0x39fdeb09	0.00048431035
94	0x3a2367e1	0.00062334357
95	0x3a16937d	0.00057440234
96	0x3a0643e0	0.00051218085
97	0x3a0aae44	0.000529025
98	0x3a23879e	0.0006238165
99	0x3a401378	0.000732712
100	0x3a1260b1	0.0005583866
101	0x3a1e0b3c	0.0006028896
102	0x3a129a87	0.00055924844
103	0x3a1c5abf	0.000596445
104	0x3a5f44ab	0.0008517007
105	0x39f46847	0.00046617
106	0x3a085cdb	0.0005201825
107	0x39e10ebc	0.00042926322
108	0x3a1ef1e1	0.00060632644
109	0x3a6d88f7	0.0009061242
110	0x39ee4bd2	0.00045451388
111	0x3a07ae6f	0.0005175834
112	0x39fc844c	0.00048163754
113	0x3a34aa47	0.00068918284
114	0x3a7f8928	0.0009747916
115	0x3a03d322	0.00050287147
116	0x3a165568	0.00057347724
117	0x3a2038b1	0.00061119633
118	0x3a4e79ce	0.00078764267
119	0x3a89c9a4	0.0010512364
120	0x3a0d4968	0.00053896615
121	0x3a1f78aa	0.0006083349
122	0x3a31db9b	0.0006784738
123	0x3a5e31db	0.0008476057
124	0x3a8ec37a	0.0010891997
125	0x3a7f977a	0.000975005
126	0x3a3e9792	0.00072705105
127	0x3a1323de	0.00056129496
128	0x3a1b2727	0.0005918615
129	0x3a1da32c	0.0006013389
130	0x3a56872b	0.0008183594
131	0x3a1d6c1a	0.0006005183
132	0x3a03636f	0.000501207
133	0x3a07a9ee	0.0005175163
134	0x3a13a966	0.00056328473
135	0x3a36a13a	0.00069667737
136	0x3a0ef9b8	0.0005454081
137	0x39ebe996	0.00044996728
138	0x39e71f38	0.00044083013
139	0x3a0ee035	0.00054502796
140	0x3a1a0152	0.00058748305
141	0x3a01e264	0.00049546943
142	0x39e65f06	0.00043939817
143	0x39f25c09	0.00046226408
144	0x3a13e0e7	0.0005641118
145	0x3a090bcd	0.00052278937
146	0x39f496e7	0.00046651738
147	0x39ee481c	0.00045448623
148	0x3a015ce0	0.0004934799
149	0x3a0f0e90	0.0005457187
150	0x39fd58d6	0.00048322108
151	0x3a087e88	0.0005206843
152	0x3a24aa43	0.00062814745
153	0x3a36d5e2	0.000697462
154	0x3a37f2dc	0.0007017085
155	0x3a13a7e7	0.00056326244
156	0x3a30d40a	0.00067454635
157	0x3a3e19c6	0.00072517653
158	0x3a372eb9	0.0006987858
159	0x3a2fdc86	0.0006708581
160	0x3a2a4b68	0.0006496222
161	0x3a3251ba	0.00068023393
162	0x3a1d6860	0.0006004628
163	0x3a111993	0.0005535122
164	0x3a1d0206	0.0005989376
165	0x3a1e02e5	0.0006027653
166	0x3a112311	0.00055365363
167	0x39fcff6c	0.0004825549
168	0x39f98461	0.0004759161
169	0x3a12de66	0.0005602598
170	0x3a0c617f	0.0005355104
171	0x39f96977	0.00047571558
172	0x39e60cba	0.000438785
173	0x3a01b521	0.000494795
174	0x3a157708	0.0005701636
175	0x39ff3015	0.00048673214
176	0x39d41d5f	0.00040457674
177	0x39e04b91	0.0004278091
178	0x3a01bb91	0.0004948909
179	0x3a0d2a4e	0.0005385027
180	0x39eee9d4	0.00045569113
181	0x39f12b70	0.00045999466
182	0x39ec5ad3	0.00045081097
183	0x39f7976d	0.00047224332
184	0x3a0aaf22	0.0005290379
185	0x3a0a8cf6	0.0005285287
186	0x3a0488ad	0.00050557667
187	0x39e560f1	0.0004375051
188	0x39d85db2	0.0004126854
189	0x3a083bf3	0.00051969214
190	0x3a05e6dc	0.0005107948
191	0x39f35b01	0.00046416375
192	0x39cb476b	0.00038772388
193	0x39c17bdd	0.00036904114
194	0x3a01c47f	0.00049502397
195	0x39f3066b	0.00046353354
196	0x39d94c1f	0.0004144618
197	0x39cc74b9	0.00038996877
198	0x39e0ba40	0.00042863376
199	0x3a07ec8d	0.000518509
200	0x3b1987f6	0.0023426986
201	0x3b1bdce4	0.0023782784
202	0x3b1f4e79	0.0024308248
203	0x3b2587e1	0.0025257992
204	0x3b260514	0.0025332617
205	0x3b213951	0.0024600814
206	0x3b3dac0f	0.0028941666
207	0x3b4efdc7	0.0031584369
208	0x3b4d54a1	0.003133096
209	0x3b3ab281	0.0028487744
210	0x3b2d1307	0.0026409046
211	0x3b3f75cc	0.00292145
212	0x3b421b44	0.0029618302
213	0x3b373d11	0.0027959982
214	0x3b210653	0.002457042
215	0x3b1f4834	0.002430451
216	0x3b1b6bd0	0.0023715384
217	0x3b0ab0b4	0.0021162452
218	0x3b069054	0.0020532804
219	0x3b05ce46	0.0020417138
220	0x3b0fab03	0.0021922
221	0x3b0154b5	0.0019734327
222	0x3aea3dd0	0.0017871205
223	0x3ae94eda	0.0017799989
224	0x3af34d11	0.0018562396
225	0x3a00d14e	0.00049140013
226	0x39f6ccfd	0.00047073505
227	0x39e1b18f	0.00043047636
228	0x3a060280	0.0005112067
229	0x3a0ffc96	0.00054926553
230	0x39e1e484	0.00043085602
231	0x39c2b3a1	0.00037136397
232	0x39cf5a50	0.00039549405
233	0x3a0a5b2b	0.00052778673
234	0x3a19333b	0.0005844121
235	0x39c79a3b	0.00038071148
236	0x39c2b004	0.00037133705
237	0x3a00058a	0.0004883638
238	0x3a2427fa	0.00062620605
239	0x3a313ca7	0.0006761052
240	0x39c4101b	0.00037396033
241	0x39e84c26	0.00044307223
242	0x3a2458f8	0.0006269361
243	0x3a5741ae	0.0008211386
244	0x3a4d2dc8	0.00078269513
245	0x39d263f8	0.00040128804
246	0x3a06fd5c	0.0005149448
247	0x3a3d2c70	0.00072163995
248	0x3a5d224e	0.0008435593
249	0x3a39c0a5	0.0007085896

exp_avg f4 [10]
0	0xbc17d964	-0.009268139
1	0x3c196428	0.009362258
2	0x3bbc0569	0.0057379496
3	0x3b93a03d	0.004505186
4	0x3b956408	0.004559044
5	0xbb33d857	-0.002744218
6	0x3b4a36c9	0.0030855408
7	0xbb426123	-0.0029659949
8	0xbc132295	-0.008980413
9	0x3be2d9bc	0.0069229286

exp_avg_sq f4 [10]
0	0x3a632545	0.00086649164
1	0x39fc99d0	0.00048179785
2	0x399757e3	0.00028866445
3	0x39b53b49	0.0003456718
4	0x3a9a9c97	0.0011795935
5	0x3a646519	0.00087125745
6	0x39c5526d	0.0003763618
7	0x3a31e1ab	0.00067856413
8	0x3ad654d1	0.0016352182
9	0x39e12309	0.00042941447
