model_checkpoint/model_epoch10.pth (torch, 268573 bytes, 24 tensors)

conv1.weight f4 [10, 1, 5, 5]
0	0xbe0e48bd	-0.13894935
1	0xbdf87faa	-0.12133725
2	0xbe3962a0	-0.18104029
3	0xbe952dab	-0.29136404
4	0xbe867961	-0.2626448
5	0x3e40bb15	0.18821366
6	0x3df0e6b3	0.117627524
7	0xbe0f3643	-0.13985543
8	0xbd8c8107	-0.068605475
9	0xbe21dad5	-0.15806134
10	0xbdefdd4c	-0.11712131
11	0xbd276ef5	-0.0408773
12	0x3e048d8a	0.12944618
13	0x3e9905c4	0.2988721
14	0x3eee239c	0.46511543
15	0x3e804bf8	0.2505796
16	0x3e0e12a5	0.138743
17	0x3e8d5dd3	0.27610645
18	0x3e29c973	0.16580753
19	0x3db5ef74	0.08883563
20	0x3dc0ca46	0.094135806
21	0xbe06946c	-0.13142556
22	0xbe152e69	-0.14568485
23	0xbe145769	-0.1448647
24	0xbd2abde5	-0.041685004
25	0x3ea9ba0e	0.3314976
26	0x3e7d0d14	0.2471202
27	0x3e0b8c04	0.1362763
28	0xbe1bd201	-0.15216829
29	0xbd9e3440	-0.0772481
30	0x3ec462e2	0.38356692
31	0x3e862086	0.26196688
32	0x3d2d81a4	0.042359963
33	0xbe46f786	-0.1943036
34	0xbd8281bc	-0.06372401
35	0x3e90669c	0.28203285
36	0xbdd57b5b	-0.10423919
37	0xbe5a317d	-0.21307941
38	0x3ccdc7fc	0.025119774
39	0x3d1f4e6a	0.03889314
40	0x3e57ad80	0.21062279
41	0xbe1d0f2f	-0.15337823
42	0xbdeba015	-0.115051426
43	0xbe866615	-0.26249757
44	0x3d37a7a9	0.044837628
45	0xbdc93218	-0.09824008
46	0xbe611938	-0.21982276
47	0xbe08b228	-0.13349211
48	0xbea36d6d	-0.31919423
49	0xbe9200ee	-0.28516334
50	0xbe82b075	-0.2552525
51	0xbe24f591	-0.16109301
52	0x3e571e7f	0.21007727
53	0x3e3de3ad	0.18543883
54	0x3e42d470	0.19026351
55	0xbd981050	-0.07424986
56	0x3ee4b8a7	0.4467213
57	0x3ea91a4c	0.33027875
58	0x3d863385	0.06552795
59	0xbe5dd639	-0.2166375
60	0x3e9db5d6	0.30802792
61	0x3e7e8864	0.24856716
62	0xbe240402	-0.16017154
63	0xbeb8070f	-0.35942885
64	0xbe6de3d2	-0.23231438
65	0x3dd62002	0.10455324
66	0xbe0a4403	-0.13502507
67	0xbf0082de	-0.5019969
68	0xbe9e6c55	-0.30942026
69	0x3e151775	0.1455973
70	0xbda69b7a	-0.081351236
71	0xbe5e2dad	-0.21697111
72	0x3db8f53b	0.09031149
73	0x3e69fbff	0.22850035
74	0x3e8aabee	0.27084297
75	0xbd8229c4	-0.063556224
76	0x3d41ccf1	0.047314588
77	0xbd80a776	-0.06281941
78	0xbd4a0422	-0.049320348
79	0xbdbc5610	-0.091961026
80	0x3d4aaac8	0.049479276
81	0xbda862f5	-0.082219996
82	0xbc23ed2b	-0.010005276
83	0xbe0b1a04	-0.13584143
84	0xbe53a4b7	-0.20668302
85	0xbd093e8f	-0.033506926
86	0xbc4ce11f	-0.012504845
87	0xbe633d91	-0.22191454
88	0xbe49bace	-0.19700167
89	0xbd685fd2	-0.056732006
90	0xbd826f25	-0.063688554
91	0xbe1d6091	-0.15368868
92	0xbda49b82	-0.08037473
93	0xbaab93f5	-0.0013090359
94	0x3d3f4615	0.046697695
95	0xbd25ba08	-0.040460616
96	0xbe1d206e	-0.15344402
97	0xbb8236ef	-0.0039738338
98	0xbdb30f1e	-0.08743118
99	0x3e4917ea	0.19638029
100	0x3e58f877	0.21188532
101	0x3e8e6283	0.27809533
102	0xbdb423aa	-0.08795865
103	0xbe7011df	-0.23444317
104	0xbede067f	-0.4336433
105	0x3e2352f3	0.15949611
106	0x3e9ebf0a	0.31005126
107	0x3e0a0ab6	0.13480648
108	0xbe9ffe12	-0.31248528
109	0xbec0e4a6	-0.37674445
110	0x3dc17508	0.0944615
111	0x3ea7dfe7	0.3278801
112	0x3e58702b	0.21136539
113	0xbc15da5e	-0.009146301
114	0xbe799b52	-0.24375656
115	0xbd8fa730	-0.0701431
116	0x3e4100a0	0.18847895
117	0x3e495fdb	0.19665472
118	0x3d1cf045	0.038315076
119	0xbe3a5294	-0.18195564
120	0x3d8e1902	0.069383636
121	0x3e30e07a	0.17273131
122	0x3e2a1ba3	0.16612105
123	0xbd9c3d5a	-0.076288894
124	0xbe2f5060	-0.17120504
125	0x3cde7ff9	0.027160631
126	0xbe110adf	-0.14164303
127	0xbe457dff	-0.19286345
128	0xbe9e4e58	-0.30919147
129	0xbe302a22	-0.17203572
130	0xbdeff387	-0.11716371
131	0xbe80e617	-0.25175545
132	0xbe78f7c8	-0.24313271
133	0xbe0f5084	-0.13995558
134	0xbea77be9	-0.32711723
135	0x3ea09e5b	0.31370816
136	0x3e23840b	0.15968339
137	0xbd71fabc	-0.05907701
138	0xbce7298c	-0.028218053
139	0xbe296952	-0.16544083
140	0x3e123d4e	0.14281198
141	0x3d79ab8c	0.060954615
142	0x3e771156	0.24127707
143	0x3d1f2928	0.03885761
144	0x3c9e3459	0.01931207
145	0x3c6347fb	0.013872142
146	0x3e8c928e	0.27455562
147	0x3dbf3576	0.09336369
148	0x3eaad245	0.33363548
149	0x3e8138a1	0.25238517
150	0x3c9c783d	0.019100303
151	0xbeaf5952	-0.34247833
152	0x3e1cd4e9	0.15315594
153	0x3ebcdcbd	0.3688716
154	0x3eaf6b85	0.34261718
155	0xbdfcc022	-0.12341334
156	0x3d9fd88f	0.07804977
157	0xbe1329f6	-0.14371476
158	0x3e95c78f	0.29253814
159	0x3e27aa4c	0.16373557
160	0x3d1dd047	0.038528707
161	0xbd991ec6	-0.07476573
162	0xbe823c52	-0.25436646
163	0xbe423e64	-0.18969113
164	0x3ea09066	0.31360167
165	0xbe0f68a5	-0.14004762
166	0xbd2551d5	-0.040361244
167	0xbd1ff68d	-0.03905349
168	0xbe7ad70c	-0.24496096
169	0x3e60ea14	0.21964294
170	0xbe0fa7e6	-0.14028892
171	0xbdfa3f9f	-0.12219166
172	0xbe778a9a	-0.24173966
173	0xbe1c5f5a	-0.15270749
174	0xbda3b66d	-0.07993779
175	0xb9ce2194	-0.000393164
176	0x3ea64590	0.32474947
177	0x3ecb71a2	0.39735132
178	0x3e9071cd	0.28211823
179	0x3e5fbc3b	0.21849148
180	0x3e5f3c30	0.21800303
181	0x3e3f48ae	0.18680069
182	0xbd330448	-0.043705255
183	0x3e4c10ad	0.19928236
184	0x3d80f92a	0.06297524
185	0xbe375e93	-0.17907171
186	0xbe90d579	-0.28287867
187	0x3d38bae4	0.045100108
188	0x3e2ea314	0.17054397
189	0x3e8aca5e	0.2710752
190	0xbe0bd28f	-0.1365454
191	0xbe2da226	-0.16956386
192	0xbe68b956	-0.2272695
193	0xbe8c8237	-0.27443096
194	0xbe4e1d51	-0.20128371
195	0xbdc1c1c5	-0.09460787
196	0xbca0f445	-0.019647727
197	0xbe141725	-0.14461954
198	0xbe43ddfa	-0.19127646
199	0xbd59d9b9	-0.053186152
200	0x3e95c3f3	0.2925106
201	0xbd7c717e	-0.061631672
202	0xbe992976	-0.29914445
203	0xbe5d3d0e	-0.21605322
204	0xbe469c5d	-0.19395585
205	0xbd0f7992	-0.035028048
206	0x3ebd3f9c	0.36962593
207	0x3ec354ab	0.38150534
208	0x3e03d6ab	0.12874858
209	0x3df713a7	0.12064295
210	0x3c6dfba1	0.014525325
211	0x3dae74b6	0.085183546
212	0x3ebeea9c	0.37288368
213	0x3e8db72a	0.27678806
214	0x3e66c82c	0.22537297
215	0xbed03cda	-0.40671426
216	0xbe894c13	-0.26815853
217	0xbe221f1b	-0.15832178
218	0x3d17c82a	0.037056126
219	0x3c41a81f	0.011819868
220	0x3d5c9698	0.053854555
221	0xbe38026a	-0.17969671
222	0xbea2e233	-0.318132
223	0xbe9b80f1	-0.30371812
224	0xbe3f5848	-0.1868602
225	0x3e45fdb3	0.1933506
226	0x3e93644a	0.28787452
227	0xbe3fa03d	-0.1871347
228	0xbe8f0a09	-0.27937344
229	0x3e53019b	0.20606081
230	0x3eea983f	0.4581928
231	0x3de773d9	0.11301393
232	0xbe0e861f	-0.1391835
233	0xbead0f8a	-0.33800918
234	0xbe2e649c	-0.17030567
235	0x3ea70725	0.32622638
236	0x3c2c3217	0.010509989
237	0x3e322861	0.17398216
238	0x3d450748	0.048102647
239	0xbe25cde3	-0.16191821
240	0x3e10589b	0.140963
241	0xbd3486d6	-0.044073902
242	0xbe0a3083	-0.13495068
243	0x3e5409c1	0.20706846
244	0x3d9046c0	0.070447445
245	0x3e668124	0.225102
246	0x3d34dd1c	0.04415618
247	0x3ee3ab36	0.4446656
248	0x3e9d2b2a	0.30696994
249	0x3e386d55	0.18010457

conv1.bias f4 [10]
0	0xbe4a8b58	-0.19779718
1	0xbecda946	-0.40168208
2	0xbdd80b58	-0.10549039
3	0xbf01f9ad	-0.507716
4	0xbda23f1e	-0.07922195
5	0xbe574349	-0.21021761
6	0xbec4285b	-0.3831204
7	0xbdcbef25	-0.099577226
8	0xbec221b3	-0.37916335
9	0x3c1e575f	0.009664386

conv2.weight f4 [20, 10, 5, 5]
0	0x3d82e868	0.06391984
1	0xbda0b4a3	-0.07846954
2	0xbdac1838	-0.08403057
3	0xbcd3805f	-0.025818048
4	0x3d94ebac	0.07271513
5	0x3c41e118	0.011833452
6	0x3d0d20d1	0.034455124
7	0x3d86e4ff	0.06586646
8	0x3dd73f23	0.10510089
9	0x3d07f373	0.033191156
10	0x3da069f0	0.07832706
11	0x3d1c0bee	0.038097315
12	0x3cbc2e43	0.022971278
13	0x3d26130b	0.040545505
14	0x3e1a3036	0.15057454
15	0x3d81469e	0.06312297
16	0x3d9a1d8c	0.07525167
17	0x3debcec7	0.11514049
18	0x3e9c0866	0.30475157
19	0x3e3c7c2a	0.1840674
20	0x3bb8716d	0.005628756
21	0xbd5c7c9c	-0.053829774
22	0xbd9abfa5	-0.075560845
23	0x3b74aec8	0.0037335623
24	0x3e1072b8	0.14106262
25	0x3e0a6d47	0.13518248
26	0x3d7d06d7	0.0617741
27	0x3e504593	0.2033904
28	0x3e59d8be	0.21274087
29	0x3e2c978b	0.16854684
30	0x3db319ce	0.08745156
31	0x3b2ab740	0.0026049167
32	0x3dcbbafa	0.09947772
33	0x3ceac3a1	0.028657736
34	0x3a4f5026	0.00079083664
35	0x3d3c6e11	0.046003405
36	0x3c8be188	0.017075315
37	0x3cbdced8	0.02316992
38	0xbbc1e992	-0.0059177363
39	0xbd1fecdb	-0.039044242
40	0x3d8eb909	0.069688864
41	0x3da9c0d7	0.082887344
42	0x3db8b6df	0.09019255
43	0xba9532cd	-0.0011382938
44	0xbdcf0212	-0.10107817
45	0x3de8e681	0.1137209
46	0x3dcdb4b7	0.10044234
47	0x3c12be1a	0.008956457
48	0xbc94c890	-0.018162042
49	0xbc5a683d	-0.013330516
50	0x3d806551	0.062693246
51	0xbe105375	-0.14094336
52	0x3cbd421e	0.023102816
53	0x3e36cd5b	0.17851774
54	0xbc841069	-0.016121106
55	0x3c9a7964	0.018856712
56	0xbda2ac40	-0.0794301
57	0xbda3f867	-0.08006363
58	0xbd89658c	-0.06708822
59	0xbbc73107	-0.0060788426
60	0xbe01ca59	-0.12674846
61	0xbd4b0395	-0.049563963
62	0x3d85e863	0.06538465
63	0x3d212725	0.03934397
64	0xbce6a443	-0.028154498
65	0x3d19931c	0.03749381
66	0xbd49075f	-0.049079295
67	0x3be50b02	0.0069898376
68	0xbdb30230	-0.087406516
69	0x3e132845	0.1437083
70	0xbda05b09	-0.078298636
71	0xbe386edd	-0.18011041
72	0xbd130dcf	-0.03590184
73	0x3d2602e6	0.040530108
74	0x3d6f4bd5	0.05842193
75	0x3e06574e	0.13119242
76	0x3d8db92e	0.06920086
77	0x3d47f790	0.04882008
78	0x3c8d3bbd	0.0172404
79	0x3d1806a4	0.037115708
80	0x3cb0abf6	0.021566372
81	0x3cd8acfb	0.026449671
82	0x3c2446e6	0.010026669
83	0xbe0a8b43	-0.13529687
84	0xbd9f2b77	-0.07771962
85	0xbcfc3c45	-0.030790458
86	0xbd12cc74	-0.035839513
87	0xbdef258e	-0.11677085
88	0xbd1d64d5	-0.03842624
89	0xbd7963b0	-0.060886085
90	0xbdaefc0a	-0.085441664
91	0xbd8fb8b0	-0.07017648
92	0xbd4f3f51	-0.050597493
93	0xbd353b95	-0.044246275
94	0x3cfb82be	0.030701991
95	0xbe4ef89e	-0.20212027
96	0xbe27c157	-0.16382347
97	0xbda3fea7	-0.080075555
98	0xbba7fc0c	-0.005126482
99	0x3d47c41a	0.048771
100	0x3dd3c491	0.103402264
101	0x3d935475	0.07193843
102	0x3dbcbfd4	0.09216276
103	0x3d252aba	0.04032395
104	0xbdd06564	-0.10175589
105	0xbab7ed39	-0.001403249
106	0xbd304375	-0.043033082
107	0x3d7271df	0.059190627
108	0xbb88849c	-0.004166199
109	0xbd9d7fdd	-0.076904036
110	0xbe448b61	-0.19193794
111	0xbd976737	-0.073927335
112	0xbd40553b	-0.046956282
113	0xbc622d5e	-0.013804762
114	0xbc6ed5ad	-0.014577311
115	0xbe1b293a	-0.15152445
116	0xbdaeb479	-0.08530516
117	0xbdddc420	-0.108284235
118	0xbc5ed3cf	-0.013600304
119	0xbe2c8c11	-0.16850306
120	0x3e0aaa54	0.13541538
121	0x3da51c34	0.0806202
122	0x3cd7c4ad	0.0263389
123	0xbdc7507c	-0.09732148
124	0xbe82f75b	-0.25579342
125	0x3dbe9a4a	0.09306772
126	0xbc6d3008	-0.014476784
127	0xba207728	-0.0006121271
128	0x3d1f96a0	0.038962007
129	0xbe2e03f1	-0.16993691
130	0x3d333b0a	0.043757476
131	0xbd0a2f8e	-0.033736758
132	0x3d39e1a4	0.045381203
133	0x3d38b181	0.045091156
134	0x3b8a7f2f	0.0042265872
135	0x3c08fe8b	0.008361469
136	0xbba3a051	-0.0049934764
137	0xbc446b1f	-0.01198843
138	0x3db41b13	0.087942265
139	0x3da0e80e	0.07856761
140	0xbc28fddd	-0.010314432
141	0x3b08e8b6	0.002089066
142	0x3d81390d	0.0630971
143	0x3da33eb3	0.07970943
144	0x3d6b7293	0.057482313
145	0xbd93e7e0	-0.07221961
146	0xbe4143a6	-0.18873462
147	0xbd8f10f3	-0.06985655
148	0xbd174cf0	-0.036938608
149	0x3d798da4	0.060926095
150	0xbe0a2bad	-0.13493223
151	0xbe7161d9	-0.23572482
152	0x3d1eedd6	0.038801037
153	0x3dc78356	0.09741847
154	0xbc963e16	-0.018340152
155	0xbe9e176b	-0.30877241
156	0xbe5b6e23	-0.21428733
157	0x3d3429be	0.04398512
158	0x3e0d06bf	0.13772105
159	0x3d84cea1	0.06484724
160	0xbe3b88b1	-0.18313862
161	0xbdf1aaa0	-0.11800122
162	0xbcce4f51	-0.025184305
163	0x3df77261	0.12082363
164	0xbc94613f	-0.018112777
165	0xbe464075	-0.19360526
166	0xbdc44168	-0.09582788
167	0xbc2ad2f2	-0.01042627
168	0xbcce6e4c	-0.025199078
169	0xbcf9a0cb	-0.03047218
170	0xbba346ae	-0.004982791
171	0xbd582507	-0.052769687
172	0x3cbd538d	0.02311113
173	0xbd6ce175	-0.0578322
174	0xbe9fc858	-0.31207538
175	0xbe171841	-0.14755346
176	0xbea20a5c	-0.3164853
177	0xbe4791e0	-0.1948924
178	0xbe0d40b9	-0.13794221
179	0xbc5a5680	-0.013326287
180	0xbe2d3356	-0.16914114
181	0xbecce35c	-0.4001721
182	0xbe4cc26c	-0.19996041
183	0x3ca70132	0.020386312
184	0x3d1ecede	0.038771503
185	0xbe21b93a	-0.15793315
186	0xbdd4cd87	-0.10390764
187	0x3c0e472d	0.008683962
188	0x3d85db9c	0.06536028
189	0x3dacef6e	0.08444105
190	0xbd965cf8	-0.07341951
191	0x3d60ba5d	0.05486523
192	0x3dfbbc33	0.122917555
193	0x3da3f14e	0.080050096
194	0xbcd36c8c	-0.025808595
195	0xbdcb4e3f	-0.09927034
196	0x3d81ba6e	0.06334387
197	0x3dcf9a3e	0.10136841
198	0x3d8558ae	0.06511055
199	0xbe17124a	-0.1475307
200	0x3cf16ec0	0.029471755
201	0xbe1f2a9d	-0.155436
202	0xbd83b710	-0.06431401
203	0xbc806d98	-0.015677258
204	0xbcb28f2a	-0.021796782
205	0xbe3adcb6	-0.18248257
206	0xbe3cd009	-0.18438734
207	0x3dc081d4	0.09399763
208	0x3e37ccba	0.1794919
209	0x3e3a9002	0.18218997
210	0xbdef0d1a	-0.11672421
211	0x3d5ba564	0.053624526
212	0x3d820108	0.06347853
213	0x3e2f49d9	0.17118014
214	0x3e338e24	0.17534691
215	0xbe399247	-0.18122207
216	0x3d40f0d3	0.047104668
217	0x3ddd29f6	0.10799019
218	0x3e6238fd	0.22092052
219	0x3e58f8a5	0.211886
220	0xbe01dbee	-0.12681553
221	0xbb116e6e	-0.0022191065
222	0x3e0c7ae4	0.13718754
223	0x3dd91f25	0.106016435
224	0x3cf113d0	0.029428393
225	0xbc3d720b	-0.0115628345
226	0xbe2dc5fb	-0.16970055
227	0xbd819fe4	-0.06329325
228	0xbe3274e7	-0.17427407
229	0xbe62d622	-0.22151998
230	0xbd451e47	-0.048124578
231	0xbcd4a2c1	-0.025956513
232	0x3d16c8dc	0.03681265
233	0xba730754	-0.00092708063
234	0xbd9640d4	-0.07336584
235	0x3d8e56a5	0.0695012
236	0xbdb98f77	-0.09060567
237	0x3c9f9908	0.01948215
238	0x3bc52b03	0.0060170903
239	0x3d642eb7	0.055708613
240	0x3d43ec94	0.04783304
241	0xbe1db740	-0.15401936
242	0xbd2e9923	-0.04262651
243	0xbd9896cf	-0.074506395
244	0x3cb3cedc	0.021949224
245	0x3cd88601	0.026431086
246	0x3d117e52	0.03552086
247	0x3db0de76	0.08636181
248	0xbd9a626b	-0.07538303
249	0x3d7d6154	0.061860397
250	0x3d9c0791	0.07618631
251	0xbe0b03bc	-0.13575643
252	0x3d3a2394	0.045444086
253	0x3bb1326c	0.005407622
254	0xbd95de3e	-0.0731778
255	0x3ea36488	0.31912637

conv2.bias f4 [20]
0	0xbd7b9bc1	-0.061427835
1	0xbd6095f1	-0.054830495
2	0xbd522234	-0.05130215
3	0xbd0909f7	-0.03345677
4	0xbd79490d	-0.060860682
5	0xbd16c01f	-0.036804315
6	0xbcc845cf	-0.02444735
7	0x3d0f1d39	0.03493998
8	0x3c8f30e0	0.01747936
9	0x3d27392f	0.04082602
10	0x3d7f81e5	0.062379736
11	0xbd032cc7	-0.032025125
12	0x3dbe1dae	0.09283005
13	0xbd811b0a	-0.063039854
14	0xbc9eb1e1	-0.019371929
15	0xbc515308	-0.012776144
16	0xbdaee829	-0.08540375
17	0xbd246e81	-0.040144447
18	0xbd703d5b	-0.058652263
19	0x3d27e532	0.040990062

fc1.weight f4 [50, 320]
0	0xbdf1b8a9	-0.11802799
1	0xbd8077df	-0.062728636
2	0xbdc68d27	-0.096948914
3	0xbd8e5cff	-0.06951331
4	0x3e066f60	0.13128424
5	0x3d98e84b	0.07466181
6	0xbe9aa390	-0.30202913
7	0xbe1870f3	-0.14886837
8	0x3d3eb563	0.046559703
9	0x3ddefe08	0.10888296
10	0xbdd2cb9d	-0.102927424
11	0x3dcdb7c2	0.10044815
12	0xbda147bc	-0.0787501
13	0x3dbff677	0.09373181
14	0x3dd99e44	0.1062589
15	0x3e280672	0.16408709
16	0x3d8b3f7c	0.06799218
17	0xbc717227	-0.014736689
18	0x3cf9c300	0.030488491
19	0x3b0dddb5	0.002164704
20	0x3dcb169e	0.09916423
21	0x3d96655c	0.073435515
22	0xbcbf9d05	-0.023390302
23	0xbe979a74	-0.29610026
24	0xbe115bd4	-0.14195186
25	0x3dcbe74f	0.09956228
26	0x3d7ed724	0.062216893
27	0xbdd44afa	-0.10365863
28	0x3c826b9d	0.015920455
29	0x3d733cda	0.059384204
30	0xbccc9aa4	-0.024976082
31	0x3d0f02eb	0.034914892
32	0xbda6f1bb	-0.08151575
33	0xbd690740	-0.05689168
34	0xb91da45b	-0.00015033914
35	0xbeab4185	-0.33448425
36	0xbdbd6d8b	-0.09249409
37	0x379ef678	1.8949839e-05
38	0x3dbb5e3d	0.09148834
39	0xbe0bef5c	-0.13665527
40	0x3db85b25	0.090017594
41	0x3d0656b1	0.03279752
42	0xbdee1d09	-0.11626632
43	0xbd39a327	-0.04532161
44	0x3b54a233	0.003244531
45	0x3d6783b3	0.056522083
46	0x3d5b8dfb	0.0536022
47	0x3dbb1345	0.09134535
48	0x3e30b919	0.17258109
49	0x3d13d97a	0.036096074
50	0xbd97856b	-0.07398494
51	0xbe39f1c2	-0.1815863
52	0x3d84f8ca	0.06492765
53	0x3cad6750	0.021167427
54	0x3adda06d	0.0016908773
55	0x3e4de972	0.20108584
56	0x3ddbeed7	0.107389145
57	0xbd0ea2a9	-0.034823094
58	0xbe8ef09f	-0.27917954
59	0x3e132419	0.14369239
60	0x3dccf2fe	0.100072846
61	0xbc2e1d73	-0.010627138
62	0xbe88fa85	-0.2675363
63	0xbe52cae7	-0.20585214
64	0xbe077773	-0.1322916
65	0xbdbfe093	-0.09369006
66	0x3dae9bd4	0.085258156
67	0x3cc51d25	0.024061749
68	0xbd2e20d5	-0.04251178
69	0x3c9a6763	0.018848127
70	0x3d3c4f93	0.045974325
71	0xbbf6c653	-0.0075309663
72	0xbcfc7224	-0.030816145
73	0xbc7554bc	-0.0149738155
74	0x3d9484cd	0.07251892
75	0xbe5ecd38	-0.21757972
76	0x3d7b5315	0.06135853
77	0x3d4c4816	0.049873434
78	0x39133746	0.00014039603
79	0x3e2ce4af	0.16884111
80	0x3d5a45ab	0.053289097
81	0x3cc9c236	0.02462874
82	0xbc9e1c78	-0.019300684
83	0xbe52d442	-0.20588782
84	0xbe215e74	-0.15758687
85	0x3d510336	0.051028453
86	0x3cbc78c1	0.023006799
87	0x3d6e838f	0.058230933
88	0x3d4a4c32	0.04938907
89	0x3e554af0	0.20829368
90	0xba85aa9e	-0.0010197943
91	0xbdde2e6c	-0.10848698
92	0x3de23f3a	0.11047216
93	0xbc87b64e	-0.016566422
94	0xbde3f0ab	-0.11129888
95	0xbd180249	-0.037111554
96	0xbbddf5a1	-0.006773666
97	0xbc99c693	-0.018771445
98	0xbe9429aa	-0.28938037
99	0xbe29591f	-0.16537903
100	0x3cbfd1d6	0.023415487
101	0x3cc6cae8	0.024266675
102	0xbd0ca182	-0.034333713
103	0x3ce4ffde	0.027954038
104	0x3cc2a5f0	0.023760766
105	0x3e08aba6	0.13346729
106	0x3cd5d6b0	0.026103348
107	0x3c4b898a	0.012422929
108	0x3db0bd48	0.086298525
109	0x3d666847	0.05625179
110	0xbd03d757	-0.032187786
111	0xbceffa2d	-0.029294098
112	0xbda2667d	-0.07929704
113	0xbc598d98	-0.0132783875
114	0xbd3005cb	-0.042974275
115	0xbe304c32	-0.17216566
116	0x3d896a06	0.067096755
117	0xbd2b621e	-0.04184162
118	0xbe81dca7	-0.25363657
119	0xbdada555	-0.084788
120	0x3e879f6e	0.26488823
121	0x3e09844e	0.13429376
122	0x3d8bff02	0.06835748
123	0xbdab25cb	-0.08356818
124	0xbd6ef924	-0.058343068
125	0x3cedade8	0.029013589
126	0x3dfdf7e2	0.124007955
127	0xbc1bf4cc	-0.009518813
128	0xbd5f6b4b	-0.054545682
129	0x3db922c9	0.09039838
130	0x3acf83d1	0.0015832131
131	0xbe0985e3	-0.1342998
132	0x3e0ec811	0.13943507
133	0xbc94d3aa	-0.018167336
134	0xbd0b5157	-0.03401312
135	0x3cc717e5	0.024303386
136	0x3e17e882	0.14834788
137	0xbd5ee50c	-0.054417655
138	0xbde7bc28	-0.11315185
139	0x3db7b8fd	0.089708306
140	0x3e3f17b2	0.18661383
141	0xbcc8496a	-0.024449069
142	0xbcf36a1f	-0.029713688
143	0xbdb2ac8a	-0.087243155
144	0x3b964aa6	0.0045865355
145	0x3d602967	0.054726984
146	0x3db996fb	0.09062
147	0x3db0b580	0.086283684
148	0x3ca838a4	0.02053482
149	0x3d1b7df9	0.037961934
150	0x3c575353	0.013142425
151	0x3c80bc91	0.015714915
152	0x3d983921	0.074327715
153	0xbd573a74	-0.05254598
154	0x3c3a860a	0.011384496
155	0xbbb9ca4b	-0.005669867
156	0x3c45ea0b	0.012079726
157	0xbd594d46	-0.05305221
158	0x3d4a38a4	0.049370423
159	0xbe44d923	-0.19223456
160	0xbd5f1faf	-0.054473575
161	0x3b54e631	0.0032485838
162	0x3e24b89a	0.16086045
163	0x3cecf273	0.028924203
164	0xbc8dae44	-0.01729501
165	0xbd127305	-0.035754222
166	0x3e0f22be	0.13978097
167	0x3c91553e	0.017740842
168	0x3d0a328f	0.033739623
169	0xbd7030ed	-0.05864041
170	0x3e22682b	0.1586005
171	0xbdbab02b	-0.091156326
172	0xbd083c24	-0.03326048
173	0xbe38e77d	-0.18057056
174	0x3d5f6ea4	0.054548874
175	0xbe2e78f9	-0.17038335
176	0xbe1dcdd7	-0.15410553
177	0xbdff1e42	-0.12456943
178	0xbeba49b7	-0.36384365
179	0xbe842af7	-0.2581403
180	0x3cf5cd86	0.030005228
181	0x3d49ca2a	0.049265064
182	0xbddc12d8	-0.10745782
183	0x3d1ba0a4	0.037994996
184	0x3d1a75da	0.03771005
185	0x3d95dab3	0.07317104
186	0xbcfaa006	-0.030593883
187	0x3df08ea6	0.11745958
188	0xbbaa58af	-0.00519856
189	0x3dd2798b	0.10277089
190	0x3dceb539	0.10093159
191	0x3d4d34f6	0.050099336
192	0xbe039b5a	-0.1285223
193	0xbc9160fe	-0.017746445
194	0x3d44af30	0.048018634
195	0x3e074b81	0.13212396
196	0x3c6bc9dd	0.01439139
197	0xbd8c6b87	-0.06856447
198	0xbca26f7d	-0.019828552
199	0x3e4dbd88	0.20091832
200	0x3d6b2996	0.057412706
201	0xbe767b71	-0.24070527
202	0xbd2f39a8	-0.042779595
203	0xbd445d7d	-0.04794072
204	0x3e18c788	0.14919865
205	0xbe031e4a	-0.12804523
206	0xbdd327f6	-0.10310356
207	0xbd4784f6	-0.048710786
208	0x3df58256	0.1198775
209	0x3aeeac02	0.0018209221
210	0xbe232e3d	-0.15935607
211	0xbe7ea820	-0.24868822
212	0xbc955e4e	-0.018233445
213	0x3dfd2220	0.123600245
214	0x3dc77f38	0.09741062
215	0x3bf32d21	0.0074211513
216	0xbd2c8392	-0.042117663
217	0xbdc7baca	-0.09752424
218	0x3d246ae8	0.040141016
219	0x3e1db885	0.1540242
220	0xbd41f8da	-0.047356464
221	0xbd6ae8cb	-0.057350915
222	0xbc211e8b	-0.009833942
223	0x3d8b67fc	0.06806943
224	0xbd517e65	-0.05114593
225	0xbe02e1fc	-0.12781519
226	0xbe422b6d	-0.18961878
227	0xbec9fa55	-0.394488
228	0x3d331789	0.043723617
229	0x3d8b9a05	0.06816486
230	0xbe55214f	-0.20813487
231	0xbe431c49	-0.19053759
232	0xbd77d753	-0.060508084
233	0x3d975522	0.07389285
234	0x3ddd70bc	0.10812518
235	0x3d9a0b64	0.07521704
236	0x3d3b82ef	0.045779165
237	0xbd50a57d	-0.050939072
238	0x3da03a5d	0.07823632
239	0x3dcfa9ed	0.10139833
240	0xbd00f21d	-0.031480897
241	0x3b819e3a	0.0039556297
242	0x3d440fe9	0.047866736
243	0x3ca14e9d	0.019690806
244	0x3dc47084	0.09591773
245	0xbc3141ec	-0.01081894
246	0x3dbd37cd	0.09239159
247	0x3e48ad20	0.19597292
248	0x3d0c5b02	0.03426648
249	0xbe333c54	-0.17503482
250	0xbcf15f67	-0.029464437
251	0x3e0f8c32	0.14018324
252	0xbe72900d	-0.23687764
253	0xbd597312	-0.053088255
254	0xbd8d83be	-0.069098935
255	0xbd8ca90f	-0.06868183

fc1.bias f4 [50]
0	0x3cbfabfc	0.023397438
1	0x3e763810	0.24044824
2	0x3e4c728f	0.19965576
3	0xbc174c3e	-0.009234486
4	0x3e9c1922	0.30487925
5	0xbd460cc0	-0.048352003
6	0x3e66307a	0.2247943
7	0x3dea755b	0.11448165
8	0xbda60187	-0.0810576
9	0x3d14ec3f	0.036358114
10	0x3e39b684	0.1813603
11	0x3e36b55b	0.17842619
12	0xbd5d2912	-0.053994246
13	0x3ed4bdab	0.41550955
14	0x3e418e36	0.18901905
15	0x3e995adf	0.29952142
16	0x3ee811db	0.45326123
17	0x3ddc2ce5	0.107507505
18	0x3e34a440	0.17640781
19	0x3cabf819	0.020992326
20	0x3ead7c36	0.33883828
21	0x3e6e48e8	0.23269999
22	0x3e1b9dfe	0.15196988
23	0x3e91e8c0	0.28497887
24	0x3e913d2b	0.2836698
25	0x3d9e0e33	0.07717552
26	0x3e1ce08b	0.15320031
27	0xbc192cc2	-0.00934905
28	0xbdf55f9d	-0.119811274
29	0xbb377050	-0.0027990527
30	0x3e3720db	0.17883627
31	0x3e0d66ef	0.13808797
32	0x3e3d7080	0.18499947
33	0x3c1e3298	0.009655617
34	0x3e61444a	0.21998706
35	0x3d608012	0.054809637
36	0x3e664d5d	0.22490449
37	0xbe01f7c7	-0.12692176
38	0x3dbdd5fe	0.092693314
39	0x3eae1f50	0.34008265
40	0x3ea643cc	0.324736
41	0x3e8f0be8	0.2793877
42	0x3e84af4a	0.25914985
43	0x3ed07cf0	0.4072032
44	0x3e6b84f0	0.2299993
45	0x3eac0e48	0.33604646
46	0x3e5a9e7e	0.21349522
47	0x3e30929f	0.17243432
48	0x3e75a030	0.23986888
49	0x3efd97c1	0.49529842

fc2.weight f4 [10, 50]
0	0x3e18b9fc	0.14914697
1	0x3e42488c	0.18972987
2	0xbe87af7c	-0.2650107
3	0xbe2982f6	-0.16553864
4	0xbda2db61	-0.079519995
5	0x3df86d20	0.12130189
6	0xbe7199a6	-0.23593768
7	0xbe903923	-0.28168592
8	0xbdf475a1	-0.119364984
9	0x3d59ad34	0.053143695
10	0xbea459ab	-0.3209966
11	0xbe750e47	-0.23931228
12	0xbe9f71f9	-0.31141642
13	0xbe8fd021	-0.28088477
14	0x3e16b221	0.14716388
15	0xbeb811eb	-0.3595117
16	0xbebe4715	-0.37163606
17	0xbede3c5e	-0.43405432
18	0x3e26cc8c	0.16288966
19	0x3e435308	0.19074643
20	0xbeea0a0b	-0.45710787
21	0x3c9822fd	0.018571371
22	0x3de7d4f1	0.11319912
23	0x3d740a6a	0.059580244
24	0xbdf44e5e	-0.1192901
25	0x3bd54bba	0.0065092715
26	0xbead9141	-0.33899882
27	0xbdd44a71	-0.10365761
28	0xbe2f97e6	-0.17147788
29	0x3d46170c	0.048361823
30	0x3e157388	0.14594853
31	0x3e36c2d9	0.17847766
32	0x3e00ec4d	0.12590142
33	0xbec30e19	-0.38096693
34	0xbe51a632	-0.20473555
35	0x3e135ee8	0.14391673
36	0xbf02f2ad	-0.51151544
37	0xbdb9bad0	-0.09068835
38	0x3e041019	0.12896766
39	0x3e05a4f9	0.13051213
40	0xbe9610f4	-0.2930981
41	0xbdd5ce73	-0.10439768
42	0xbeb14c3d	-0.34628478
43	0xbe7fa34f	-0.24964641
44	0x3df0569f	0.11735272
45	0x3d92c80d	0.07167063
46	0xbee07016	-0.43835515
47	0xbeb32ac2	-0.3499356
48	0x3e166fba	0.14691058
49	0xbd689034	-0.056778148
50	0xbe2aaaf7	-0.1666678
51	0xbd721b13	-0.05910785
52	0x3dd9c70c	0.10633668
53	0xbea19de5	-0.31565776
54	0x3e1c1d00	0.15245438
55	0xbeaab07f	-0.3333778
56	0x3da50f26	0.0805953
57	0xbe27f981	-0.16403772
58	0xbe6267f4	-0.22109967
59	0xbe97826b	-0.2959169
60	0xbe87e8a2	-0.26544672
61	0xbc5a3fb7	-0.013320855
62	0xbe91205c	-0.28345
63	0x3e7e18be	0.24814126
64	0xbf062056	-0.5239309
65	0x3d8a4406	0.06751256
66	0x3de6cbf5	0.112693705
67	0xbeb1986f	-0.3468661
68	0xbe972214	-0.29518187
69	0xbe40faba	-0.18845645
70	0x3dec8f08	0.115507185
71	0x3d6b7223	0.057481896
72	0x3c61ff5c	0.013793793
73	0x3de03ef7	0.109495096
74	0x3e02505f	0.12725972
75	0xbeb6b708	-0.35686517
76	0xbe5e359c	-0.21700138
77	0xbeda40ea	-0.4262765
78	0xbe2fa6a6	-0.17153415
79	0xbeb9c98c	-0.3628658
80	0x3dd1c9df	0.10243582
81	0xbe951f3a	-0.29125386
82	0xbdff0b57	-0.12453335
83	0xbeb6be61	-0.35692123
84	0x3e27d8f8	0.16391361
85	0xbe3db74f	-0.18526958
86	0x3dc93302	0.09824182
87	0xbec9306b	-0.39294752
88	0xbeadf884	-0.33978665
89	0x3dd14488	0.102181494
90	0x3deb162e	0.1147884
91	0x3e15a3cc	0.14613265
92	0x3df09d81	0.117487915
93	0x3de0db87	0.109793715
94	0x3d8e1c1d	0.06938956
95	0x3e0f7112	0.14007977
96	0x3dbc619b	0.09198304
97	0x3d77d8eb	0.060509603
98	0xbe2a1af3	-0.16611843
99	0x3e6b5c7c	0.22984499
100	0x3e1652fa	0.1468009
101	0x3e683b50	0.22678876
102	0xbde34c00	-0.1109848
103	0xbe02ea6d	-0.12784739
104	0xbd872ccb	-0.066003405
105	0x3d8a09a9	0.06740124
106	0x3e01975c	0.12655395
107	0x3e2018c1	0.15634443
108	0x3dc37ce9	0.09545309
109	0x3c922d03	0.017843729
110	0xbdc1a2ed	-0.09454904
111	0x3df64a68	0.120259106
112	0xbdea00f7	-0.11425965
113	0xbda583aa	-0.080817536
114	0xbe7790d4	-0.24176341
115	0xbe89562e	-0.26823562
116	0xbe044322	-0.12916234
117	0xbdfee0fe	-0.124452576
118	0xbe498a71	-0.19681717
119	0xbd3218b3	-0.043480586
120	0xbe349738	-0.1763581
121	0x3dce2ab6	0.1006674
122	0xbe329a82	-0.17441753
123	0x3de700c7	0.11279445
124	0x3d92bbfd	0.07164762
125	0x3d7cd03c	0.061722025
126	0xbdb40a35	-0.08791009
127	0xbe938f2b	-0.28820166
128	0x3dd15963	0.10222127
129	0xbdf8b71f	-0.121443026
130	0x3dc3ebee	0.095664844
131	0xbd61b4dc	-0.05510412
132	0x3e0d8f6a	0.1382424
133	0xbdd851c8	-0.105624735
134	0x3e6093db	0.21931402
135	0xbb237e71	-0.002494719
136	0xbe08cfae	-0.13360474
137	0x3d1305f9	0.035894368
138	0xbd7e574d	-0.062094975
139	0xbe757f44	-0.23974329
140	0x3dd34bdc	0.103172034
141	0x3e232e7d	0.15935703
142	0xbe8aace2	-0.27085024
143	0x3e263b6f	0.1623361
144	0x3dda866f	0.106701724
145	0x3dd5c626	0.104381844
146	0xbe98050a	-0.29691344
147	0xbde071d5	-0.10959212
148	0xbe56c95b	-0.20975249
149	0xbe1ed723	-0.15511756
150	0xbd8c9d02	-0.06865884
151	0xbde4733c	-0.11154792
152	0xbe23cf83	-0.15997128
153	0x3dbf5524	0.09342411
154	0xbe8d88ee	-0.27643532
155	0xbe4d5ce2	-0.20054963
156	0xbe286921	-0.16446353
157	0x3e2d0ba8	0.16898978
158	0x3ddc5424	0.10758236
159	0x3d5be6b0	0.053686798
160	0xbe06362a	-0.131066
161	0x3df7d5f8	0.12101358
162	0x3e2946ff	0.16530989
163	0xbefad04f	-0.48987052
164	0x3c807fd2	0.01568595
165	0x3daca26a	0.084294155
166	0xbe65bed5	-0.22436078
167	0x3e1084fd	0.14113231
168	0xbe698d4e	-0.2280781
169	0xbe2b8f9f	-0.16754006
170	0xbe3efefa	-0.18651953
171	0x3dbc146a	0.09183581
172	0xbe86a326	-0.26296347
173	0xbe81a07a	-0.25317746
174	0xbcfea290	-0.031083375
175	0xbe928f3f	-0.28624913
176	0xbe3413de	-0.17585704
177	0xbdf96e99	-0.12179298
178	0x3dc75bb8	0.09734291
179	0x3e10f429	0.1415564
180	0xbe29cf6f	-0.16583036
181	0xbe65cd19	-0.2244152
182	0x3e2792c9	0.16364588
183	0x3db2c607	0.08729177
184	0x3c58078f	0.013185396
185	0x3dc3ff88	0.09570223
186	0x3e1faa37	0.15592276
187	0xbde568f1	-0.112016566
188	0xbe4d928d	-0.20075436
189	0xbd7e8dc8	-0.062146932
190	0x3de3a781	0.11115933
191	0xbde83b70	-0.11339462
192	0xbe27e3c6	-0.16395482
193	0xbcb2b5f3	-0.021815276
194	0x3df4ca12	0.11952604
195	0x3dc9b773	0.09849443
196	0x3d8ca462	0.06867291
197	0x3dff6cfe	0.124719605
198	0xbe744ed4	-0.23858196
199	0xbe29705a	-0.16546765
200	0x3e2d082e	0.16897652
201	0xbdb8e5be	-0.09028195
202	0xbe0a5801	-0.13510133
203	0xbe6ad70f	-0.22933601
204	0x3e323693	0.17403631
205	0x3dde2ea9	0.108487435
206	0x3d6b8dd9	0.057508323
207	0x3e0d14ac	0.13777417
208	0x3df7d391	0.121009
209	0xbedccba4	-0.43124115
210	0x3dca0a23	0.09865215
211	0xbe6b42c0	-0.22974682
212	0x3d7495a0	0.059713006
213	0x3e692d96	0.22771296
214	0xbe55b593	-0.20870046
215	0xbe2b28f1	-0.16714837
216	0x3dc87e1a	0.09789677
217	0x3df7eaa0	0.12105298
218	0xbe55b1d3	-0.20868616
219	0xbe24b331	-0.16083981
220	0x3de2b94a	0.11070497
221	0xbe2ffc8e	-0.17186186
222	0xbe8d5fe5	-0.27612224
223	0x3df197ac	0.11796507
224	0x3e0d568e	0.13802549
225	0x3e4c32bc	0.19941229
226	0x3e33db7b	0.17564194
227	0x3dcb212e	0.09918438
228	0xbcd293ee	-0.025705304
229	0xbe1e2da8	-0.15447104
230	0x3e251c15	0.16123994
231	0xbdda4158	-0.106569946
232	0x3b601622	0.003419288
233	0x3dd9212b	0.106020294
234	0xbdf4e0c5	-0.11956934
235	0xbe29c19b	-0.16577761
236	0x3e07ce78	0.13262355
237	0x3d35c967	0.044381525
238	0xbe57a750	-0.21059918
239	0xbe454253	-0.19263582
240	0xbe2921b0	-0.16516757
241	0xbdb18acf	-0.08669054
242	0x3dddca89	0.10829646
243	0xbdff2211	-0.124576695
244	0xbe406497	-0.18788372
245	0xbe750ec2	-0.23931411
246	0x3de9f19a	0.11423035
247	0xbe187c28	-0.14891112
248	0x3d7e649d	0.06210767
249	0xbde26cad	-0.110558845
250	0xbeb2538d	-0.3482937
251	0xbe413e65	-0.18871458
252	0xbe9732af	-0.29530856
253	0x3de96c51	0.11397613
254	0x3d9a5097	0.075349025
255	0xbe57aa6f	-0.21061109

fc2.bias f4 [10]
0	0x3ec62304	0.3869859
1	0x3f273891	0.6532069
2	0xbe976cca	-0.29575187
3	0x3d893a1a	0.06700535
4	0xbe3980f2	-0.18115595
5	0x3d4eae78	0.050459355
6	0x3e039786	0.1285077
7	0xbdecbdbf	-0.11559629
8	0xbe43c997	-0.19119869
9	0xbe7b79bc	-0.24558157

exp_avg f4 [10, 1, 5, 5]
0	0x3b391c02	0.0028245454
1	0x3c10eeeb	0.008846025
2	0x3b3fc95f	0.0029264314
3	0x3b8c284a	0.004277264
4	0x3bc30a10	0.0059521273
5	0x3be471f4	0.006971592
6	0x3bef0b41	0.0072950427
7	0x3b070d2a	0.0020607212
8	0x3b62c1cc	0.0034600375
9	0x3768eec6	1.3883871e-05
10	0x3be992ff	0.007128119
11	0x3c0c3bd9	0.008559191
12	0xb8f64cd0	-0.000117445015
13	0xbb492682	-0.0030693118
14	0xbb68d711	-0.003552858
15	0x3c2b90fc	0.010471579
16	0x3c37c474	0.011216272
17	0x3bdef08e	0.0068035787
18	0x3ba60ad2	0.005067208
19	0x3b318670	0.0027088188
20	0x3c8aeb91	0.01695803
21	0x3c74d246	0.014942711
22	0x3c57e2bf	0.013176619
23	0x3c0bdb9a	0.008536244
24	0x3c0016e6	0.007817959
25	0xbc410768	-0.011781551
26	0xbbca26d8	-0.0061691813
27	0xb99f7634	-0.0003041491
28	0x3b31718b	0.0027075734
29	0x3ba2e98e	0.0049716895
30	0xbc2ca3f9	-0.010537141
31	0x3aeae520	0.0017921068
32	0x3ba15e27	0.004924554
33	0x3bb2830d	0.0054477514
34	0x3c0c4ef5	0.008563747
35	0xbc1e7ae8	-0.009672858
36	0x3b617d39	0.0034406914
37	0x3b1a1f8f	0.0023517346
38	0x3bc27a9d	0.005935027
39	0x3bf0857a	0.0073401304
40	0xbb20af5c	-0.0024518585
41	0x3bd543b7	0.0065083164
42	0x3bb80a76	0.0056164814
43	0x3befd357	0.007318895
44	0x3c1e7595	0.009671588
45	0x3b2e9d49	0.0026644042
46	0x3c1f6be9	0.009730318
47	0x3bd35805	0.0064497017
48	0x3c061701	0.0081841955
49	0x3c2b1201	0.010441304
50	0xbc8a798d	-0.016903663
51	0x3afbfda8	0.0019225376
52	0xb8756758	-5.85088e-05
53	0xbbef18fe	-0.0072966805
54	0xbbf5e336	-0.0075038923
55	0x3b03354a	0.0020020776
56	0x3c45ec86	0.012080317
57	0x3a9cba32	0.0011957346
58	0xbc2eeba4	-0.010676298
59	0xbc130a49	-0.00897462
60	0x3b8cec57	0.004300635
61	0x3ba01196	0.004884909
62	0xbc254197	-0.010086439
63	0xbca25ab9	-0.01981865
64	0xbbe46539	-0.0069700745
65	0xbbe22c5e	-0.0069022616
66	0xbb8bda60	-0.0042679757
67	0xbc979039	-0.018501388
68	0xbc939275	-0.018014172
69	0xba9144f2	-0.0011083169
70	0xbbf41e43	-0.0074498965
71	0xbc219879	-0.0098630125
72	0xbc8ee14b	-0.017441412
73	0xbc30eb74	-0.010798324
74	0x3aa6bf9d	0.00127219
75	0x3b312cc8	0.0027034748
76	0x391cb6a9	0.00014945366
77	0xbb17ac94	-0.0023143636
78	0xbbc8a017	-0.0061226
79	0xbbb32e2c	-0.0054681506
80	0xb9ab34b3	-0.00032654926
81	0xbb617e69	-0.0034407622
82	0xbba740b0	-0.005104147
83	0xbc15470a	-0.009111175
84	0xbc30fe16	-0.010802766
85	0x3a689b8c	0.0008873276
86	0xbbc52fb3	-0.006017649
87	0xbc264617	-0.010148547
88	0xbc60769e	-0.013700156
89	0xbc6f017f	-0.014587759
90	0xba795859	-0.0009511761
91	0xbbd71ff2	-0.0065650875
92	0xbc5fb616	-0.0136542525
93	0xbc8fb62f	-0.017542927
94	0xbc577214	-0.013149757
95	0xbb2bc03b	-0.0026207108
96	0xbc399d20	-0.011328965
97	0xbc969b51	-0.018384608
98	0xbca29f7d	-0.01985144
99	0xbc5146cb	-0.012773226
100	0xbb9fdcfa	-0.0048786374
101	0xbc9b1d0a	-0.018934745
102	0xbc8e72e0	-0.017388761
103	0xbb14d11d	-0.002270765
104	0x3bbf8889	0.0058451337
105	0xbbc638af	-0.0060492377
106	0xbcb03b10	-0.021512538
107	0xbc815846	-0.015789162
108	0xbab76773	-0.0013992622
109	0x3c2426ea	0.010019043
110	0xbb103711	-0.0022005478
111	0xbc30eab4	-0.010798145
112	0xbb4d779f	-0.0031351817
113	0x3c30af25	0.010783945
114	0x3ca222d5	0.019792
115	0x39db1bdf	0.000417917
116	0xbb6ae908	-0.0035844464
117	0x3c4c306b	0.012462716
118	0x3c9c9235	0.019112686
119	0x3cc95722	0.024577681
120	0xbbb7d021	-0.0056095277
121	0xbb9370a3	-0.0044995113
122	0x3c346058	0.011009298
123	0x3c73606f	0.0148545345
124	0x3ca66224	0.020310469
125	0x3c709bd2	0.014685588
126	0x3c0a3c29	0.008437195
127	0x3b793125	0.0038023677
128	0x3beb891f	0.007187977
129	0x3bdd29dd	0.0067493753
130	0x3c929b2d	0.01789626
131	0x3c1174da	0.008877957
132	0x3bcbe59c	0.00622244
133	0x3beae9e5	0.0071689957
134	0x3bb12a26	0.005406636
135	0x3c61d558	0.013783775
136	0x3bb82ae5	0.005620348
137	0x3ba989be	0.005173891
138	0x3b8b9153	0.0042592674
139	0x3af30e16	0.0018543627
140	0x3c6eec7a	0.014582748
141	0x3b2413c7	0.0025036202
142	0x3b140b5a	0.0022589774
143	0xbac4b803	-0.0015008453
144	0xbb62b4b2	-0.0034592566
145	0x3ca06348	0.019578591
146	0x3b049df7	0.0020235756
147	0xbb23ebf8	-0.0025012475
148	0xbbca9b02	-0.006183029
149	0xbc225cfa	-0.009909863
150	0xbad30ce7	-0.0016101868
151	0x3b5ea01d	0.0033969947
152	0x3b9a337d	0.004705845
153	0x3baf459b	0.005348874
154	0x39ae5911	0.00033254226
155	0x3a265f30	0.00063465815
156	0x3aa9de1b	0.0012959869
157	0x3b6e3360	0.003634654
158	0x3c85382f	0.016262142
159	0x3c0bfcad	0.008544129
160	0xba2f3acf	-0.00066844834
161	0x3aaa95ed	0.0013014652
162	0x3b847629	0.004042406
163	0x3c09f23a	0.008419568
164	0xbacbc555	-0.001554648
165	0x3abcb7fc	0.0014398093
166	0xbb02dcef	-0.0019968112
167	0x385c6ee4	5.2555362e-05
168	0xbaae7385	-0.0013309574
169	0xbc1f67a9	-0.009729304
170	0x3ae9e867	0.001784575
171	0xbae91cc3	-0.0017785061
172	0x3a9ab826	0.0011804148
173	0xbab3e246	-0.0013724051
174	0xbbd5a66e	-0.006520084
175	0x3ad8f027	0.0016551063
176	0x3bc44baf	0.0059904675
177	0x3c04eff0	0.008113846
178	0x3b838b4d	0.0040144087
179	0x3a97d8c0	0.0011584982
180	0x3b348fc7	0.0027551518
181	0x3bfe47c0	0.007760018
182	0x3be160a1	0.006877974
183	0x3bb274a1	0.005446032
184	0x3b75001c	0.0037384098
185	0x3b5d8c18	0.0033805426
186	0x3adfebfc	0.0017083879
187	0x3a7f109d	0.00097299536
188	0x3a75f51d	0.0009382533
189	0x3b299272	0.0025874642
190	0xb9f26faa	-0.00046241033
191	0xbb1e86da	-0.0024189265
192	0xbbb1dc9f	-0.0054279114
193	0xbb578c36	-0.0032889969
194	0xb8bab074	-8.902038e-05
195	0xbb1aa889	-0.002359899
196	0xbb894521	-0.004189149
197	0xbb8fb64a	-0.004385744
198	0xbb963c89	-0.004584853
199	0xbab28b1b	-0.0013621779
200	0x3c1a7435	0.00942712
201	0x3c2f77af	0.010709687
202	0x3c4fedc0	0.012690961
203	0x3c1dfe6b	0.0096431775
204	0x3c009f43	0.007850471
205	0x3bc124a4	0.0058942605
206	0x3c09779c	0.0083903335
207	0x3c5c380b	0.013441096
208	0x3c26c220	0.010178119
209	0x3c0dfed3	0.008666712
210	0x3b11d20a	0.0022250437
211	0x3bce9201	0.006304026
212	0x3c832262	0.016007606
213	0x3c5e13a2	0.0135544855
214	0x3c21e12e	0.009880347
215	0x3b1359d5	0.0022483964
216	0x3b7bfd55	0.0038450558
217	0x3bd66d12	0.006543764
218	0x3bc4462c	0.0059898105
219	0x3bb8263f	0.0056197937
220	0x39f1f1ed	0.0004614735
221	0xbb7a28d7	-0.0038171315
222	0xbb001895	-0.0019545902
223	0xbadf7f13	-0.0017051421
224	0x3a6fa228	0.00091412896
225	0xbb752379	-0.0037405177
226	0x3a6372d3	0.0008676473
227	0x3b29e231	0.0025922174
228	0xbaceb895	-0.0015771562
229	0xbb5fc6a8	-0.0034145508
230	0xba8058b8	-0.0009792065
231	0xbafcc825	-0.0019285722
232	0xbb887601	-0.004164458
233	0xbb4d0a4e	-0.003128666
234	0xbb0ac3db	-0.0021173868
235	0xbb8329e7	-0.004002798
236	0xbbc9e484	-0.0061612744
237	0x3a0ab287	0.0005290885
238	0x3b58c582	0.0033076708
239	0x3b8c736e	0.004286221
240	0xba428fe6	-0.0007421955
241	0xbae09660	-0.0017134659
242	0x3ba9c1d0	0.005180575
243	0x3c25af31	0.01011257
244	0x3be3b4f5	0.006949062
245	0x3aedaf25	0.0018133862
246	0x3a861ea4	0.001023252
247	0x3be0c54c	0.006859457
248	0x3bbb4dfa	0.0057160826
249	0x3b98c606	0.004662278

exp_avg_sq f4 [10, 1, 5, 5]
0	0x3a963294	0.0011459165
1	0x3a7aa56b	0.00095613924
2	0x3a6e1457	0.00090820104
3	0x3a79cc88	0.0009529074
4	0x3a6a0db2	0.00089284324
5	0x3a8a7b04	0.0010565226
6	0x3a5c506d	0.00084043184
7	0x3a420c01	0.00074023014
8	0x3a1f6695	0.00060806546
9	0x3a3c3e11	0.00071808795
10	0x3a6f2cd3	0.0009123806
11	0x3a34a75e	0.0006891395
12	0x3a1cd25e	0.0005982275
13	0x3a3476d8	0.0006884164
14	0x3a62a080	0.0008645132
15	0x3a4f37fb	0.0007904765
16	0x3a28dc77	0.0006441543
17	0x3a2f6a50	0.0006691562
18	0x3a512bf1	0.0007979265
19	0x3a654dd9	0.0008747257
20	0x3a576e0f	0.0008217999
21	0x3a3a2c80	0.0007101968
22	0x3a360d92	0.0006944771
23	0x3a30b5a2	0.00067409326
24	0x3a5821fa	0.0008244809
25	0x3a83d6d0	0.0010058526
26	0x3a8e3a98	0.0010851203
27	0x3a66f8d6	0.0008810883
28	0x3a86e4f8	0.0010291627
29	0x3aa50679	0.001259043
30	0x3a97fa16	0.0011594917
31	0x3a819cbb	0.0009888628
32	0x3a593d7b	0.00082870544
33	0x3a97e279	0.001158788
34	0x3aac3ccb	0.0013140676
35	0x3a951e4e	0.0011376829
36	0x3a4a08e1	0.00077070115
37	0x3a7d0566	0.00096519885
38	0x3aa2162c	0.0012366227
39	0x3aaef955	0.0013349453
40	0x3a8ae8de	0.0010597964
41	0x3a6f1057	0.00091195613
42	0x3a927cc5	0.00111761
43	0x3aad00f7	0.001319914
44	0x3ab43aaa	0.0013750393
45	0x3a998518	0.0011712639
46	0x3a99bd41	0.0011729376
47	0x3aa62f9a	0.0012678981
48	0x3ab3ed72	0.001372738
49	0x3ab7faa1	0.0014036485
50	0x3abab89f	0.0014245695
51	0x3ab9cf95	0.0014176244
52	0x3ac690c8	0.0015149349
53	0x3ab8c90f	0.0014098006
54	0x3ab26cb6	0.0013612721
55	0x3acc8406	0.0015603311
56	0x3ad893fb	0.0016523594
57	0x3abbccfd	0.0014328059
58	0x3aa7ce14	0.0012802505
59	0x3aa531c6	0.0012603335
60	0x3ae47a33	0.0017431438
61	0x3ac9bd1f	0.0015391445
62	0x3aa048e5	0.0012228756
63	0x3aadc9b6	0.0013258967
64	0x3a9919e4	0.001168069
65	0x3ad7e344	0.0016470929
66	0x3ab36c7d	0.0013688948
67	0x3ab3292c	0.0013668886
68	0x3aa39be6	0.0012482374
69	0x3a8df750	0.0010831151
70	0x3ad629f4	0.0016339407
71	0x3ab7f0e0	0.0014033578
72	0x3aad36ab	0.0013215145
73	0x3a9ec15d	0.001211207
74	0x3aae2501	0.0013286175
75	0x3b1fc723	0.002438017
76	0x3b10e6c1	0.0022110196
77	0x3ae61d05	0.0017556256
78	0x3ad26e74	0.0016054646
79	0x3aeceed7	0.0018076551
80	0x3b151fc7	0.0022754536
81	0x3ae6aa28	0.0017598318
82	0x3aba33f8	0.0014206162
83	0x3ab63a3d	0.0013902854
84	0x3adf5cc6	0.0017041198
85	0x3afd1b26	0.0019310459
86	0x3ac25159	0.0014825269
87	0x3aab66f1	0.0013076944
88	0x3ab1f5ff	0.0013577341
89	0x3aea9483	0.0017897043
90	0x3ae3e25c	0.0017386186
91	0x3abbfd6c	0.0014342493
92	0x3ab6d4f0	0.0013948958
93	0x3acd8875	0.0015680926
94	0x3b10dad8	0.0022103097
95	0x3ae8e545	0.0017768523
96	0x3ad6b58a	0.0016381007
97	0x3ae9b4a3	0.0017830323
98	0x3b0bc839	0.0021329059
99	0x3b3da6c1	0.0028938504
100	0x3a8bdeb4	0.0010671229
101	0x3a8e08d2	0.0010836369
102	0x3a87fd3b	0.0010375151
103	0x3a937c93	0.0011252336
104	0x3aca4aa2	0.0015433619
105	0x3a7cbfb9	0.0009641606
106	0x3a72798e	0.00092496804
107	0x3a4176b2	0.00073800527
108	0x3a96e454	0.0011512139
109	0x3adafa58	0.0016706688
110	0x3a57a285	0.00082258164
111	0x3a66b27e	0.0008800401
112	0x3a524be2	0.00080221717
113	0x3a9b5c4d	0.0011853069
114	0x3ae023ef	0.0017100553
115	0x3a50b1b1	0.00079610484
116	0x3a7e733a	0.0009706501
117	0x3a8f4318	0.001093003
118	0x3ab876f1	0.0014073533
119	0x3ae7f7a0	0.0017697699
120	0x3a6ab54c	0.0008953407
121	0x3a8c5184	0.0010705446
122	0x3aa5cc46	0.0012649379
123	0x3ac96bd9	0.0015367224
124	0x3af01ef9	0.0018319777
125	0x3acc97c2	0.0015609192
126	0x3aa6d0d1	0.0012727027
127	0x3a9082af	0.0011025275
128	0x3a9bb98c	0.0011880859
129	0x3aa3e77e	0.0012504903
130	0x3ab39d43	0.0013703484
131	0x3a87fa2f	0.0010374243
132	0x3a828bdb	0.0009959893
133	0x3a9604ab	0.0011445483
134	0x3aa37d70	0.0012473296
135	0x3a9ca4bc	0.001195095
136	0x3a721bd6	0.0009235715
137	0x3a6c4900	0.00090135634
138	0x3a8d2eee	0.0010771432
139	0x3a9fd9fa	0.0012195699
140	0x3a89aae7	0.0010503203
141	0x3a6a77a8	0.0008944222
142	0x3a6bd361	0.00089960365
143	0x3a8619b8	0.0010231053
144	0x3aa0e427	0.0012275026
145	0x3a6e99c5	0.0009101893
146	0x3a5c45e5	0.0008402749
147	0x3a6f71b3	0.0009134069
148	0x3a89bd3e	0.0010508669
149	0x3a9a3c7f	0.0011767297
150	0x3a841363	0.0010076578
151	0x3a7bbf83	0.00096034276
152	0x3a654aaa	0.00087467826
153	0x3a553247	0.0008132797
154	0x3a470f86	0.0007593561
155	0x3a864334	0.0010243417
156	0x3a882b2c	0.0010388843
157	0x3a6ef879	0.0009116005
158	0x3a403083	0.00073314476
159	0x3a33431b	0.00068383076
160	0x3a8643b2	0.0010243563
161	0x3a7f969c	0.00097499206
162	0x3a5a76b1	0.00083337264
163	0x3a2a3475	0.0006492802
164	0x3a34793d	0.0006884521
165	0x3a812661	0.0009853357
166	0x3a6d8d55	0.00090618926
167	0x3a57161c	0.00082048937
168	0x3a45b93a	0.00075425545
169	0x3a538447	0.0008068722
170	0x3a7f37bc	0.0009735783
171	0x3a71458d	0.0009203784
172	0x3a649c4c	0.00087208
173	0x3a780991	0.0009461875
174	0x3a735d2a	0.0009283597
175	0x3a660a44	0.00087753334
176	0x3a5a9b9f	0.00083392294
177	0x3a473307	0.0007598851
178	0x3a671a8f	0.0008815908
179	0x3a78ae57	0.0009486428
180	0x3a852016	0.0010156657
181	0x3a619277	0.0008604894
182	0x3a4b1f94	0.0007748541
183	0x3a72f773	0.000926844
184	0x3a86dd2f	0.0010289307
185	0x3a7d9e07	0.0009674732
186	0x3a57da6c	0.00082341465
187	0x3a514ca4	0.00079841376
188	0x3a717a7e	0.0009211673
189	0x3a959b83	0.0011414144
190	0x3a64b590	0.00087245647
191	0x3a5b3e77	0.0008363495
192	0x3a54ffc9	0.0008125273
193	0x3a77cb7a	0.00094526226
194	0x3a921df1	0.0011147839
195	0x3a62144c	0.000862424
196	0x3a561007	0.00081658404
197	0x3a654303	0.0008745642
198	0x3a85a795	0.0010197038
199	0x3a9271b9	0.0011172808
200	0x3b492774	0.0030693682
201	0x3b22a1f7	0.0024815777
202	0x3b1617a7	0.0022902281
203	0x3b14b83f	0.0022692827
204	0x3b16fafe	0.0023037787
205	0x3b348311	0.0027543942
206	0x3b2c4f24	0.0026292289
207	0x3b33d2cb	0.0027438875
208	0x3b3256db	0.0027212414
209	0x3b36f3c5	0.0027916294
210	0x3b258991	0.0025258998
211	0x3b225460	0.002476953
212	0x3b35831e	0.002769656
213	0x3b3dd2da	0.0028964789
214	0x3b4647c9	0.003025519
215	0x3b121b9f	0.0022294295
216	0x3b177f05	0.002311648
217	0x3b1f2ae5	0.0024287042
218	0x3b316d6f	0.0027073284
219	0x3b489a0a	0.0030609393
220	0x3b18434c	0.0023233471
221	0x3b20baea	0.0024525472
222	0x3b28dd21	0.0025766569
223	0x3b36ebbf	0.0027911512
224	0x3b467b16	0.0030285767
225	0x3a4fd968	0.00079288194
226	0x3a5fe3cd	0.000854072
227	0x3a462fd9	0.00075602304
228	0x3a697b82	0.0008906649
229	0x3a805aad	0.0009792648
230	0x3a4e1432	0.00078612857
231	0x3a424b55	0.0007411738
232	0x3a420fde	0.0007402877
233	0x3a743b42	0.00093166914
234	0x3a8ae902	0.0010598006
235	0x3a361179	0.00069453527
236	0x3a241231	0.0006258814
237	0x3a5437db	0.00080954813
238	0x3a851eca	0.0010156271
239	0x3a8ebc45	0.0010889849
240	0x3a26d375	0.0006363907
241	0x3a2f57e5	0.00066888175
242	0x3a818c4b	0.000988373
243	0x3aa2fec2	0.0012435543
244	0x3a9fcddb	0.0012192087
245	0x3a22ee17	0.0006215288
246	0x3a53df0b	0.0008082247
247	0x3a99fc99	0.0011748254
248	0x3ab470e7	0.0013766558
249	0x3a9ce5c7	0.0011970334

exp_avg f4 [10]
0	0xb984fba5	-0.00025364492
1	0xbc43d4cd	-0.011952591
2	0x3d073a22	0.033014424
3	0x3c2e8cad	0.010653657
4	0xbc5c7f9a	-0.013458157
5	0xbb925766	-0.004465985
6	0x3ae931c0	0.0017791316
7	0x3c02c27f	0.007980942
8	0x3bdb1175	0.0066854306
9	0x3c0d4e50	0.008624628

exp_avg_sq f4 [10]
0	0x3ac30b81	0.0014880748
1	0x3ae97403	0.0017811063
2	0x3b042a60	0.002016686
3	0x3ab6e050	0.0013952348
4	0x3b0b920b	0.0021296765
5	0x3abcd27e	0.0014405993
6	0x3a7a4bf5	0.00095480616
7	0x3ab6202a	0.0013895084
8	0x3b485d94	0.0030573355
9	0x3a65f2d8	0.0008771843
