model_checkpoint/model_epoch7.pth (torch, 268573 bytes, 24 tensors)

conv1.weight f4 [10, 1, 5, 5]
00000000: 33f2 1ebe 9538 2abe b1f8 72be eb7b 9dbe
00000010: 6888 89be 29b4 483e c3d6 f23d ebee 04be
00000020: 1752 56bd 75cc 35be f0dd 0bbe 61bc 2fbd
00000030: c44f 003e f698 953e 554d dc3e 3f40 743e
00000040: 245f 0c3e 76e5 8c3e 1f13 283e 2c7a 9f3d
00000050: 1889 c83d 6b5f 0fbe 455c f2bd a03f 17be
00000060: 82e4 8cbd 8bfa ac3e 2a9e 903e 8610 1b3e
00000070: 72ed 35be f6a2 a4bd 3793 cc3e e1f3 9d3e
00000080: 0f3a 1a3d e606 5bbe 04ca 8fbd 8a39 923e
00000090: 43b6 76bd 5026 6fbe 699e da3c 3b5f 3a3d
000000a0: 7755 643e 9d62 16be 1aaa 10be ca9a 89be
000000b0: 0df9 3c3d 7b62 f2bd ed5c 6fbe d787 13be
000000c0: 8cd2 9ebe 3908 8cbe 8115 89be 7d22 12be
000000d0: c927 623e 15fe 3d3e 997a 4e3e d118 03bd
000000e0: 19a4 de3e 5ae6 9b3e ead7 a53d 68ee 4abe
000000f0: 2dde a13e 53e3 623e 52ef 2fbe 31b7 a2be
00000100: fc24 89be e1b4 e93d ce4a 0abe b2c7 02bf
00000110: 97d2 a0be 2523 833d f2c4 56bd b13f 80be
00000120: a88f 103d d7a5 493e d127 7b3e 4616 8cbd
00000130: 3ced 2f3d a797 edbd c9e9 b2bd b58a bbbd
00000140: b6ec ae3c e85a ccbd 9791 08bd 6223 0cbe
00000150: 7d6c 56be 4c10 0abd f98c d7bc b7de 6cbe
00000160: 21c6 42be 30c3 c1bd 904a 7cbd 0eea 23be
00000170: 4cff cfbd 569b 80bc 36b2 09bb 12d0 cabc
00000180: 8734 32be 6780 13bd 5ade d9bd 3bb1 4d3e
00000190: cb56 733e 7f5f 9d3e 9320 79bd ae12 7dbe
000001a0: 26a2 ddbe 6107 393e feb1 a43e aa6b 293e
000001b0: 8353 b2be d518 c6be ed54 b33d 2039 9a3e
000001c0: c0c6 6f3e 26f2 a4bc 37cb 80be 6f16 92bd
000001d0: fa15 4f3e 92a4 4f3e ae98 df3a 9a8a 5bbe
000001e0: 7ea4 613d e898 4b3e efc6 323e 1bae 01be
000001f0: fc64 5dbe 0c7d a83c 15bc ecbd 54fc 42be
00000200: 0e0e a5be c457 55be 196d d4bd 225f 77be
00000210: 9b58 6cbe dd8d 0dbe 15e6 9ebe f534 b43e
00000220: 32e8 183e dd71 94bd dfa7 55bd 8f0c 10be
00000230: 5a37 383e 7654 b63d e60e 9a3e 778d 6f3d
00000240: 3342 633d 6f43 053c b0ed 973e f733 023e
00000250: 6196 ac3e 726a 873e 7cda 893c cec3 a4be
00000260: 7e2c 1e3e f08e b13e f35a b83e c072 01be
00000270: e37d 9e3d 7388 0abe 7640 913e 7733 323e
00000280: a834 2c3d 9c96 7fbd ad7b 88be 79f7 4dbe
00000290: 850c 9c3e c2a8 0dbe 593b 7dbd 59c0 67bd
000002a0: 6a11 75be 1071 593e 67ab 1bbe 2980 0dbe
000002b0: 54ff 84be 81c1 04be 24a6 aabd f0ff b5bc
000002c0: 5ec9 ae3e 1216 de3e 99d4 953e aef6 5a3e
000002d0: 61bb 433e 9433 3e3e 7062 02bd fa8f 5a3e
000002e0: febd 9c3d 1221 23be eeee 90be 9204 0a3d
000002f0: 6206 3a3e 57c9 9c3e 38b4 02be 529c 2ebe
00000300: 2023 83be 2f38 96be 7b56 42be ea72 e8bd
00000310: b729 c7bc 9f17 41be 912f 87be 36fc bcbd
00000320: befe 893e 1f73 a2bd 8cc1 8dbe b11d 65be
00000330: d5ba 50be a5b6 f5bc 0deb b23e 86aa c03e
00000340: 681a 083e 43b1 083e c555 173d 15ea 8a3d
00000350: 6167 ba3e 8a68 8c3e 2a35 693e 5793 cabe
00000360: 4232 8bbe f486 33be 95d5 b33c cfe4 8abc
00000370: 2455 cb3c 4161 60be eb44 abbe 77e5 98be
00000380: 46af 4bbe 450f 523e 396d a03e ffc3 35be
00000390: 1900 90be 08bd 193e ac44 e83e b387 0b3e
000003a0: 2733 f7bd d7d8 a3be f959 45be 4367 a13e
000003b0: 93df f539 0288 353e 40e2 483d 918e 1fbe
000003c0: c331 033e 6b51 9bbc 16a1 dcbd d815 533e
000003d0: ca4f 8f3d 558a 553e bb5e 563d bec5 f03e
000003e0: 2f70 a23e 6c3b 633e
-0.15522079 -0.16623147 -0.2372768 -0.30758604 -0.26861882 0.19599976 0.11857369 -0.12981765
-0.05232438 -0.17753775 -0.13658881 -0.04290426 0.12530428 0.29218262 0.4302775 0.23852633
0.13708168 0.27518815 0.16413544 0.07786974 0.097917736 -0.14001243 -0.11834005 -0.14770365
-0.06879522 0.337849 0.2824567 0.15143022 -0.1776636 -0.08038895 0.39956066 0.30850127
0.037653025 -0.2138935 -0.07020953 0.28559524 -0.060232412 -0.23354459 0.026686864 0.045500975
0.22298227 -0.14686055 -0.14127389 -0.26875907 0.04613595 -0.1183519 -0.23375292 -0.14407288
-0.3102001 -0.27350023 -0.2677422 -0.14270969 0.2208549 0.18553956 0.20163955 -0.03200609
0.43484572 0.30449182 0.08097823 -0.19817507 0.3161482 0.2215703 -0.17181137 -0.3178039
-0.2678603 0.11411453 -0.13505098 -0.5108596 -0.31410667 0.06403188 -0.052433915 -0.25048593
0.03529325 0.19692169 0.24526908 -0.06840186 0.042950854 -0.11601191 -0.08735997 -0.09157316
0.021353107 -0.099782765 -0.03334197 -0.13685372 -0.20939822 -0.03370695 -0.026312338 -0.23131834
-0.19020893 -0.09461057 -0.061594546 -0.16007254 -0.10156116 -0.01569907 -0.0021010763 -0.024757419
-0.1740285 -0.036011126 -0.10638113 0.2008714 0.23763578 0.3073692 -0.06082208 -0.24714157
-0.43287772 0.18069221 0.32167047 0.16544977 -0.3482934 -0.3869082 0.08756433 0.30121708
0.23415661 -0.020134997 -0.2515504 -0.07133185 0.20223227 0.20277622 0.0017059052 -0.21439591
0.055088513 0.19882548 0.174587 -0.12664072 -0.21620554 0.02056744 -0.11559311 -0.19041568
-0.32237285 -0.20834261 -0.10372371 -0.24157384 -0.23080675 -0.13823648 -0.31034914 0.35196653
0.14932325 -0.0724828 -0.052162047 -0.1406729 0.17989865 0.089028284 0.30089492 0.05848452
0.055483054 0.008133753 0.2967353 0.12715136 0.3370848 0.264484 0.016827814 -0.32180637
0.1544666 0.34679365 0.3600689 -0.1264143 0.07738855 -0.13528614 0.28369492 0.17402445
0.042042404 -0.06239949 -0.26656857 -0.20113935 0.30478302 -0.13833907 -0.061824176 -0.05657992
-0.23932424 0.21234536 -0.15202104 -0.1381842 -0.2597605 -0.12964441 -0.0833247 -0.022216767
0.34138006 0.43376213 0.29263762 0.21383163 0.19114448 0.18574363 -0.03183216 0.21343985
0.07653426 -0.15930584 -0.2830729 0.033695765 0.18166497 0.3062236 -0.1276406 -0.17051819
-0.25612736 -0.2933974 -0.18978302 -0.11350043 -0.024311883 -0.18856667 -0.26403478 -0.09227793
0.26952165 -0.07932114 -0.27686727 -0.22374608 -0.20383771 -0.029994318 0.34944955 0.376301
0.13291323 0.1334887 0.03694703 0.06782929 0.36406997 0.27423507 0.22774187 -0.39565536
-0.2718678 -0.1753195 0.02195243 -0.016954808 0.024820872 -0.219121 -0.33451018 -0.29862568
-0.1989108 0.20513637 0.3133333 -0.17750548 -0.28125075 0.15013516 0.45364892 0.13625984
-0.120703034 -0.32001373 -0.19272603 0.31524095 0.00046896617 0.17727664 0.049043894 -0.15581729
0.12811951 -0.018959722 -0.10772912 0.20613801 0.069976404 0.2085355 0.052336436 0.47025865
0.31726214 0.22190636

conv1.bias f4 [10]
00000000: 4589 10be 1b4b a7be 78ab d9bc 0f9a cfbe
00000010: 4357 46bd c246 13be aa6e a3be 989b 69bd
00000020: b84a b0be 9968 843d
-0.14114864 -0.32674488 -0.02657102 -0.40547225 -0.048423063 -0.1438246 -0.31920367 -0.05703315
-0.34432006 0.06465263

conv2.weight f4 [20, 10, 5, 5]
00000000: 5402 ce3d 2fb3 24bd 28bf 33bd 3879 55bc
00000010: c452 7f3d f47d e9bc f881 f23b 6503 5d3d
00000020: 133a cd3d 2fdd 6a3d da13 a23d 4a02 2d3d
00000030: 5563 bd3c 0a69 923d fc6f 253e 54cf 583d
00000040: bdb3 653d 297a f33d 987a 9b3e 7292 333e
00000050: 4a59 6bbb d406 50bd 3c0b edbc 763d 4ebc
00000060: 950e b83d bef4 023e f7b6 843d c221 1f3e
00000070: 5946 513e 2d67 1f3e 85d6 883d 5b64 473c
00000080: b306 b53d ce85 1d3d c52b eb3c 4e41 373d
00000090: 2376 06bb 3344 383c 23ad 3fba 0af3 cbbc
000000a0: f69e 6d3d aebb 333d eb49 a63d 1704 2cbc
000000b0: 0925 98bd 775a 533d 3fd4 b23d bc81 ba3c
000000c0: 7dbe 5fbc 69e2 a2bc 3811 1f3d bcb3 14be
000000d0: c19c b83d 19ca 273e 1267 53bb 541c 343d
000000e0: 361a b1bc e279 9dbd 157b 0fbc 4031 40bb
000000f0: ae20 c1bd ee5e e4bd 5b65 7d3d eb01 853d
00000100: aa95 acbc 3760 8b3c 53b1 73bd 7c76 c93c
00000110: f8f3 7bbd 7354 133e 4040 a6bd fff4 2ebe
00000120: 8e5b cabc 3dfb 613d bdd9 873d e612 db3d
00000130: c801 673d d2cb 853d c980 293c 8268 793d
00000140: 2ed7 483c f734 093d dc14 ab3c a4e6 dcbd
00000150: 6b0c 30bd 0da6 0ebd 4656 0ebd 8c5b cabd
00000160: 0d93 f1bc 949a 41bd 8f2c aabd 72c2 93bd
00000170: 6a0a c4bc 3178 0fbd b63e 093d 0dd2 28be
00000180: 5e4d 0ebe ba9f 5ebd 8060 573c f2d9 913d
00000190: 3da5 db3d 1318 ae3d c6a8 993d 22ea 843d
000001a0: 930c c4bd 1042 8e3b 9331 f0bc 537b 0c3d
000001b0: 520b 453c 5852 79bd 62d2 37be 27fe 10bd
000001c0: 460d 41bd c2fe 0ebd 2335 19bc a153 21be
000001d0: 5234 49bd 6f16 babd 0b54 f8bc 3478 26be
000001e0: bc35 a03d 19ad b53d 9d3b af3c b3ea febd
000001f0: dcc1 7cbe 4fb4 773d 845f a4bc e1f3 e2bb
00000200: 50f1 9b3d 5c6d ffbd ebdd b83c 78e0 34bd
00000210: 09f2 323d ccd6 243d 52ca 463d 78a6 403c
00000220: ec10 d2bb 80ac 3cbc f673 a83d a4ed c13d
00000230: 8b44 97ba ae85 103d a107 963d 06ab 983d
00000240: d14a 753d 498f 88bd 2c78 2bbe f4e2 b6bd
00000250: ce5b 9ebd 0279 513d f3aa 04be 2f13 6fbe
00000260: 6804 523d 4cd0 a43d c258 24bd 6ec7 91be
00000270: b4bc 40be 154b ca3d fe02 d93d 8a14 7f3c
00000280: dbe2 45be f3df e6bd cc1d 413c 2def f33d
00000290: a9d8 063c e14e 37be a88e 86bd 8fd1 c83b
000002a0: 5d11 813c 8e37 413c e679 c93a 9b09 39bd
000002b0: 82b6 b6bb 63f4 b7bd ab60 87be 9936 0abe
000002c0: 71c3 92be b825 30be 8001 0cbe b976 eebc
000002d0: e288 4cbe 100a bebe bf11 02be 0f60 ae3c
000002e0: 4209 c93b 0478 1bbe 18d0 11be 1557 483c
000002f0: 75df 903d 74b4 c13d bed2 6abd bb21 183d
00000300: 959a ac3d 0a39 a93d d8fd 233d 1dea 99bd
00000310: 15a4 9e3d d52d e63d cfc6 2a3d 286f 0dbe
00000320: 02d5 90bb 6dd9 b2bd 1d75 b6bd f794 fabb
00000330: b30b 03bc f371 55be a3c8 6ebe 210d 413d
00000340: 69ff 2f3e 1159 243e 09e9 e0bd 81f3 ec3c
00000350: 4d95 643d f165 263e 97fa 283e ea01 e5bd
00000360: 4b59 753d d496 0b3e 58f9 523e 8c3f 573e
00000370: 2cc1 b1bd a99e 463b 4499 363e 2a44 da3d
00000380: 2701 b3bb 1de0 7fbb 833c f2bd 28c7 92bd
00000390: 58cc 0fbe 020e 42be 6c6e 2ebd 7b47 643c
000003a0: 9283 1a3d b165 f43c 7ed7 52bd fbcb 8b3d
000003b0: 56ee acbc 4c18 9a3c 1fb1 fc3c 8699 763d
000003c0: 2b63 883d 6329 d1bd fc88 4fbd b6a9 60bd
000003d0: 7a96 313d 6de5 3e3c 2b55 4e3c 8ba9 aa3c
000003e0: b602 c7bd f4cc 883d eeb9 f33c 1bad 3cbe
000003f0: a284 ea39 b38d 43bd 7aa1 b8bd f9af 953e
0.10059038 -0.040209945 -0.043883473 -0.013029389 0.06233479 -0.028502442 0.0074007474 0.053958315
0.100208424 0.057339843 0.07913943 0.04223851 0.023118654 0.07148941 0.16156 0.0529321
0.056079615 0.118885346 0.3036697 0.17536333 -0.0035911375 -0.05078776 -0.028936021 -0.012587896
0.08987156 0.12788674 0.0648021 0.15540221 0.20436992 0.15566702 0.06681541 0.012169923
0.088391684 0.038457684 0.028707394 0.044740014 -0.0020517192 0.011246729 -0.0007311871 -0.024896163
0.058012925 0.043880157 0.081195675 -0.010499022 -0.07428939 0.051599946 0.08731889 0.02276694
-0.013656256 -0.019883351 0.03883478 -0.14521688 0.090142734 0.16385688 -0.003225748 0.04397233
-0.021618944 -0.07689263 -0.008757372 -0.002932623 -0.09430061 -0.11150919 0.06186424 0.064945064
-0.02106746 0.017013652 -0.05949528 0.02459263 -0.061511964 0.14387684 -0.081177235 -0.17085646
-0.02470186 0.05517124 0.06633327 0.10696964 0.056398183 0.06533016 0.010345646 0.060890682
0.012258334 0.033497777 0.02088397 -0.10786179 -0.042980593 -0.034826327 -0.034750246 -0.098807424
-0.029489065 -0.047266558 -0.0830928 -0.07214822 -0.023930747 -0.035026733 0.03350707 -0.16486378
-0.138967 -0.054351546 0.013145566 0.07121648 0.10724876 0.085006855 0.07502894 0.0648997
-0.09572711 0.0043413714 -0.029320514 0.0342973 0.012026625 -0.060869545 -0.17951348 -0.03539863
-0.0471318 -0.034910925 -0.009351048 -0.15754558 -0.049122162 -0.0908631 -0.030313512 -0.16256791
0.07822749 0.088709064 0.02139073 -0.12447109 -0.24683326 0.06047469 -0.020065077 -0.0069260453
0.07614386 -0.124720305 0.022566756 -0.044159383 0.043687854 0.04024391 0.04853279 0.011758439
-0.0064107087 -0.011515737 0.08225243 0.094691545 -0.0011540813 0.035283737 0.07325674 0.07454495
0.059885804 -0.066679545 -0.1674506 -0.089300066 -0.07732354 0.051140793 -0.12955837 -0.23347162
0.051273733 0.08047542 -0.04012371 -0.28472465 -0.18821985 0.09877602 0.10596274 0.015568862
-0.1932482 -0.11273184 0.011786889 0.119108535 0.008230367 -0.17901184 -0.06570178 0.006128497
0.01575535 0.01179303 0.0015371412 -0.045175176 -0.005575956 -0.0898216 -0.2644094 -0.1349739
-0.28664735 -0.17201889 -0.13672447 -0.029109346 -0.19974092 -0.37117052 -0.12702082 0.021286039
0.006135137 -0.15182501 -0.14239538 0.012227793 0.07073871 0.09458247 -0.057329886 0.037141543
0.08427922 0.082628325 0.040037006 -0.07515357 0.0774614 0.112392105 0.041693505 -0.13811934
-0.0044199238 -0.08732877 -0.08909056 -0.0076471525 -0.007998395 -0.2084425 -0.23318724 0.04713166
0.17187275 0.16049601 -0.10981948 0.028924705 0.055806447 0.16249825 0.16501842 -0.11182006
0.05989961 0.13631755 0.2060293 0.21020335 -0.08679423 0.0030306971 0.17831904 0.106575325
-0.005462784 -0.0039043494 -0.11827948 -0.07166892 -0.14042795 -0.18950656 -0.042585775 0.013933058
0.03772313 0.029833646 -0.05147504 0.068260156 -0.021109741 0.018810414 0.030846177 0.060205005
0.0665954 -0.10212972 -0.050667748 -0.05484935 0.043356396 0.011651379 0.012593548 0.020832798
-0.09717314 0.06679717 0.029751744 -0.1842541 0.00044730777 -0.047742557 -0.09015174 0.2923582

conv2.bias f4 [20]
00000000: e6e4 20bd dff6 17bd 7a26 4fbd 3e3a 26bd
00000010: 1f52 39bd 0740 1dbc 8471 9ebc c88f 0e3d
00000020: 6e1c 1a3d 156c 0a3d 415b 363d 012a 72bc
00000030: fda6 ae3d 3220 dabc ede5 54bc ecae 68bc
00000040: 04d7 afbd 6751 3bbc bb73 5abd d7ae 543d
-0.039280795 -0.03710067 -0.050573803 -0.040582888 -0.045244332 -0.009597785 -0.019341238 0.03480509
0.03762477 0.03379448 0.04452062 -0.014780522 0.08527944 -0.02662668 -0.012994272 -0.014201861
-0.08585933 -0.011432982 -0.053333025 0.051924553

fc1.weight f4 [50, 320]
00000000: 1af9 84bd 0b7f ebbc 4b59 00be 3cbf 13be
00000010: 0cc4 c33d 24c4 973c dc95 9bbe 6b2d 3ebe
00000020: 1972 4b3d c363 b23d 25c2 c9bd 7c42 da3d
00000030: 8797 c7bd 6c15 2a3d ee91 b33d fa29 1c3e
00000040: 87aa fb3c 6f4f 16bd 3852 0fbb b40d 163b
00000050: 54aa 3e3d 32e9 533c 5dc6 17bd 9bb9 79be
00000060: 6b73 1ebe 4ee4 7b3d 3e25 9c3d 449d 9dbd
00000070: d73b e0bc b12a 493d 094e 8b3d 404d 19bc
00000080: 3c6a 92bd d31f 33bd 87db 883c 0346 5fbe
00000090: 73c1 d2bd f23c 30bb 9d6c 183d bdac f6bd
000000a0: a6cb a63d 78ac 783c 2d57 cfbd 98e1 a73b
000000b0: 1f50 edbb 9647 8d3d d4b2 943d 8836 9d3d
000000c0: fec7 333e d98e 103d f2f7 9abd c3c2 31be
000000d0: 551f dc3c 0967 c5bc d9ca d23b beb5 2e3e
000000e0: ce85 573d 580e 83bc ab74 65be 0ff5 c33d
000000f0: aee8 ca3d c5da f2bc 45b0 59be 3f50 debd
00000100: ea12 e6bd 6243 a7bd 4c40 0d3d c1bb 1cbc
00000110: a857 b2bc a651 a9bc be6d 21bd 52cd bbbc
00000120: d000 853b e83b ea3b 59ae 2f3d 1999 0fbe
00000130: 8e59 073c ecc9 463d 8bbf bbbb eb31 e13d
00000140: 5310 443d 9927 853d 1f6b f13c aa67 59be
00000150: 5d09 13be e6c6 5f3d 8d3c 8c3d d21b 4e3d
00000160: b3da 8c3c 1d2f 243e 8c8d 8c3b f4b7 8cbd
00000170: c6f1 a83d e1da 83bc 3b95 c2bd a854 06bd
00000180: 32ea 71bd 4974 39bd 5f6f 4dbe ab2b 31be
00000190: 99f4 46bc 925b 29bc a7af 6abc 1999 d33c
000001a0: 9d31 01bd de2c be3d 5228 993d d1f9 b43c
000001b0: 6e9d 86bb c851 253d 097e 09bd 0c18 5ebd
000001c0: a0db a1bd 664f 623c 32f7 a1b9 26bc cebd
000001d0: 686a bcbc a806 08bd 7a59 26be fc61 c4bd
000001e0: d1c8 233e c2fa ec3d 5cd1 f93b 2885 06be
000001f0: 381b 3dbd ad8a ae3d 0f48 093e 7c61 c1bd
00000200: 3813 f4bd f5e2 383b 87f7 50bc 5802 3fbe
00000210: 5e46 c13d 28f6 84bd 90a3 82bd c6e2 65bb
00000220: da49 f93d 2cc0 edbd 53c9 d4bd 8fef 293d
00000230: cd2e 233e db41 28bd fbee 96bd 937b dbbd
00000240: 988d 0dbd 360c 113c a7da 5f3d 7a8d 1a3d
00000250: 8a50 363d b19d bd3c a91b 87ba 2278 c33d
00000260: 9680 be3d 8cef 64bd 65e9 38bd baf0 0cbd
00000270: 58ea a23d f7d4 98bd 3f60 28bd b516 4abe
00000280: 403f 99bd 2247 97bb aa10 1c3e 380e 8fbb
00000290: 2832 28bd 5ded 2dbb 138a b83d a0f1 9a3c
000002a0: 9e38 763d d45a 0ebd 3b40 b33d 1667 80bd
000002b0: d8c9 edbc c509 3cbe dad1 f2bc 004f 24be
000002c0: b95f 05be 8c31 53be c7cc a6be f32f 5bbe
000002d0: 20d2 9439 509a ba3c c745 90bd 7e20 053d
000002e0: 6af1 253d c528 1d3d add0 19bd 8fac 8e3d
000002f0: d998 6bbd 326c c63d a00e ac3d d2b8 e4ba
00000300: 42c5 0cbe 706a 2ebc 8404 073d 4571 d33d
00000310: 7eed 813c e954 debd 455b 40bd dceb 313e
00000320: cdd7 813d 0c49 68be b029 b0bd 566b 3fbd
00000330: a6da 143e bb13 1dbe 9652 02be 60cc 8abd
00000340: 770b 313d dd0e 12bc 50db 1abe c072 37be
00000350: 62ca 0dba 19a0 ed3d 9ddf 283d fa53 183c
00000360: a191 bdbc 5a38 cebd 8a0d afbc 0616 133e
00000370: 2eab 17bd 27c5 80bd 30e1 0dbd c10e e03d
00000380: 64c7 08be 9d8a 00be 936c 32be 5fcd 90be
00000390: 06a2 3e3d bfaa 443d 58e0 36be bb86 f4bd
000003a0: f9fa 5ebc ea88 9d3d 9f10 ea3d 1038 e03d
000003b0: 59bd 8f3d 2a50 61bd d1e5 b73d ed54 ef3d
000003c0: 9a68 dbbc ebbe 0b3b 151c 74bd f4a3 ad3c
000003d0: c116 873d eb46 fabc afd2 9a3d 71a3 183e
000003e0: 6d64 f13c f953 2fbe 87a1 633c 6413 203e
000003f0: a4ee 4ebe c2c8 bcbc b88e 35bd f1f1 1fbd
-0.06492825 -0.028747102 -0.12534063 -0.14428419 0.09558877 0.018526144 -0.3038777 -0.18572013
0.04966936 0.08710434 -0.09851483 0.10657212 -0.097456984 0.041524336 0.08768068 0.15250388
0.030720962 -0.036696848 -0.0021869075 0.0022896351 0.046549156 0.012934016 -0.03705441 -0.24387209
-0.15473716 0.061497025 0.07624291 -0.07696012 -0.027372284 0.04911298 0.068019934 -0.009356797
-0.07149169 -0.04373152 0.016706241 -0.21804051 -0.10290804 -0.0026891795 0.037212957 -0.12044666
0.081443116 0.0151778385 -0.10124049 0.0051233284 -0.007242217 0.068984196 0.07260671 0.07676417
0.1755676 0.03529248 -0.07566823 -0.17359452 0.026870409 -0.024096983 0.0064328727 0.17061517
0.05261784 -0.01599805 -0.22407787 0.095682256 0.099076614 -0.029645333 -0.21258648 -0.108551495
-0.11234076 -0.08167149 0.034485146 -0.009566248 -0.021770313 -0.020668816 -0.0394113 -0.022925053
0.0040589347 0.0071482547 0.04289088 -0.14023246 0.008261098 0.04853241 -0.005729621 0.10995849
0.04786713 0.06501693 0.029470025 -0.21230951 -0.1435904 0.054633044 0.06847487 0.0503195
0.017194128 0.16033597 0.0042893346 -0.06871024 0.082492396 -0.01609558 -0.0950112 -0.03279558
-0.059061237 -0.045276914 -0.20062016 -0.17301814 -0.012143278 -0.0103367735 -0.014324105 0.025829839
-0.031541456 0.092859015 0.074783936 0.022091778 -0.0041081225 0.040361196 -0.033567462 -0.05422215
-0.07903218 0.013812875 -0.00030892488 -0.1009448 -0.022999957 -0.033209473 -0.1624507 -0.095890015
0.15994574 0.11571266 0.0076238345 -0.13136733 -0.046168536 0.08522544 0.13406394 -0.09442422
-0.11917728 0.0028211449 -0.012754328 -0.18653238 0.094372496 -0.06492263 -0.06378853 -0.0035077794
0.12172289 -0.116089195 -0.10389962 0.041488227 0.15935822 -0.04107843 -0.07369801 -0.10716929
-0.034558862 0.008853009 0.054651882 0.03773258 0.0445104 0.023146482 -0.0010307926 0.09544398
0.093018696 -0.055892512 -0.045144457 -0.034409262 0.07954854 -0.07462495 -0.041107412 -0.19735225
-0.07482767 -0.004616634 0.15240732 -0.0043657087 -0.041063458 -0.0026539185 0.090107106 0.018914044
0.060112588 -0.03475459 0.08752485 -0.06269662 -0.02902691 -0.18363102 -0.02964108 -0.16045761
-0.13024797 -0.2062437 -0.32578108 -0.2140501 0.00028385315 0.02277866 -0.07044559 0.03250169
0.040513434 0.03836896 -0.037552524 0.06966507 -0.057518814 0.09688605 0.08401227 -0.00174501
-0.13747123 -0.010645494 0.03296329 0.10324339 0.015860315 -0.10856039 -0.04696204 0.1737513
0.06339989 -0.22684115 -0.08601701 -0.046733223 0.14536533 -0.15339558 -0.12726817 -0.06777263
0.043223824 -0.0089146765 -0.15122724 -0.17914867 -0.00054088805 0.11602802 0.04122888 0.009297365
-0.02314073 -0.10069342 -0.02136876 0.1436387 -0.037028484 -0.06287604 -0.034638584 0.10940314
-0.13357311 -0.12552877 -0.1742423 -0.28281686 0.046541236 0.0480144 -0.17859018 -0.1193976
-0.013609641 0.0769213 0.114289515 0.10948193 0.07018537 -0.05500809 0.08979381 0.1168612
-0.026783276 0.0021323513 -0.059597094 0.021196343 0.06596137 -0.030551394 0.07559716 0.14906098
0.029466832 -0.17121877 0.013893492 0.15632397 -0.20208222 -0.023044948 -0.04432556 -0.039049093

fc1.bias f4 [50]
00000000: 9c57 0c3b 9acd 443e 54bc 2a3e 60a8 e5bb
00000010: 02e6 673e cdd8 a1bc 7ab2 6f3e 4a59 8e3d
00000020: 2c82 27bd bdbc cc3c 05ed 173e 26f2 293e
00000030: 6d31 28bc cdd2 a83e df43 193e bdd2 743e
00000040: 450d c63e def4 753d 5696 0a3e ddd4 493d
00000050: 4da6 8f3e 7421 303e 9cd3 f13d e272 793e
00000060: 5669 3f3e 4177 a13d edd3 f63d e503 083d
00000070: 68ae d7bd 3a8f a23c 44e7 123e fa2c c73d
00000080: 8c2d 133e 6a25 a33b 742a 343e 62e0 473d
00000090: d97c 443e b2f8 b5bd f012 993d cf38 783e
000000a0: 8d56 823e 1bf6 883e d15c 523e 3bf8 ab3e
000000b0: de9d 233e 4a55 783e 0972 2f3e af01 2c3e
000000c0: a006 3f3e 3d66 c23e
0.0021414524 0.19219056 0.16673404 -0.0070085973 0.22646335 -0.019756699 0.23407927 0.06950624
-0.040895626 0.024992341 0.1483651 0.16596279 -0.01026569 0.32973328 0.14967297 0.23908515
0.38682 0.060047977 0.13533911 0.049275268 0.28056565 0.17200261 0.118079394 0.2436023
0.18692526 0.07884074 0.120521404 0.03320684 -0.10531312 0.019843686 0.14346033 0.097253755
0.14372844 0.0049788253 0.1759432 0.048797973 0.1918825 -0.088853255 0.07474315 0.24240421
0.25456658 0.26750264 0.20543219 0.33587822 0.1597819 0.24251285 0.17133345 0.16797517
0.18654871 0.37968627

fc2.weight f4 [10, 50]
00000000: 65d7 243e 57c2 353e 9443 52be 185d 33be
00000010: b991 50bd 890e e23d b8e3 54be 4196 8bbe
00000020: 1fa8 9ebd 200a 873d b0bf 54be 8aae 8fbe
00000030: a5d9 87be 0a63 7fbe ca4d ec3d a083 bdbe
00000040: 06f2 a5be 70b2 c9be 0c13 123e 27f3 3c3e
00000050: 815b c9be fdbf 1f3d a13b bf3d 7080 ef3c
00000060: d022 02be a995 0e3d 6cba 86be 6bb1 b0bd
00000070: 71f8 4cbe dae3 2c3d d481 193e b714 3c3e
00000080: 7623 153e 41d4 bcbe 9cca 3dbe 99db fc3d
00000090: ede0 e4be 952b 8fbd 54bd f23d cb90 f83d
000000a0: be1f 9fbe 89c2 7ebd b978 bebe 8c20 6ebe
000000b0: 77af eb3d a4fb cb3d 717a c8be 5b07 adbe
000000c0: 8057 0f3e ecb1 0fbc 0f73 08be 74dd 4cbd
000000d0: 6ede df3d 5cc7 83be 0b59 f63d 8aaa a5be
000000e0: fdd9 f73d a57a 02be fcaf 59be 1a08 8fbe
000000f0: fe32 82be e083 113d eceb 7cbe a0ed 853e
00000100: 14eb e8be defb bc3d 74d6 dc3d bdd8 8abe
00000110: 0af0 7bbe 732a 7cbe f846 fb3d 28eb 293d
00000120: 4f53 23bd e984 c83d 8f25 e63d 4191 9bbe
00000130: ff57 39be abda a5be 0bc1 1dbe e620 c3be
00000140: 883e 043e ece4 92be 5c66 92bd 2291 a9be
00000150: f208 203e 1ab7 44be dae2 993d cd6d cabe
00000160: 7046 babe 9d2d c83d d490 e53d 4f10 e23d
00000170: 899f eb3d 60c7 e83d ff72 983d 3d6e ff3d
00000180: d422 e93d 1aec 853d ae85 09be ffe8 513e
00000190: 24e0 0b3e a69d 583e a4e1 09be f70f b1bd
000001a0: b4a6 99bd 73ac 883d 6893 cd3d a114 0c3e
000001b0: 07d1 d73d 8786 013d 2921 19be c9e3 fe3d
000001c0: 3c71 c3bd 6050 afbd 6cff 4dbe 9523 67be
000001d0: 1d78 1bbe 1431 07be 26ee 14be 12cb 8ebd
000001e0: aaea 46be 7d6e d23d 39d2 3ebe 5467 0e3e
000001f0: c462 0e3d c16c 573d f92f 30bd f00a 85be
00000200: 4abd c53d cb7a 91bd 2b24 d43d 3023 75bd
00000210: d02c 1f3e f46f cbbd 0abd 663e 507c 163b
00000220: 158a f0bd 1060 b03d 4593 9fba 9aef 58be
00000230: fbb9 f03d 7010 373e 7691 94be 1746 133e
00000240: 9e5e 033e e732 f13d b1f2 9bbe b46f c9bd
00000250: 109d 51be cf95 20be c760 67bd 6d84 cfbd
00000260: d6c9 34be ce52 d83d 00b9 87be d06c 5cbe
00000270: ac38 44be da08 2f3e 2697 ac3d 859c 6a3d
00000280: 5937 cbbd 4c01 c73d 2ded 1d3e d4ff d6be
00000290: 63be 5c3d f11b a93d 44a4 8abe 3aa7 fe3d
000002a0: bcbe 3ebe dcae 26be c93e 4fbe 9e96 9f3d
000002b0: 0793 6abe 50bc 59be 7eb0 0eba 076f 89be
000002c0: 399d 4cbe 847f 01be 35ed c73d 976c 123e
000002d0: fc60 36be e4e3 30be 76f3 e53d 4f14 c33d
000002e0: 2fb8 2f3d 35a8 db3d 6ecc 113e a09e 9ebd
000002f0: 484a 31be 4eca d9bd fb1d df3d 62e8 14be
00000300: 9235 1dbe 2853 c7bc 7192 fc3d a6d2 bf3d
00000310: 4ed7 073d b2a1 f33d b171 3fbe dbec 21be
00000320: 03c5 0d3e 8fdb 81bd edb4 08be 8e2f 7abe
00000330: d270 143e b6f1 e33d d90a a73c ca8f 1f3e
00000340: cd1f 073e c288 d2be 4f2c e23d 9c92 6bbe
00000350: ec17 953c 73ef 653e e85a 1abe b299 17be
00000360: d022 0f3e 90bf 073e 90b6 4fbe b17b 20be
00000370: b2ad bb3d bb90 66be 7a68 8cbe 7564 d13d
00000380: a3b6 093e 8033 4e3e 4c5f 173e 78e4 da3d
00000390: d6be 00bd bf6f 2abe 6802 f83d 8e62 f5bd
000003a0: 2ad1 36bb 4203 c23d d6f7 d3bd 684e 42be
000003b0: e906 073e 5ba6 e93c 72b5 5fbe 261b 0ebe
000003c0: 3fec 0ebe ef19 88bd 5137 ac3d cde4 15be
000003d0: 2bb1 13be 36d6 76be df67 cf3d b2a1 fdbd
000003e0: ce63 8d3d 3163 dcbd 7b7f 8cbe a452 22be
000003f0: 2794 99be 83ee c43d 712d bc3d 43f8 73be
0.16097791 0.17749916 -0.20533592 -0.17515981 -0.050920222 0.110379286 -0.20789993 -0.27263072
-0.0774691 0.06593728 -0.20776248 -0.2806285 -0.26533237 -0.24940124 0.115382746 -0.37014484
-0.32411212 -0.3939395 0.14265078 0.1845213 -0.39327624 0.039001454 0.09337545 0.029236048
-0.12708592 0.034810696 -0.26314104 -0.0862759 -0.20016648 0.042209484 0.14990932 0.18367277
0.14564309 -0.36880687 -0.1853432 0.123465724 -0.44702855 -0.069907345 0.11852518 0.12136992
-0.31078905 -0.062197242 -0.3720148 -0.23254603 0.11508077 0.09960106 -0.39155915 -0.33794674
0.13998222 -0.008770447 -0.13325141 -0.05001588 0.10931097 -0.25738037 0.12028702 -0.32356673
0.12102125 -0.12742098 -0.21258539 -0.27935869 -0.2542953 0.035526156 -0.24699372 0.26157856
-0.4549185 0.09227727 0.10783091 -0.27118483 -0.24603286 -0.24625568 0.122693956 0.041484028
-0.03987437 0.097909756 0.112376325 -0.30384257 -0.18099974 -0.32393393 -0.15405671 -0.38111037
0.12914479 -0.2869028 -0.0714843 -0.3311854 0.15628412 -0.19210473 0.075139716 -0.39536896
-0.36381865 0.09774325 0.112092644 0.11038267 0.11505038 0.11366153 0.07443809 0.12472198
0.11383596 0.065391734 -0.13429901 0.20499037 0.13659722 0.21153888 -0.13464981 -0.08645623
-0.07502499 0.06673517 0.10037881 0.13679744 0.10537916 0.031622436 -0.14954056 0.1244579
-0.09543082 -0.08560252 -0.20116967 -0.22572167 -0.15182538 -0.13202316 -0.14543971 -0.06972326
-0.19425455 0.1027498 -0.18634881 0.13906604 0.03476216 0.05259395 -0.0430145 -0.25984907
0.09655245 -0.07103499 0.10358461 -0.05984801 0.15544438 -0.09933463 0.2253305 0.002296228
-0.11745087 0.086120725 -0.0012174627 -0.2118515 0.11754223 0.17877364 -0.29017228 0.14382206
0.12829062 0.11777287 -0.30458596 -0.09835759 -0.20470071 -0.15682147 -0.05648878 -0.1013268
-0.1765512 0.10562669 -0.2650833 -0.21525884 -0.19162244 0.1709322 0.08427267 0.057278175
-0.09922666 0.09717044 0.15422507 -0.41992056 0.053892504 0.082572825 -0.2707845 0.1243424
-0.18627447 -0.16277641 -0.20238794 0.077924 -0.22907649 -0.21263242 -0.00054431695 -0.2684252
-0.1998185 -0.126463 0.097620405 0.14299236 -0.17810434 -0.17274433 0.11228077 0.09525358
0.04290026 0.10725442 0.1423814 -0.07745099 -0.17313492 -0.1063429 0.1089439 -0.14541772
-0.15352467 -0.024331644 0.12332619 0.0936635 0.033164315 0.11896075 -0.18695714 -0.1581301
0.13844685 -0.063407056 -0.13350268 -0.24432203 0.14496163 0.11130087 0.020390915 0.15582195
0.13195725 -0.41119963 0.110436074 -0.23005146 0.018199883 0.22454624 -0.1507374 -0.14804724
0.13978124 0.13256669 -0.20284486 -0.15672185 0.09163989 -0.22516148 -0.2742346 0.10224239
0.13448577 0.20136833 0.14782447 0.10688108 -0.031431995 -0.1664419 0.12109834 -0.119816884
-0.0027895668 0.09473278 -0.10350005 -0.18975222 0.1318623 0.028521707 -0.2184656 -0.13877544
-0.13957308 -0.066455714 0.08408988 -0.14638062 -0.14423053 -0.24105152 0.10127234 -0.123843566
0.06903802 -0.10761107 -0.2744101 -0.15851837 -0.29995844 0.09615805 0.09188355 -0.23825173

fc2.bias f4 [10]
00000000: fd63 673e 2e96 fa3e d25d 78be c8e3 943d
00000010: 8ef7 0dbe d325 a43d bce7 ec3d aa29 fabd
00000020: 344d ddbd db14 49be
0.22596736 0.48942703 -0.2425454 0.07270008 -0.13863966 0.08015027 0.11567637 -0.12214978
-0.10805741 -0.19636862

exp_avg f4 [10, 1, 5, 5]
00000000: 08d6 723c ba76 a83c 1361 533c 2c16 123c
00000010: 2863 ae3b 4ab7 1e3c eccc 6e3c 772a 643c
00000020: e2b8 523c a8ad 943b 4eb1 c93b 2321 423c
00000030: 1c77 4a3c dfdb 503c 9c9a dd3b deeb af3a
00000040: 4986 4b3c 2e30 513c 58ca 393c 5b01 fb39
00000050: 2dc2 f7b7 2b0e ea3b 2884 3b3c 70e3 f83b
00000060: c39d 303a e8cf 07bc ed81 53bc fd07 24bc
00000070: 3428 7dbb 5391 10b8 b4b3 19bc bae1 31bc
00000080: 81b0 03bb 762c b4b8 89b5 c238 182d 17bc
00000090: a1e2 03bc 51b0 68b8 1b34 073b 67d5 1b3b
000000a0: 289c 12bc b1b1 8dbb f592 e239 6fbe 933b
000000b0: 36d4 443b 1c08 01bc 4d3f e039 c35b 853b
000000c0: 7ac9 a13b 05e4 5c3a dfb6 193c 5beb 0f3c
000000d0: 8eeb 153c 7d1c 383c 48ec 113c 31a7 713c
000000e0: 72f6 553c f3ca 743c 4296 373c fde4 9d3b
000000f0: e5c5 893c e433 613c 2fcb 753c e560 5c3c
00000100: a301 f33b ae15 833c 6c70 d53b 67dd 183c
00000110: 5062 423c 1d5e 253c 795d bc3b e6f5 c53a
00000120: 683f 223c 192f 6b3c 5814 043c 88e8 af3c
00000130: b55e 963c bcd3 163c 554e 883a e294 f038
00000140: f270 9c3c 295e 223c 8155 1b3b 70e9 b7bb
00000150: 9001 49bb 2870 2f3c 1bd9 793a 0bd1 a3bb
00000160: 16f0 0bbc 0951 f9bb 73d8 953b 13cb 0abc
00000170: df7f 62bc e39a 61bc 32c4 32bc b797 a83b
00000180: 881f c3bb fad1 3fbc a1e9 3fbc 230a 4fbc
00000190: 6d67 3fbb a3f6 febb 2601 75bc 96e5 32bc
000001a0: 5b88 40bb b68f 8dba 2e7f 01bc 6cff 26bc
000001b0: d58b e2bb 0cb4 21bb 7845 973a f9ce 8fbb
000001c0: e46b f4bb 3c48 91bb 3970 9cb9 2436 493b
000001d0: d07a 3ebb f024 9bbb 6111 85ba b8f9 573b
000001e0: 335c 84b9 a8db 5ebb 7c5e a1bb 7ce9 c7ba
000001f0: b172 223a 8192 763c c975 993c 05c0 9e3c
00000200: e4e3 403c af18 fc3b b79b 5e3c b68a 8b3c
00000210: eeb0 2f3c 95e4 ad3b ac4b a23b 7970 2b3c
00000220: aff3 203c 0d69 073c 23e7 d73b d8f5 213b
00000230: 3037 cd3b dbc7 383b 9fc8 7b3b 99f7 533b
00000240: e5d8 a23a 7ff3 603a 71fa 2cba 8498 aa3b
00000250: e813 8f3b acba 993a 5070 95bb 5340 79bb
00000260: 681c 9e3a d370 2c3c 8d87 b93c ba19 d3ba
00000270: c941 c43b 6ef4 163c 717a 803c 4fc4 b33c
00000280: 07a7 733a fd04 da3b 7265 123c 9ba8 1a3c
00000290: d0e2 4d3c 778a c53a ad1b 3e3b cefb f53b
000002a0: 9d5e 103c f3b5 a73b 9b42 26bb e629 103b
000002b0: a0b7 033c 6a1d 273c e0ee 293a 0c08 4dbc
000002c0: b935 bebb 2db4 393c 00c6 8f3c 8317 7f3c
000002d0: 3c49 33bc ed89 5a3a b118 443c a9c1 813c
000002e0: 5ce2 533c d9d6 04bc 924a 9639 7665 833b
000002f0: 59d4 073c 0c68 f93b 1b01 c4bb 982a 9dbb
00000300: 012b 4cba 4025 36ba 8b7a efba 63d9 0cbc
00000310: ca23 c2bb 9fbd 71bb fb80 5fbb cd0b ecbb
00000320: 56da 913b 5d1d f33c c650 413d 7242 553d
00000330: 2f1d 803d ab0e 673c 627c 253d 0a86 643d
00000340: 5b41 7c3d c2ac 843d af7c b63c 5337 303d
00000350: 3d01 653d eb53 573d f0c6 4d3d d797 043d
00000360: eb53 2e3d 6001 2d3d 1928 103d 8928 163d
00000370: 2fc1 0e3d c42e 243d e62a 0f3d 1ed5 063d
00000380: 6aa4 213d 9012 1fbc 2b1d fcbb bba3 00bc
00000390: c745 04bc 09a9 2dbc b5f5 19bc 0abc f6bb
000003a0: 2c21 01bc 8e38 11bc 77ae 40bc dbf8 6cbb
000003b0: 799a 00bc f772 ddbb fbcd 7bbb 0674 f4bb
000003c0: ccdc 5c3b 5bf8 d2b8 ec7f a03a 3700 813b
000003d0: 8052 53b9 831f b93b 2645 6d3b 533f 393b
000003e0: 225a 883b 003a 5f38
0.014821537 0.020564426 0.012901562 0.008916419 0.005321879 0.009687254 0.014575224 0.01392614
0.012861462 0.004537303 0.0061551696 0.011848721 0.012357499 0.012747734 0.0067628156 0.0013421734
0.012422153 0.012767835 0.011339746 0.0004787546 -2.9535115e-05 0.0071428022 0.011445083 0.007595472
0.00067373755 -0.008289315 -0.012909395 -0.01001167 -0.00386287 -3.446762e-05 -0.0093812235 -0.01085704
-0.0020094218 -8.59135e-05 9.2844544e-05 -0.00922706 -0.008049638 -5.5477318e-05 0.0020630423 0.002377832
-0.008948363 -0.004324161 0.0004321557 0.0045087854 0.0030033714 -0.007875469 0.00042771772 0.0040697767
0.004937348 0.00084263115 0.009381979 0.00878414 0.009150399 0.011237261 0.0089064315 0.014749334
0.013059245 0.014940965 0.011205258 0.0048185573 0.016817996 0.013745282 0.015002056 0.013450836
0.0074159666 0.016001549 0.006513646 0.00933013 0.01186426 0.010093239 0.0057484475 0.0015103191
0.009902813 0.014354491 0.008061491 0.021473184 0.018355707 0.009205755 0.0010399321 0.000114718234
0.019096825 0.009910145 0.0023702087 -0.0056125447 -0.0030671097 0.0107078925 0.00095309474 -0.004999285
-0.008541128 -0.007608537 0.004572922 -0.008471268 -0.013824432 -0.013769838 -0.010911034 0.005145039
-0.0059546866 -0.011707777 -0.011713416 -0.012636694 -0.0029205934 -0.007780866 -0.014953887 -0.010918995
-0.002937815 -0.0010800275 -0.007903857 -0.010192733 -0.006913642 -0.0024673967 0.0011541089 -0.0043886867
-0.0074591506 -0.00443366 -0.0002983825 0.0030702436 -0.0029064901 -0.004734628 -0.0010152274 0.003295524
-0.00025245696 -0.0034005437 -0.0049245935 -0.0015252079 0.00061969 0.015049578 0.018732922 0.019378671
0.011773083 0.007693372 0.01358693 0.017033916 0.010723336 0.00530679 0.0049528684 0.010463827
0.009823724 0.008264792 0.006588833 0.0024713185 0.0062626824 0.0028195295 0.003841914 0.0032343625
0.0012424259 0.00085812056 -0.0006598598 0.0052061696 0.0043663867 0.0011728606 -0.004560508 -0.0038032725
0.0012062909 0.010524946 0.022647643 -0.001610569 0.0059892875 0.00921355 0.015683385 0.021944193
0.00092946034 0.0066534267 0.008935319 0.009439613 0.012566283 0.0015071173 0.0029008195 0.007506824
0.00881162 0.0051181256 -0.002536929 0.002199763 0.008039385 0.010199884 0.00064824335 -0.012514126
-0.005804744 0.011334461 0.017550468 0.0155695705 -0.010942753 0.00083365926 0.0119687775 0.015839415
0.012932386 -0.008107864 0.0002866579 0.004009898 0.008290374 0.0076112803 -0.005981577 -0.0047963373
-0.00077883905 -0.00069482997 -0.0018270774 -0.008596751 -0.0059246765 -0.0036886705 -0.0034103978 -0.007203555
0.0044510765 0.029677087 0.047196172 0.05206532 0.06255566 0.014102618 0.040401824 0.055791892
0.061585765 0.064782634 0.02227625 0.04302151 0.055909384 0.052570265 0.05023855 0.03237137
0.0425605 0.04223764 0.03519449 0.03665975 0.034852203 0.04008366 0.03495302 0.03291809
0.039463438 -0.0097090155 -0.007693907 -0.007851536 -0.008073277 -0.010599383 -0.00939696 -0.00752974
-0.007881444 -0.008863581 -0.011760346 -0.0036159072 -0.007849329 -0.0067580896 -0.0038422334 -0.00746012
0.003370094 -0.0001005984 0.0012245155 0.003936793 -0.00020153262 0.0056495084 0.0036204546 0.0028266504
0.0041611353 5.322136e-05

exp_avg_sq f4 [10, 1, 5, 5]
00000000: aa51 843a 703e 5d3a 59c1 4f3a 8334 493a
00000010: 836a 4c3a 8932 703a 86c4 413a 02ae 243a
00000020: 5ea2 073a b933 353a f6bd 553a 0931 233a
00000030: 6ccf 033a d5a9 203a 6df7 4c3a 553c 363a
00000040: 2b71 153a b19d 1a3a 5354 343a 2893 4a3a
00000050: 5de0 313a fefd 113a 1095 0a3a c0a7 0e3a
00000060: 457e 323a 716f 283a c0b5 313a 8c02 203a
00000070: 8594 463a acbc 6a3a 82da 473a 9239 2e3a
00000080: 7747 1f3a 33ac 5d3a e22a 763a 42f1 4c3a
00000090: 26ca 0d3a 8561 3f3a 650b 6c3a e838 7c3a
000000a0: ebd1 403a eeb3 283a af7a 573a e9d0 7b3a
000000b0: 3455 833a 4ea0 543a ec2a 4f3a b29e 6b3a
000000c0: defa 813a 926b 853a 9da7 793a 00ab 903a
000000d0: d6e7 a23a 30fc 963a ff6f 8a3a f188 8d3a
000000e0: a275 a93a f387 983a e5ff 803a 89fe 773a
000000f0: 6d64 9e3a 1e0c 963a 6759 623a f7e9 633a
00000100: 45e3 5e3a 37e5 963a d4e8 7a3a 69f3 623a
00000110: e5dd 5f3a ca32 5b3a 3e0d 953a bd3e 793a
00000120: 915b 5e3a e236 703a 5e42 873a c621 d73a
00000130: 2c24 c73a c4cd a53a 5bc2 9c3a 9ebc ad3a
00000140: 55ae c23a f4de 9c3a 4330 843a 874e 843a
00000150: 6ef0 963a 2b93 a93a 74a1 823a 009c 6c3a
00000160: 1656 783a 6d36 9a3a d69d 9b3a df30 7d3a
00000170: f6dc 733a 0124 893a 2640 b83a 9e7c a33a
00000180: 696b 8e3a 9f2f 913a 7571 ac3a f5bb e33a
00000190: c9b8 733a 9681 763a 4cd1 773a c8d0 8d3a
000001a0: 0543 b83a 67de 483a f215 4c3a f982 2f3a
000001b0: 0bc6 813a 0766 b93a ced1 323a 3454 493a
000001c0: de17 353a 2c2d 7d3a 7812 b93a 9b09 383a
000001d0: dace 5d3a 3af1 683a 3c93 973a 3c08 c83a
000001e0: 0221 4f3a 6707 6f3a 132a 8b3a 67a1 ad3a
000001f0: f24a d93a 6e3c ac3a 5adb 853a f2fc 5c3a
00000200: a631 6d3a 0c6e 7d3a cb7e 933a 5805 5d3a
00000210: d36e 453a 1851 643a c32a 7c3a ecc6 7a3a
00000220: 8b6f 383a 8d38 2b3a be49 473a 9a8f 6a3a
00000230: b64b 5a3a 33aa 2c3a 964d 213a 7713 3f3a
00000240: 7e6b 6f3a c173 3a3a 4df1 213a f3c6 253a
00000250: 276b 403a d87c 6c3a 1e6e 633a bda7 6d3a
00000260: f492 783a 4bfc 6f3a 8fcc 653a 3376 813a
00000270: bbd5 8a3a 4ae8 843a dc9e 5d3a 9cc0 513a
00000280: d9e8 883a ecca 833a 53ce 623a eb7e 3a3a
00000290: 3e5a 473a f7af 7c3a 77da 5e3a 5931 463a
000002a0: 0aa5 393a dc62 563a 78ff 6c3a 738c 563a
000002b0: 5929 483a ac4e 5a3a fc02 6c3a bc15 3c3a
000002c0: 6df7 273a 4478 223a cc56 3b3a f980 433a
000002d0: c5b8 463a dbca 313a 9c56 243a 4015 3a3a
000002e0: 7221 4a3a 4df6 453a 5c77 2f3a 3d25 1f3a
000002f0: b7ed 223a cb67 4b3a 22c6 353a a11b 353a
00000300: 2523 2e3a 5984 343a fc2a 5d3a 3817 363a
00000310: 1e67 3d3a fc5e 493a c8e8 593a 1bfb 693a
00000320: cd08 8c3b 94de 813b 7b25 793b 2523 703b
00000330: 3230 773b c6a9 873b 4006 8f3b a7a0 953b
00000340: 291b 903b e167 8b3b 61d3 813b ca6c 853b
00000350: 5b3d 8d3b 6d59 8b3b 349c 833b 6dce 5d3b
00000360: 00d9 5c3b c016 5e3b 7c25 683b f353 6e3b
00000370: 9aaf 4c3b 0d51 493b a359 4f3b 4bb4 5e3b
00000380: 5942 653b 8ed5 303a 05f7 2b3a 89d4 1a3a
00000390: 0611 373a a72f 463a aaca 1e3a 36ff 093a
000003a0: 4ab4 163a 0389 3b3a f30a 473a 048e 053a
000003b0: 2ec0 f039 8b06 303a d844 583a 3ee6 5d3a
000003c0: ed58 f539 2693 043a f27f 523a 19bb 873a
000003d0: 592e 803a bbc5 013a f9e3 223a c60b 7a3a
000003e0: dc23 903a a417 6d3a
0.0010095139 0.0008439785 0.00079252344 0.00076753664 0.0007797854 0.0009162804 0.000739165 0.00062820327
0.0005174036 0.00069123093 0.00081536116 0.00062252634 0.00050281617 0.00061288226 0.0007818852 0.0006951739
0.0005700762 0.00058981316 0.00068790204 0.00077276165 0.0006785447 0.0005569159 0.0005286494 0.0005441867
0.0006808977 0.00064252975 0.0006779097 0.0006103895 0.0007575232 0.0008954506 0.0007623808 0.0006646152
0.0006076018 0.00084561406 0.00093905453 0.00078179326 0.00054088456 0.00073006033 0.00090043835 0.0009621517
0.0007355499 0.0006435503 0.00082198804 0.000960602 0.0010019899 0.00081110455 0.0007902819 0.0008988186
0.0009916683 0.0010179153 0.00095235725 0.001103729 0.0012428712 0.001151925 0.0010561942 0.0010798258
0.0012928734 0.0011637196 0.0009841888 0.0009460231 0.0012084373 0.0011447703 0.0008634538 0.0008694226
0.0008502494 0.0011512403 0.0009571437 0.0008657487 0.000853984 0.0008361755 0.0011371744 0.0009507945
0.00084822724 0.00091634516 0.0010319462 0.0016413264 0.0015193275 0.0012649824 0.0011959778 0.0013255065
0.001485298 0.0011968301 0.0010085184 0.0010094204 0.0011515745 0.0012937536 0.000996633 0.00090259314
0.0009473277 0.0011765488 0.00118726 0.00096584664 0.000930264 0.0010463 0.0014057204 0.0012473052
0.0010865751 0.0011076814 0.0013156371 0.0017374741 0.00092972495 0.0009403465 0.000945349 0.0010819668
0.0014058059 0.0007662535 0.00077852525 0.00066952367 0.000990094 0.0014144786 0.00068214245 0.0007680089
0.00069081585 0.0009657915 0.0014119884 0.00070204743 0.0008461304 0.0008886043 0.0011564265 0.0015261243
0.0007901342 0.00091182295 0.0010617397 0.0013246954 0.0016578122 0.0013140568 0.0010212467 0.0008430026
0.0009048231 0.00096675823 0.0011252997 0.0008431277 0.00075314677 0.00087095937 0.0009619409 0.0009566385
0.0007035664 0.0006531559 0.0007602236 0.000894779 0.0008327322 0.0006586641 0.0006153224 0.0007288972
0.0009133144 0.00071125856 0.0006177619 0.0006323896 0.00073401857 0.0009021289 0.00086757715 0.00090658275
0.0009482347 0.0009154721 0.00087661383 0.0009877145 0.0010592261 0.0010140028 0.0008454153 0.00080014183
0.001044537 0.0010054982 0.00086519605 0.0007114249 0.00076046947 0.0009639258 0.0008501182 0.0007560454
0.00070817827 0.00081781833 0.00090407534 0.0008184381 0.0007635556 0.0008327763 0.000900313 0.00071748695
0.0006407414 0.00061977305 0.00071464176 0.0007457878 0.00075806334 0.0006782242 0.00062690093 0.00070985034
0.0007710672 0.0007551655 0.0006693506 0.00060709176 0.0006215232 0.0007759302 0.0006934126 0.0006908719
0.000664281 0.00068861764 0.0008436886 0.0006946209 0.00072251435 0.0007681695 0.000831258 0.0008925662
0.00427351 0.003963301 0.0038016725 0.0036642042 0.0037717936 0.0041401116 0.0043647587 0.0045662704
0.004397769 0.0042543267 0.003961966 0.0040718066 0.0043102927 0.0042526037 0.0040164236 0.0033844963
0.0033698678 0.0033888072 0.0035422733 0.0036365956 0.0031232596 0.0030718476 0.003163912 0.0033981975
0.0034982173 0.00067456893 0.0006559941 0.0005906304 0.00069834327 0.00075602013 0.0006057421 0.00052641646
0.0005748911 0.00071539 0.0007592879 0.00050947093 0.00045919552 0.0006714842 0.00082500046 0.000846479
0.00046796296 0.0005057327 0.00080299296 0.0010355442 0.0009779438 0.00049504236 0.000621378 0.00095384975
0.0010997015 0.0009044355

exp_avg f4 [10]
00000000: 873a bebb 6c7c 09bb d6e4 993a ca32 013c
00000010: e00a 323a 9e41 14bc c26b 263c 87e7 653c
00000020: de44 e8bc 83fb 323c
-0.005805317 -0.0020978702 0.0011741172 0.007885644 0.00067917816 -0.0090488475 0.010157527 0.014032251
-0.028353151 0.010924223

exp_avg_sq f4 [10]
00000000: 5c08 ad3a 6a1e ab3a 2d87 983a 49bc 7d3a
00000010: 0a70 f93a 7daa 9e3a f9ba 563a 6c8a ac3a
00000020: a147 4d3b b46e 263a
0.0013201344 0.0013055329 0.0011636965 0.0009679241 0.0019030583 0.0012105253 0.0008191313 0.0013163812
0.0031323212 0.00063488935

exp_avg f4 [20, 10, 5, 5]
00000000: 274f a5bb bb99 b5bb cdea 8abb b449 9eba
00000010: ea81 193b 151a d3bb 1c2a b8bb 80a0 10ba
00000020: afcb 913b 4502 da3b e2b4 b3bb d990 ddba
00000030: 3af3 383a d4d3 083b 3df6 793b c0ae 9b3a
00000040: d0cd c93a 01bd 663a 0774 233b 55fe 443b
00000050: 4bc7 7cb9 4938 3aba bd56 13b9 1f00 243b
00000060: 61d6 cd3a 1f81 93bb f4ad 8fbb 3538 9ebb
00000070: aeeb 79bc b1c8 4fbc c586 babb 6010 57ba
00000080: a5fd 61bc cd92 a1bc a6f1 2ebc e6a6 89bb
00000090: c2cb aebb c787 a6bc 0381 a1bc 147c f6bb
000000a0: 2c6e b2bb 767f 60bc 6963 b5bc 91b7 62bc
000000b0: a7f1 01bb d962 19bc 4610 a1bc 6e34 9cbc
000000c0: 9aa9 0abc 3f05 2dba abf7 b9bb 5cd4 13bb
000000d0: 80fd 4cbb b2a2 bcbb 576a 5cbb 9fab a2bb
000000e0: 0fb1 93ba 315a b4bb 160a 04bc 6787 94ba
000000f0: 323b 6cbb c478 9cbb 7f5a 11bc 520f 5dbb
00000100: 9410 fd3a af87 d6bb 1a83 34bc d5ac 21bc
00000110: 0aec 7bbb 9cba a33a 62df f3bb b527 53bc
00000120: 7b0f 1ebc 35a6 26bb 7532 273b 47d6 a5bb
00000130: 781a 57ba 7cb0 723b 3e55 a4ba 20ab b2bb
00000140: be2a 2fba ccc4 6e3b 91d9 8a3b ed8a 81bb
00000150: 0110 1abc 7cb4 753b ca82 9c3b 08ae 3cb9
00000160: 79ed 03bc 24b8 34bc 425a 7c3b a75b b63a
00000170: 43f4 36bb 2d14 fabb 7b98 2ebc 7ad7 163b
00000180: 08b4 3339 6f60 f5bb deba 08bc d905 0abc
00000190: 1b89 86bb 0ebb b8bb 575c 96bc fe43 98bc
000001a0: 9035 14bc b8c0 9ebb 896b f3bb 67a0 cebc
000001b0: 045a b1bc 9179 bebb 415e a9ba 6c02 70bc
000001c0: 3f66 d1bc ceb0 a9bc 620e 4cbb 8715 79bb
000001d0: f411 79bc aed3 9abc 6026 52bc a714 27bb
000001e0: fdbb 26bc 8f69 9ebc 00a4 3cbc 9d85 d7bb
000001f0: df34 50bb ee69 12bc d296 cebb 3781 54bb
00000200: 2069 e1b8 ae5d b53b 0f12 2fbc 5a4b 80bb
00000210: 9d89 d5ba 0510 c93a 0418 e43b 5bc8 40bb
00000220: d742 8438 945c 3639 1032 3bba 86fa 3f3b
00000230: 06a3 163b 6039 4a3b f663 923a 33ec c23a
00000240: 4565 d938 1420 efba 212c b2ba d860 e33a
00000250: a859 193b 969e 1bba 2fdc 91bb deb4 4cbb
00000260: b453 cfba 5820 b5ba 60c6 23bb e833 43bb
00000270: dee4 38bb 7873 12bb 0951 d9ba 7317 f1b9
00000280: 8c4a 07bb 70e7 243a a39d 99ba f285 9b3b
00000290: 76ea 593b 2707 aab9 f75d 323b 2487 153b
000002a0: 2403 8c3b 9681 973b 26a8 8f39 b0ee 353b
000002b0: 0fa0 e53a 6d69 973a 3716 783b e93a 1abb
000002c0: 173c 47bb 4961 08bb fac4 3abb 61e3 22bb
000002d0: 7ea5 07bb 1a62 19bb 3d0b bbbb e070 bcbb
000002e0: f2f7 a9ba e916 0fbb 789a 80bb b325 96bb
000002f0: 8fd2 4f3b b5e7 e73b 786c acbb 0188 bebb
00000300: a2a3 8fbb 1c02 5b3b ccd4 033c 45e9 a9bb
00000310: a01b aebb 54c9 c6ba 6c8a 8e3a 35aa 943b
00000320: 82b8 81b9 b37d a2ba 7500 52bb a0a4 b6ba
00000330: ef6c 09bb a442 33b9 f31d 493a 731b 4439
00000340: 7785 c4b9 cb9d 1dba 840c d9ba 0294 93b9
00000350: 8dab 95b9 8ffe c4ba bc5a cd3a 69cd 973a
00000360: a93c 3739 178e 8eba 0ba9 70bb d41c 083b
00000370: 844c 99b6 2131 a53a afc0 aeb9 c4e5 b3ba
00000380: e99c a2ba 6801 11bb 0348 66ba 3e5b c8bb
00000390: 252e bbbb 3b1f 5dbb c39e dcbb c534 bbbb
000003a0: 58ab 0cbc 136a babb 9329 3239 b428 dcbb
000003b0: 2f14 0bbc d0ec 2dbc 298c bfbb 0213 653b
000003c0: 1370 cebb 8f9f c1bb b7d2 eabb 918e 59ba
000003d0: bf28 493a 7c5d a9bb 84c2 eabb 006a 5cbb
000003e0: 4bb9 853a 38b2 4eba 60c5 753a 3381 873a
000003f0: 226e a73a dac4 d03a 3c8f 8f3a 1758 393a
-0.005044836 -0.0055420077 -0.004239416 -0.0012076409 0.0023423382 -0.006442318 -0.005620254 -0.00055170804
0.00444933 0.0066531026 -0.0054842094 -0.001690413 0.00070552866 0.0020878213 0.0038141154 0.0011877641
0.001539642 0.00088019675 0.0024940984 0.003005882 -0.00024106835 -0.0007103724 -0.00014051325 0.0025024486
0.0015704149 -0.0045014764 -0.0043847505 -0.0048284777 -0.015253944 -0.012682126 -0.0056923353 -0.0008204039
-0.013793384 -0.01972332 -0.010677731 -0.004200804 -0.0053343484 -0.020328416 -0.019714838 -0.0075221155
-0.0054452624 -0.013702264 -0.022142129 -0.013837711 -0.0019827874 -0.009361946 -0.01966108 -0.01906797
-0.008463288 -0.0006600208 -0.0056752763 -0.0022556996 -0.0031279027 -0.0057566995 -0.003363272 -0.0049643065
-0.0011267978 -0.0055039157 -0.008059045 -0.0011331857 -0.0036046025 -0.0047751386 -0.008871674 -0.0033731055
0.0019307309 -0.0065469365 -0.011017585 -0.0098678665 -0.003844025 0.0012491527 -0.007442401 -0.012887885
-0.0096472455 -0.0025428657 0.0025512252 -0.0050609442 -0.0008205543 0.0037031462 -0.0012537611 -0.0054525286
-0.00066820893 0.0036433218 0.0042373617 -0.003953329 -0.00940323 0.003749161 0.0047763335 -0.00017993909
-0.008052223 -0.011030231 0.0038505946 0.0013912813 -0.0027916587 -0.0076317997 -0.010656471 0.0023016618
0.00017137837 -0.0074883024 -0.008345334 -0.008424246 -0.0041056997 -0.005637533 -0.018354578 -0.018587109
-0.009045973 -0.004844751 -0.0074285907 -0.02522297 -0.021649368 -0.0058128317 -0.0012921767 -0.014649015
-0.02556145 -0.02071419 -0.0031136503 -0.0038007216 -0.015202034 -0.018899765 -0.012826532 -0.0025494487
-0.010176656 -0.019337444 -0.01151371 -0.0065772072 -0.0031769795 -0.008936388 -0.0063046003 -0.003242565
-0.00010748417 0.005534849 -0.010685458 -0.0039152326 -0.0016291622 0.0015339857 0.0069608707 -0.0029416296
6.3067004e-05 0.0001739136 -0.0007140944 0.002929361 0.0022985353 0.0030856952 0.0011168707 0.0014871418
0.00010366229 -0.0018243813 -0.0013593474 0.0017347587 0.0023399387 -0.0005936412 -0.0044512968 -0.0031235735
-0.0015817792 -0.0013818843 -0.0024990067 -0.0029785577 -0.0028212587 -0.0022346657 -0.0016579936 -0.00045984573
-0.0020643799 0.00062905904 -0.0011719953 0.004746192 0.0033251322 -0.00032430256 0.0027216652 0.0022816146
0.0042728353 0.004623602 0.00027400366 0.0027760677 0.0017519015 0.0011551805 0.0037855038 -0.0023533648
-0.0030400807 -0.002080994 -0.0028498755 -0.0024854767 -0.0020698006 -0.002340442 -0.005708127 -0.0057507604
-0.001296757 -0.0021833724 -0.003924664 -0.004582131 0.0031711196 0.007077182 -0.005261954 -0.005814553
-0.00438352 0.0033418005 0.00804634 -0.0051852786 -0.0053133518 -0.0015166202 0.0010874993 0.004536892
-0.00024742266 -0.001239708 -0.003204373 -0.001393456 -0.002096947 -0.00017095596 0.0007672004 0.00018702242
-0.00037483472 -0.00060125877 -0.0016559516 -0.000281483 -0.0002854731 -0.0015029478 0.00156673 0.0011581603
0.00017474838 -0.0010876086 -0.0036721851 0.0020769136 -4.568663e-06 0.0012603143 -0.00033331427 -0.0013725092
-0.0012406382 -0.0022126082 -0.00087845343 -0.0061143925 -0.005712288 -0.0033740539 -0.006732793 -0.0057130777
-0.008585773 -0.0056889146 0.0001699089 -0.0067187194 -0.008488699 -0.0106155425 -0.005845566 0.0034953956
-0.0062999814 -0.0059089134 -0.0071662324 -0.0008299137 0.0007673613 -0.005168615 -0.0071643014 -0.0033632517
0.0010202316 -0.0007884833 0.00093754195 0.0010338187 0.0012773911 0.0015927807 0.0010952721 0.00070703164
