checkpoint/model_epoch6.pth (torch, 268573 bytes, 24 tensors)

conv1.weight f4 [10, 1, 5, 5]
000000 5c f7 39 be 20 62 3c be 71 c7 80 be d2 b8 9f be
       -0.18160766 -0.18396807 -0.25152162 -0.31195694
000010 eb 89 82 be 6c cf 3f 3e 29 9f fd 3d de 1a 05 be
       -0.25495848 0.18731469 0.12383873 -0.1299853
000020 60 76 44 bd 4a 47 29 be ab f6 13 be e5 70 dc bc
       -0.047964454 -0.16531101 -0.14449565 -0.026909301
000030 02 b5 08 3e b4 0e 9b 3e 0d 57 dc 3e 39 1a 6f 3e
       0.13350299 0.30284655 0.43035164 0.23349847
000040 15 51 1b 3e a7 3b 8d 3e 12 ba 3a 3e 34 9e ae 3d
       0.15167649 0.27584574 0.18235043 0.085262686
000050 d4 03 ca 3d 1e 1b fd bd 61 92 c8 bd 05 03 1f be
       0.098640114 -0.12358688 -0.097935446 -0.15528496
000060 0d 2f bb bd 9e cb b2 3e 2a 45 9d 3e d5 b0 32 3e
       -0.091398336 0.34920973 0.3071683 0.17450269
000070 a8 82 2d be 21 ec af bd 94 b2 c8 3e 59 2e 9a 3e
       -0.16944373 -0.0858996 0.39198744 0.30113485
000080 84 d7 ed 3c a4 bf 6a be 2b ef 97 bd 0d aa 89 3e
       0.02903343 -0.22924668 -0.074186645 0.2688755
000090 b4 12 86 bd 18 c7 7a be a5 22 9d 3c 80 5a 69 3d
       -0.06546536 -0.2449001 0.019181559 0.056971073
0000a0 69 e0 6c 3e 7c 71 f2 bd 45 5f 0f be 50 e9 8a be
       0.2313248 -0.11838052 -0.14001186 -0.27131128
0000b0 a9 ad 59 3d 61 3f a0 bd 0d 48 45 be b5 69 04 be
       0.05314413 -0.078245886 -0.19265766 -0.12930949
0000c0 14 98 99 be a6 b7 81 be 3e 15 75 be 6d d3 e7 bd
       -0.2999884 -0.25335425 -0.23933885 -0.11319623
0000d0 0c 77 71 3e 01 7f 4e 3e f7 20 54 3e 26 05 ad bb
       0.23580569 0.20165636 0.207157 -0.0052801548
0000e0 e3 1d db 3e e9 33 94 3e aa a2 af 3d 63 b2 3f be
       0.4279624 0.28945854 0.085759476 -0.18720393
0000f0 62 a2 ac 3e 30 ad 68 3e 10 38 2b be 3d 92 9a be
       0.33717638 0.22722316 -0.16720605 -0.30189696
000100 ce 5a 86 be 03 66 11 3e 3c fa ba bd 6e 89 f6 be
       -0.26241153 0.1419907 -0.0912976 -0.48151726
000110 d4 ff 93 be 7f 33 7b 3d 62 dc d0 bc 5a 10 7a be
       -0.2890612 0.061328407 -0.025495712 -0.244203
000120 c4 87 1a 3d 22 f1 3b 3e ac 78 74 3e ee cf 99 bd
       0.037727132 0.18353704 0.23874158 -0.075103626
000130 2f 83 fb 3c 3d a5 0e be 45 d4 d5 bd d2 15 bc bd
       0.030702202 -0.13930221 -0.10440878 -0.091838494
000140 6d a9 ec 3b 1a 91 e0 bd 37 31 29 bd 38 97 10 be
       0.0072223456 -0.10965176 -0.0413067 -0.14120185
000150 65 70 54 be e3 9c 5c bd 3b 42 01 bd d0 b4 6c be
       -0.20746 -0.053860556 -0.031557303 -0.2311585
000160 44 40 45 be 8a 98 d3 bd 76 b0 a7 bd 61 4a 29 be
       -0.19262797 -0.10331829 -0.08187954 -0.1653228
000170 fa cd bb bd bf 56 44 bc d0 31 94 bb b4 5d 1f bd
       -0.09170146 -0.0119835725 -0.0045225397 -0.03890772
000180 d7 36 41 be 7f f7 0a bd 04 25 ef bd d6 f6 55 3e
       -0.18868576 -0.033927437 -0.11676982 0.20894942
000190 36 8a 88 3e 1a 3f aa 3e 72 1a 89 bd 9e 7d 80 be
       0.26667947 0.33251268 -0.06694497 -0.25095838
0001a0 b0 9c db be b6 6e 54 3e e0 74 ab 3e 59 5d 30 3e
       -0.4289298 0.20745358 0.33487606 0.1722311
0001b0 7e 71 b6 be 1d a4 c6 be 8e ba cc 3d 06 27 94 3e
       -0.35633463 -0.38797083 0.0999652 0.28936023
0001c0 29 09 5c 3e 07 20 f4 bc 2b a1 82 be 8c 80 5e bd
       0.2148787 -0.029800428 -0.25513586 -0.05432181
0001d0 6f 8a 55 3e 7f 1e 44 3e 4f 46 d0 3a f6 90 61 be
       0.2085359 0.19152258 0.0015890094 -0.22027954
0001e0 7d b8 aa 3d fb 5c 5b 3e 7b 76 32 3e af a2 07 be
       0.083359696 0.21422188 0.17428009 -0.13245653
0001f0 5a 37 68 be 32 90 b0 ba cd 83 ff bd 16 e6 44 be
       -0.22677365 -0.0013470708 -0.12476311 -0.19228396
000200 3b 91 a6 be 3f 9b 64 be c1 06 df bd 12 6b 6e be
       -0.32532677 -0.22324847 -0.1088996 -0.23283032
000210 87 69 73 be 71 a7 11 be ba a4 9b be 84 75 b0 3e
       -0.23770724 -0.1422403 -0.30399114 0.34464657
000220 b3 bb 1c 3e 3c 0d a9 bd 0f d1 57 bd a1 e5 ef bd
       0.15305977 -0.082544774 -0.05268961 -0.1171372
000230 71 46 28 3e 3e 3b b0 3d bb e1 98 3e bf 8c 8b 3d
       0.16433121 0.086050496 0.2985972 0.068139546
000240 47 61 ac 3d e0 0e 4c bc 6d f5 96 3e 4a d6 f1 3d
       0.08416992 -0.012454718 0.2948412 0.118084505
000250 7e 2b af 3e 8b d6 89 3e 21 31 80 3c 6e b6 a2 be
       0.3421287 0.26921496 0.015648426 -0.31779808
000260 89 49 2b 3e a4 e4 ae 3e 8b 58 ac 3e a3 48 06 be
       0.1672727 0.34158814 0.33661303 -0.13113646
000270 48 e5 b9 3d 4f 20 e9 bd 66 8c 96 3e 8e 31 23 3e
       0.09076935 -0.113831155 0.2940399 0.15936872
000280 dd 8d 55 3d 85 cc 30 bd 2a b6 83 be 21 d5 4c be
       0.052137244 -0.043163795 -0.25724918 -0.20003177
000290 8d da 91 3e 7e 5e e9 bd e8 8b 3b bd c7 db 6b bd
       0.28487054 -0.11394976 -0.045787722 -0.057582643
0002a0 ff 43 78 be 43 b2 47 3e 37 b2 0c be 23 16 07 be
       -0.24244688 0.19501595 -0.13739859 -0.13192038
0002b0 43 79 88 be 7a e5 0c be dd c2 c0 bd 94 be e6 bc
       -0.26655015 -0.13759413 -0.09412167 -0.028167047
0002c0 71 70 b2 3e c6 99 e6 3e e5 c4 95 3e d1 7f 44 3e
       0.3485141 0.45039195 0.2925178 0.19189383
0002d0 64 9a 43 3e 56 ed 40 3e 97 6a 51 bc 7e da 69 3e
       0.19101864 0.18840536 -0.012781761 0.22837254
0002e0 72 c5 97 3d 8d 88 17 be 73 cb 95 be 25 0c dc 3c
       0.074107066 -0.14798184 -0.29256782 0.02686126
0002f0 e4 14 4b 3e 21 66 a6 3e 04 21 fe bd 0e 35 37 be
       0.19832188 0.32499793 -0.12408641 -0.17891333
000300 1d 8b 85 be c9 75 8d be fe ff 30 be 8b ec 09 be
       -0.26082698 -0.27628925 -0.17285153 -0.1346914
000310 c9 e8 27 bd 51 d0 46 be b5 83 86 be 93 b0 d0 bd
       -0.040993486 -0.19415404 -0.2627236 -0.10189929
000320 d2 aa 87 3e eb 4e ad bd 8a 38 8c be 2c 31 62 be
       0.26497513 -0.08462318 -0.27386886 -0.2208907
000330 1b d3 4e be 87 6e d6 bc 8f 84 b1 3e 29 91 c5 3e
       -0.20197718 -0.02617575 0.34671447 0.3858731
000340 d8 67 11 3e 0c 73 12 3e 76 1d 2e 3d 4e e9 87 3d
       0.1419977 0.143017 0.042508565 0.06636296
000350 b4 fc bd 3e 55 5a 8f 3e ce 6b 67 3e 2f eb c8 be
       0.3710686 0.27998605 0.22599718 -0.3924193
000360 14 b2 89 be 6a e8 30 be ce c5 9d 3c 5a 32 fa bc
       -0.26893675 -0.17276159 0.01925936 -0.030541588
000370 64 16 37 3c 9b 01 6f be 43 f7 ae be 42 9e 9c be
       0.011174772 -0.23340456 -0.3417302 -0.3058949
000380 d5 f0 58 be d0 2d 61 3e ef ab a4 3e fb a7 36 be
       -0.2118562 0.21990132 0.32162425 -0.17837517
000390 e3 07 94 be 82 98 ee 3d d0 63 ed 3e 7a e8 10 3e
       -0.28912267 0.11650182 0.46365213 0.14151183
0003a0 e7 7e e9 bd df f8 a1 be f5 30 53 be 4f 65 ac 3e
       -0.11401158 -0.31635186 -0.20624144 0.33671042
0003b0 be 9f a8 bc 62 43 3b 3e 89 de 79 3d 78 66 16 be
       -0.020583984 0.18287423 0.06100324 -0.14687526
0003c0 d3 d3 11 3e b6 c4 27 bc 75 61 b0 bd 0d bc 61 3e
       0.14240961 -0.010239771 -0.086123385 0.22044392
0003d0 c2 83 90 3d 7d a8 59 3e 7f 81 86 3d 0f b4 ec 3e
       0.07056381 0.2125568 0.06567668 0.46231124
0003e0 72 a4 9a 3e ab 75 4a 3e
       0.30203587 0.1977145

conv1.bias f4 [10]
000000 c2 04 00 be f6 2f 9f be cc 0a 89 3c 7e 14 b8 be
       -0.12501815 -0.3109128 0.016728781 -0.35953134
000010 f2 15 07 bd 93 57 f3 bd de bc 98 be 56 74 21 bd
       -0.032979913 -0.11881938 -0.29831594 -0.039417587
000020 ca c7 a0 be 79 34 9d 3d
       -0.31402427 0.07676024

conv2.weight f4 [20, 10, 5, 5]
000000 8f 5f c8 3d e4 d4 fa bc c1 9a 0e bd 55 41 d8 bb
       0.09783851 -0.030619092 -0.034815554 -0.006599585
000010 57 d2 b7 3d 2b 7a 06 bc 1c 4e db 3c 8d c9 4b 3d
       0.08975666 -0.008207838 0.026770644 0.04975276
000020 8f ff b9 3d 08 e1 23 3d 76 e9 b6 3d 2b 2e 38 3d
       0.09081947 0.04000953 0.08931248 0.044965904
000030 8a 98 00 3d 9b c7 b4 3d b8 3f 27 3e e5 c0 a8 3c
       0.031395473 0.08827134 0.163329 0.020599792
000040 8c bf e1 3c 91 e2 d4 3d f0 2d 99 3e 59 7d 38 3e
       0.027557157 0.103947766 0.2991786 0.18016566
000050 cd c0 99 bb c4 9f 19 bd ba fa a7 bc 26 72 bc bc
       -0.004692173 -0.03750588 -0.020505298 -0.023003649
000060 35 48 ad 3d 42 24 08 3e 42 02 54 3d fd 77 fd 3d
       0.08461038 0.13295081 0.051759966 0.123764016
000070 6e 3a 49 3e 04 ab fc 3d b3 36 53 3d a2 54 0e bc
       0.19651195 0.12337306 0.051565837 -0.00868717
000080 3b 8f 89 3d 01 d5 2e 3d 0a db d4 3c 4b 99 43 3d
       0.06716772 0.042683605 0.025983352 0.047753613
000090 53 77 f3 bb df 8e 99 3c 9b 7f d9 3c 64 d0 12 bd
       -0.007429996 0.018744884 0.026550105 -0.035843268
0000a0 5b 3f 88 3d c0 71 31 3d f7 27 ba 3d 24 aa c6 3b
       0.06652709 0.04332137 0.09089654 0.006062763
0000b0 6c 08 9a bd b7 2e 0e 3d 1f 99 80 3d 37 f3 6d bb
       -0.075211376 0.03471252 0.062792055 -0.0036308297
0000c0 3f d3 ad bc a8 ee a0 bc 83 a0 1c 3d a7 dd 04 be
       -0.021218894 -0.01964505 0.038239013 -0.12975179
0000d0 31 e4 59 3d cf a4 10 3e b9 8e 57 bd b6 77 44 3d
       0.053196136 0.1412537 -0.052626345 0.047965728
0000e0 ca 75 6b bd 2c 73 aa bd b2 7b 5c 3c 52 f8 41 bc
       -0.05748538 -0.083227485 0.013457226 -0.011838989
0000f0 e1 47 a4 bd 17 81 df bd dc b9 69 3d 43 92 90 3d
       -0.08021522 -0.10913294 0.057062015 0.07059147
000100 7e 7a 7d bc 22 8e 0a 3c ed bb 79 bd 8a 3a af 3c
       -0.015471099 0.008456739 -0.060970236 0.021390218
000110 90 8d 94 bd 05 63 0e 3e 40 36 c2 bd 44 ca 34 be
       -0.072535634 0.1390496 -0.094830036 -0.17655283
000120 cd 74 67 bc d9 4b 42 3d 0a b4 aa 3d 00 0f dc 3d
       -0.014126969 0.047435615 0.08335121 0.107450485
000130 43 b4 85 3d 44 51 7e 3d e4 e1 bd 3c 39 fb 8a 3d
       0.06528523 0.06208922 0.023179002 0.06786198
000140 ff 87 79 3c 3f 12 2f 3d e8 16 9c 3c 1b ec a1 bd
       0.015230178 0.04274201 0.019053891 -0.07906362
000150 b9 13 08 bd a1 a0 06 bd 6a 0e 09 bd 57 ab af bd
       -0.033221934 -0.03286803 -0.033461012 -0.08577602
000160 35 94 98 bc 0b 73 f1 bc ce 4b 8e bd 58 e2 4d bd
       -0.018625358 -0.029473802 -0.06948052 -0.050264686
000170 7e a8 11 bc 3a 86 c3 bc f0 fd ce 3c 8f 0c 16 be
       -0.008890269 -0.023867715 0.025267571 -0.14653228
000180 7c 01 f1 bd 94 ba 13 bd a7 86 b5 3c 93 ce 98 3d
       -0.11767861 -0.036066607 0.022158934 0.07461276
000190 49 cf d4 3d 69 ae 57 3d 26 f8 70 3d 10 52 49 3d
       0.10391099 0.052656565 0.058830403 0.049150527
0001a0 80 21 de bd 22 04 21 bc f5 b2 46 bd bf 42 c5 3c
       -0.10846233 -0.0098276455 -0.04851051 0.024079679
0001b0 5b a5 a2 bc dd 2d ef bd dc 84 3c be c7 8f 5f bd
       -0.019854238 -0.116786696 -0.18410057 -0.054580476
0001c0 35 5c 51 bd a7 8b 59 bd 63 0a 26 bd da 89 0e be
       -0.051113326 -0.0531117 -0.04053725 -0.13919774
0001d0 5f 67 6b bd 5b 80 b3 bd 48 a7 34 bd 27 84 1e be
       -0.05747163 -0.08764716 -0.044104844 -0.154801
0001e0 08 c8 b2 3d fc c7 ae 3d fe 4c 6a 3c 8c c9 1d be
       0.08729559 0.08534238 0.014300583 -0.15408915
0001f0 f0 c5 70 be 84 b3 3a 3d 49 b1 3c bb 86 bc de bb
       -0.23513007 0.045581356 -0.0028792194 -0.006797376
000200 2f 68 9d 3d 36 65 f0 bd 4d 9b 0d 3d 8c ea d7 bc
       0.07685887 -0.117380545 0.034571934 -0.026356958
000210 e7 0e 7a 3d 47 9e 17 3d 67 6e b6 3c ee 8a f5 3b
       0.06104937 0.03701618 0.02226944 0.0074933683
000220 1b 74 74 bc 32 70 77 bb 32 ce cb 3d 3d bd d2 3d
       -0.01492026 -0.0037756083 0.09951438 0.102900006
000230 87 00 b5 bc df 2e 37 3c 39 74 89 3d a4 93 98 3d
       -0.022094978 0.0111806085 0.06711621 0.07450035
000240 93 f3 84 3d 02 ac b8 bc dd d0 01 be 04 a0 42 bd
       0.064917706 -0.022542957 -0.12677331 -0.047515884
000250 0b de 2d bd f9 6b 6b 3d a9 89 0d be 3b e1 50 be
       -0.042448085 0.057476018 -0.13822044 -0.20398419
000260 97 fa 9c 3d c4 2c c5 3d eb 26 29 bd 47 9e 8e be
       0.07664984 0.09627679 -0.04129688 -0.2785513
000270 08 37 4d be 51 cc 83 3d 63 91 b0 3d dc 42 04 3d
       -0.20040524 0.06435455 0.0862148 0.032290325
000280 45 cf 27 be 34 09 ac bd 52 bb 1e bc c4 62 c6 3d
       -0.16387661 -0.08400193 -0.009688215 0.09686807
000290 31 43 e8 bb d6 e9 28 be 2a 4f 4a bd 1f 56 da 3b
       -0.007088088 -0.16495451 -0.049391903 0.0066630985
0002a0 65 51 cb 3c 66 c5 2e 3d d1 d0 4b bc ef 3d 56 bd
       0.024819085 0.042668723 -0.012439922 -0.05230516
0002b0 64 81 d2 bc be 79 ad bd 2f e4 58 be b9 e6 fe bd
       -0.025696464 -0.08470486 -0.21180795 -0.124463506
0002c0 fa 8a 87 be 56 32 10 be d7 a8 de bd 3c 2c 23 bd
       -0.26473218 -0.14081702 -0.108720474 -0.039837107
0002d0 31 8c 51 be f1 cc c3 be 76 00 24 be e3 7e 9f 3c
       -0.20463635 -0.38242295 -0.16015801 0.019469684
0002e0 c9 69 ef 3c 06 ee f7 bd d0 42 c7 bd 9a 2e 0d 3d
       0.029225247 -0.12105946 -0.0972954 0.03446827
0002f0 c0 20 84 3d 97 46 af 3d f5 7d 1f bd 55 1f 5f 3d
       0.06451559 0.08558386 -0.03893848 0.05447324
000300 d6 c5 cf 3d 83 c2 bd 3d 5a ab 5b 3d 9a 23 c0 bd
       0.10145156 0.09265616 0.05363021 -0.093817905
000310 da a6 60 3d 35 76 e4 3d e0 5f f2 3c 0b b7 01 be
       0.054846622 0.11155359 0.029586732 -0.12667482
000320 e1 0b 62 3b fc e9 e6 bd 27 fa f7 bd 9c 6b 3e bb
       0.0034491944 -0.11275098 -0.1210826 -0.002905584
000330 4f c6 53 3c 5b 23 52 be d6 dd 66 be 85 0b b2 3b
       0.012925698 -0.205213 -0.22545561 0.005433502
000340 3b 06 02 3e f1 bc 15 3e 77 73 9c bd b9 74 92 3d
       0.12697689 0.14622857 -0.07639211 0.07151169
000350 aa fa bf 3d f7 1d 3d 3e 89 c5 16 3e 25 3d c7 bd
       0.09373982 0.18468462 0.14723791 -0.09728459
000360 09 42 8e 3d 9a e5 17 3e 5e 85 6d 3e eb 19 80 3e
       0.06946189 0.1483368 0.23195407 0.25019774
000370 f7 8e b3 bd 65 85 aa bb e1 f1 21 3e c7 70 b9 3d
       -0.08767503 -0.00520389 0.15814926 0.09054714
000380 b9 a6 47 bd f8 99 47 3c 53 6a 9c bd 58 83 42 bd
       -0.048742983 0.012182705 -0.07637467 -0.04748854
000390 c2 ee 0c be 84 d1 2b be 70 10 22 bd 79 c2 12 3d
       -0.13762954 -0.16779143 -0.039566457 0.035829995
0003a0 b3 aa 2e 3d 7d 7c a8 3c 23 c4 bc bd 10 04 67 3d
       0.04264326 0.020567173 -0.092170976 0.05640036
0003b0 c1 fa 36 bd f8 79 a8 3c 02 df 05 3d 73 1e 62 3d
       -0.04467273 0.020565972 0.03268338 0.05520482
0003c0 01 f8 8c 3d fa cb f2 bd 46 d7 5d bd f9 10 4a bd
       0.068832405 -0.11855312 -0.05416038 -0.049332593
0003d0 2a 40 ea 3c fd 88 be 3c 5e b2 a7 3c 71 43 18 3d
       0.028595049 0.02325868 0.020470794 0.037173692
0003e0 f7 fc a3 bd 2b 0a a4 3d c0 33 81 3c 44 5f 34 be
       -0.080072336 0.08009752 0.015771747 -0.17614466
0003f0 d8 49 0c 3d 12 2e 82 bc a3 ad 79 bd 13 e9 8c 3e
       0.03425011 -0.015891109 -0.06095661 0.27521572

conv2.bias f4 [20]
000000 d1 79 fd bc 10 a3 d5 bc 29 96 35 bd 02 5f 0c bd
       -0.030941876 -0.02607873 -0.044332657 -0.034270294
000010 b0 78 57 bd 8a d5 7a bb f0 55 93 bc 45 a1 23 3d
       -0.05260533 -0.0038274252 -0.017985314 0.03994872
000020 6e 7a df 3c 62 90 dc 3c 61 c9 68 3d 26 ac be bc
       0.027280059 0.026924316 0.056832675 -0.023275446
000030 c8 c7 ab 3d 7e ee 02 bd 85 8a 93 3b d5 b1 61 bc
       0.083877146 -0.031965725 0.004502597 -0.013775309
000040 1c 22 9d bd 67 51 3b bc 02 a0 09 bd cb f6 3d 3d
       -0.076725215 -0.011432982 -0.03359986 0.04637794

fc1.weight f4 [50, 320]
000000 3c 38 21 bd 48 64 a4 bb 1c 73 c4 bd 10 19 b4 bd
       -0.03936027 -0.0050168373 -0.09592268 -0.08793843
000010 28 43 03 3e 5e 1c 0f 3d 41 26 86 be f5 9d f2 bd
       0.12818587 0.034939162 -0.2620106 -0.11846534
000020 18 1e 62 3d 10 19 b3 3d 11 d4 80 bd 50 01 18 3e
       0.05520448 0.08745015 -0.062904485 0.1484425
000030 4f 93 88 bd e3 4d fa 3c 16 d6 a0 3d e2 34 25 3e
       -0.06668722 0.030554717 0.07853334 0.16133454
000040 40 24 43 3d 8b 4d 05 bd 34 5e 12 bd a1 19 1a bd
       0.047641993 -0.032544654 -0.03573437 -0.037622098
000050 1d b0 32 3d 70 dc e9 3c d1 ff 5d bd a0 57 77 be
       0.043624986 0.028547496 -0.054199044 -0.2415452
000060 f6 f5 3a be 2e ce 62 3d b3 0d 96 3d da 98 97 bd
       -0.18257889 0.05537241 0.07326832 -0.07402201
000070 17 fe 99 bc 7e df 53 3d 14 9f ad 3d da f4 75 bd
       -0.018797917 0.05172681 0.08477607 -0.06004796
000080 93 1e d6 bd 04 62 7b bd b8 14 5f bc 0d 97 56 be
       -0.1045505 -0.06137277 -0.01361578 -0.20956059
000090 ab 74 e7 bd e8 a9 e6 bb 9c 13 3b 3c 14 53 e4 bd
       -0.113015495 -0.0070392974 0.011418249 -0.111486584
0000a0 80 f7 cf 3d fc 20 25 3d ca 82 a2 bd b0 04 47 bd
       0.10154629 0.04031466 -0.07935102 -0.048588455
0000b0 e1 eb 89 bc e4 4d 58 3d 7d 65 8e 3d 05 cf 4f 3d
       -0.016836109 0.052808657 0.06952951 0.05073454
0000c0 c7 f7 12 3e 93 09 9a 3c a2 bd b7 bd a6 d5 13 be
       0.14352332 0.018803393 -0.089717165 -0.14436969
0000d0 97 9b b9 3c 58 6a a1 bc a4 d8 90 3a df fe 02 3e
       0.022657199 -0.019704029 0.0011050892 0.12792538
0000e0 2b e2 6a 3d d5 17 da 3a 35 a8 3d be 97 36 ab 3d
       0.057344597 0.0016639183 -0.18521197 0.083600216
0000f0 09 e7 20 3d 57 fd 6d bd 24 c5 30 be 89 24 d7 bd
       0.039282832 -0.05810293 -0.17262703 -0.105050154
000100 96 25 f6 bd 87 f3 89 bd a5 23 21 3d de 18 c7 ba
       -0.12018888 -0.06735902 0.039340634 -0.0015189906
000110 f8 c9 34 3b 4c 66 be bc 9a 82 40 bd ac d4 06 bd
       0.0027586203 -0.023242138 -0.04699955 -0.032917663
000120 06 79 95 3c ec bb 0b 3d c6 74 9c 3d 31 ba e5 bd
       0.018246185 0.034114763 0.0763946 -0.11217154
000130 b2 d9 c1 3c 1c e4 61 3d 3f ee 9f 3c af 7e c6 3d
       0.023663376 0.055149183 0.019522784 0.09692132
000140 33 a7 b2 bc 54 f0 8c 3d 4f 02 31 3d ea 76 4b be
       -0.021808242 0.068817765 0.043215092 -0.19869581
000150 a7 17 39 be 9c 24 31 3b 1c 02 13 3d 50 69 38 3d
       -0.18075429 0.0027029878 0.035890684 0.04502231
000160 69 d7 d4 3c e0 a9 16 3e 45 16 a3 3c 4e 95 71 bd
       0.025981622 0.1471324 0.01990808 -0.05898028
000170 75 ee 87 3d 9d c1 8d bc 9e 7e aa bd b6 80 29 bd
       0.06637279 -0.017304236 -0.083249316 -0.041382514
000180 00 06 21 bd c8 1d 70 bd 23 ec 35 be ae 62 e9 bd
       -0.039312363 -0.05862215 -0.1776586 -0.11395775
000190 84 db 96 3c 5c a4 ed 3b 0b a8 8f bc c2 65 00 3d
       0.01841522 0.007252259 -0.017536184 0.031347044
0001a0 fb a1 0a bc c7 9b e5 3d 73 6e 75 3d 66 dd 61 3d
       -0.008461471 0.11211353 0.059919786 0.055142783
0001b0 ab 51 a6 3c 45 b6 ae 3c b2 66 35 bd db 52 d5 bc
       0.020302614 0.021327147 -0.04428739 -0.026040485
0001c0 fa 93 90 bd 14 aa 10 bc 0d 0d e8 bc 12 e7 0c be
       -0.07059474 -0.008829612 -0.028326536 -0.13760021
0001d0 e1 eb b2 bc 6c 79 8c bd d3 ac 3c be a1 e2 dd bd
       -0.021840991 -0.06859097 -0.18425302 -0.10834242
0001e0 31 a9 1a 3e 98 0f c1 3d 62 e0 15 bd 85 71 08 be
       0.15103604 0.094268024 -0.03659094 -0.13324554
0001f0 4d 58 c1 bc 23 10 8a 3d cb 5b d4 3d b9 d9 c4 bd
       -0.023601675 0.06741359 0.103690706 -0.0961184
000200 42 df d1 bd 19 ae 0f 3c 95 30 7d ba 8c fa e5 bd
       -0.10247661 0.008769535 -0.00096584234 -0.11229429
000210 90 f7 fc 3d 8b 4a 18 bd d1 02 fc bc 9f 21 ab 3c
       0.12351906 -0.037180465 -0.030763062 0.020890055
000220 81 28 01 3e bb 75 f1 bd 6f ca 81 bd 69 69 c0 3d
       0.12613107 -0.117900334 -0.06337439 0.093951054
000230 e0 78 39 3e d0 8f 8b bc 62 00 26 bd ac 51 a4 bd
       0.18112516 -0.017036349 -0.04052771 -0.0802339
000240 7d ef 16 bd 50 fc 45 3c 7b 63 9c 3d 2e 3b 47 3d
       -0.036849488 0.012084082 0.07636162 0.048640423
000250 21 cc 9d 3c 5c 00 29 3d 2c db 29 bc af 3f 89 3d
       0.019262375 0.04126011 -0.010367196 0.067016
000260 39 56 ae 3d 05 85 8f bd b6 46 c5 bd f1 4e e6 bc
       0.085125394 -0.07007793 -0.09632628 -0.028113814
000270 e9 18 80 3d c6 02 de bd 4d f5 3f bd 98 f2 25 be
       0.06254751 -0.10840373 -0.046864796 -0.16205823
000280 ab ef 38 bd 5f 13 b2 3c 0b b2 14 3e d6 d6 0f 3c
       -0.04515044 0.021737752 0.14521043 0.008779248
000290 0c b4 3e bd 9e 4c 10 bb be 99 bf 3d 6e e5 e5 3c
       -0.046558425 -0.0022018324 0.09355496 0.028063502
0002a0 3e e7 1a 3d de 4c 6e bd af 02 ac 3d 3f 83 6f bd
       0.037818186 -0.058178775 0.08398949 -0.058474775
0002b0 3d d3 02 bd 1e cc 26 be ab 8d f0 bc 0e 87 0e be
       -0.031939734 -0.16288802 -0.029364428 -0.13918707
0002c0 ff f7 f1 bd ff 39 2b be fb 87 84 be 7b 76 23 be
       -0.118148796 -0.16721343 -0.25884995 -0.15963165
0002d0 ee e3 7b 3c 91 05 9c 3c 18 48 34 bd af 0a 12 3d
       0.015374167 0.019045623 -0.044014066 0.03565472
0002e0 7e 6c 64 3d b6 ee 26 3d a6 c8 84 bc 61 3f c9 3d
       0.05576753 0.040754996 -0.016208958 0.09826542
0002f0 fe 35 fd bc ac fc e1 3d 19 e7 be 3d c3 6a 84 bc
       -0.030909535 0.110345215 0.09321422 -0.01616419
000300 ca 15 ed bd 5e 76 24 bc 01 94 64 3d 9b 06 0a 3e
       -0.115764216 -0.010037987 0.05580521 0.13479082
000310 5e dc 10 3d 9a 87 e6 bd 7b 2f 8c bc 3c ce 48 3e
       0.03536641 -0.11256333 -0.017112484 0.19609922
000320 77 af 92 3d 45 32 1b be a9 87 7e bd 9d a7 27 bd
       0.071623735 -0.15155895 -0.062141094 -0.040931333
000330 69 90 00 3e d4 44 20 be ee 69 d2 bd 16 c1 8b bd
       0.12555088 -0.15651256 -0.10274111 -0.068239376
000340 60 a2 d9 3c 89 f9 bf 3b eb 44 d6 bd dc 80 29 be
       0.026566684 0.0058586043 -0.10462364 -0.16553062
000350 90 6b 05 3d b6 87 ff 3d 1f fe ff 3c a3 7b ef 38
       0.032573283 0.12477057 0.031249104 0.00011419437
000360 73 47 85 b9 35 7a d6 bd 47 7d 38 bd e7 4a ea 3d
       -0.0002542097 -0.10472528 -0.04504135 0.11440068
000370 34 08 30 bd 9f 67 f6 bd cc 52 21 3b 6d c2 e2 3d
       -0.042976573 -0.12031483 0.0024616001 0.1107224
000380 dc df 0b be 1a 7f 18 be fc 47 2c be 48 df 78 be
       -0.13659614 -0.14892235 -0.16824335 -0.24303925
000390 0f 8d 31 3d 36 98 be 3c 33 92 1d be bc c7 af bd
       0.043347415 0.02326594 -0.15387802 -0.08583018
0003a0 a2 07 45 bc dc ed 93 3d fa b3 d8 3d dd c8 c0 3d
       -0.012025746 0.072231025 0.10581203 0.09413312
0003b0 92 49 6b 3d c6 bd a6 bd dd 28 5d 3d db 6d b7 3d
       0.05744321 -0.08141665 0.05399405 0.089565
0003c0 e5 21 3e bd a7 f8 44 3b 84 0e 17 bd 93 21 13 3d
       -0.046419043 0.0030055435 -0.036879078 0.03592069
0003d0 1d 81 80 3d 43 27 d1 bc d1 50 c2 3d bc 82 2a 3e
       0.062746264 -0.025531417 0.09488071 0.16651434
0003e0 1c 38 53 bc 37 d6 36 be 99 e9 26 3d e4 2b 0d 3e
       -0.0128917955 -0.17855154 0.04075012 0.13786274
0003f0 16 30 1a be 11 a7 6b bb 37 69 59 bd d7 f2 0d bc
       -0.15057406 -0.0035957734 -0.053078856 -0.008663855

fc1.bias f4 [50]
000000 a0 e6 ac 3c 1b 0c 3a 3e 18 83 0c 3e c0 40 91 3a
       0.021106064 0.1816868 0.13721883 0.0011081919
000010 ac e0 52 3e 2c 56 ce bc e2 db 64 3e cc 9d 55 3d
       0.20593518 -0.025187574 0.22349504 0.05215244
000020 7a 2f 29 bd db c3 3b 3d 8e 00 15 3e be 39 2b 3e
       -0.041305043 0.04584108 0.14550993 0.16721246
000030 a3 2e 4d ba 6c 87 8c 3e 3d c2 0d 3e 76 b4 6f 3e
       -0.0007827079 0.2744707 0.13843627 0.23408684
000040 24 b6 ab 3e 67 8b 13 3d 6e cb 14 3e 88 7b 27 3d
       0.335374 0.036021616 0.14530727 0.040889293
000050 4a eb 67 3e ff 8a 22 3e 8a 3c c6 3d f4 8d 62 3e
       0.2264835 0.15873335 0.09679516 0.22124463
000060 09 61 21 3e 65 29 3a 3d 76 71 de 3d 47 c1 3c 3d
       0.15759672 0.045449633 0.10861485 0.04608276
000070 12 00 ed bd 3c eb 04 3d 9c 1a d6 3d d3 8f cc 3d
       -0.11572279 0.0324509 0.10454294 0.0998837
000080 c4 d2 ec 3d b7 bc e9 3b b6 82 26 3e 1d 13 36 3d
       0.11563638 0.0071330923 0.162608 0.04445182
000090 27 6c 0d 3e a1 a1 76 bd f9 26 94 3d 05 35 60 3e
       0.13810788 -0.060212735 0.07233996 0.21895225
0000a0 8a 02 5b 3e 2a 9c 7b 3e 12 06 4d 3e 8f 3f 9d 3e
       0.21387687 0.2457129 0.20021847 0.30712554
0000b0 c3 14 17 3e d4 4e 56 3e 53 ef 41 3e 50 68 23 3e
       0.14754014 0.20928508 0.18938951 0.15957761
0000c0 bb 73 25 3e 94 bd a7 3e
       0.16157429 0.32761824

fc2.weight f4 [10, 50]
000000 07 5b 2d 3e b6 8f 30 3e f1 39 38 be 39 b7 34 be
       0.16929255 0.17242321 -0.17990853 -0.17648019
000010 41 76 44 bd c1 79 e6 3d c5 b4 56 be d9 70 73 be
       -0.04796434 0.112536915 -0.20967396 -0.23773517
000020 98 00 72 bd 90 c9 8e 3d 0f 0f 45 be af 59 8c be
       -0.059082597 0.06972039 -0.19244026 -0.27412173
000030 db cb 8b be 66 8a 64 be b2 d3 f0 3d 03 85 b7 be
       -0.27303967 -0.2231842 0.11759128 -0.35843667
000040 39 94 96 be c3 e8 c2 be a9 84 08 3e be 33 44 3e
       -0.2940996 -0.38068208 0.13331856 0.19160363
000050 45 df cb be ae d9 81 3d 5e b4 d3 3d 17 12 2e 3d
       -0.3981878 0.06340347 0.10337137 0.04249772
000060 0a 94 d1 bd 42 09 5d 3c 19 cd 8f be a9 6b 81 bd
       -0.10233314 0.013490977 -0.28086165 -0.06319363
000070 ee f7 36 be da 56 58 3d 69 38 28 3e 73 90 41 3e
       -0.17868015 0.052817203 0.16427769 0.18902759
000080 c7 ee 0b 3e 2f db b0 be dd fa 39 be 1e eb e5 3d
       0.13665305 -0.34542224 -0.18162103 0.11226486
000090 a3 b1 d1 be ad 23 3e bd 9e e8 0a 3e 19 1f e2 3d
       -0.4095584 -0.04642074 0.13565299 0.11041088
0000a0 b4 71 99 be 5c 44 32 bd 94 29 b4 be b5 66 68 be
       -0.2996956 -0.043522224 -0.35187972 -0.2269543
0000b0 ea 7a 08 3e 9d 35 d6 3d 59 39 bb be 20 0a af be
       0.13328138 0.10459445 -0.3656719 -0.34187412
0000c0 0a 96 21 3e 53 2f 05 bd 21 fb 23 be a1 d4 dd bc
       0.15779892 -0.032515835 -0.16013767 -0.027078928
0000d0 d5 41 a7 3d c8 09 86 be c7 46 f1 3d 1f d6 9e be
       0.08166853 -0.26179338 0.11781078 -0.31022736
0000e0 90 06 d9 3d 23 3e d1 bd 11 7e 6d be 96 dd 86 be
       0.10596955 -0.1021693 -0.23192622 -0.26340932
0000f0 2d 4a 64 be 47 0a 71 3d ee 92 54 be 18 46 66 3e
       -0.22293921 0.058847692 -0.20759174 0.22487676
000100 7f 8c d5 be 26 de bc 3d 02 49 01 3e da f6 8a be
       -0.41708753 0.09222059 0.12625507 -0.27141458
000110 d3 c8 60 be bf ca 68 be 47 e4 d3 3d 9f 5b 1b 3d
       -0.21951608 -0.22733591 0.10346275 0.037929174
000120 4e 11 98 bd bd 10 d5 3d d0 76 f4 3d 0f 11 9b be
       -0.074251756 0.10403583 0.11936724 -0.30286452
000130 dd d4 45 be 62 aa b4 be c6 07 2b be b4 98 b7 be
       -0.19319482 -0.35286242 -0.16702184 -0.3585869
000140 33 7c f1 3d 5b 9c 8f be a1 78 c9 bd 7b c5 a6 be
       0.11791267 -0.28048977 -0.09837461 -0.3257254
000150 23 da 1b 3e 36 30 2a be eb 2f c6 3d 47 08 b6 be
       0.15219931 -0.16619954 0.096771084 -0.3555319
000160 db 81 b2 be d6 f5 f5 3d 94 7a c7 3d b6 48 e3 3d
       -0.34864697 0.1200978 0.09740177 0.11097853
000170 5a df c3 3d 50 c2 f9 3d c2 50 af 3d 80 7b eb 3d
       0.09564085 0.12195265 0.08560325 0.11498165
000180 7c 0f d9 3d 15 e7 d1 3d 0d a1 29 be 2a 19 66 3e
       0.105986565 0.102491535 -0.16565342 0.22470537
000190 ec 12 e8 3d 7f d6 50 3e 99 3b 14 be ba b3 e6 bd
       0.11331734 0.20394324 -0.1447586 -0.11264749
0001a0 b3 fe d6 bd 1f db aa 3d 2c 5e da 3d 22 ca 07 3e
       -0.10497799 0.08342575 0.10662493 0.13260701
0001b0 d1 b6 ae 3d b9 13 ae 3c 2c bd 16 be 36 81 e2 3d
       0.08530963 0.021249639 -0.14720601 0.11059801
0001c0 09 84 d4 bd 9c ca 73 bd 98 52 2e be 2f 71 73 be
       -0.10376746 -0.059519395 -0.17023695 -0.23773645
0001d0 22 c9 08 be 72 27 b9 bd 3c e0 1a be 0c 19 92 bd
       -0.13357976 -0.09040727 -0.15124601 -0.071336836
0001e0 2c 6a 39 be a7 fd bc 3d e4 18 4a be cb a7 e7 3d
       -0.18106908 0.09228068 -0.19736058 0.11311301
0001f0 5a e4 de 3c 3b b4 87 3d 5a fa 11 bd ce 61 6a be
       0.027208496 0.06626173 -0.035639144 -0.22888872
000200 31 6a bf 3d 98 b2 89 bd 06 44 e1 3d da 62 28 bd
       0.09346426 -0.06723517 0.109993026 -0.041109897
000210 18 cb 12 3e 3a d5 ba bd e2 6f 67 3e 4d 94 48 3c
       0.14335287 -0.09122701 0.22601274 0.012242389
000220 24 68 95 bd fb 64 6b 3d 57 3e ae bc 21 79 46 be
       -0.07295254 0.05746935 -0.02126996 -0.19382145
000230 75 c8 fb 3d 3a 12 1d 3e 85 03 9e be 29 90 17 3e
       0.122940935 0.15338984 -0.3086206 0.14801086
000240 8d 13 ee 3d a6 34 f8 3d ba 02 b3 be 70 49 e4 bd
       0.11624823 0.12119417 -0.34963018 -0.111468196
000250 c5 99 36 be 03 a2 0c be 9a aa 3b bd df 6b e8 bd
       -0.17832096 -0.13733678 -0.045816995 -0.113487
000260 2d 3e 0c be a1 76 d3 3d 4f 81 80 be 07 c3 54 be
       -0.13695593 0.10325361 -0.25098655 -0.20777522
000270 a1 54 63 be d0 8a 2e 3e 98 e7 e1 3d 91 1e 55 3d
       -0.22200252 0.1704514 0.11030501 0.052031104
000280 70 cc 06 be 1b 96 c1 3d 1f 10 2a 3e ec cd dc be
       -0.13163924 0.094524585 0.16607712 -0.43125856
000290 6e 28 1b 3d 29 f2 97 3d 33 65 87 be 1a 97 fe 3d
       0.037880354 0.07419235 -0.26444396 0.12431164
0002a0 3e 96 2a be 5e 98 4d be 75 65 25 be ad 4e d9 3d
       -0.16658875 -0.20077655 -0.16151984 0.10610709
0002b0 9b e8 35 be 3a d6 62 be 17 b9 80 bc 94 82 62 be
       -0.17764513 -0.22152033 -0.015713258 -0.22120124
0002c0 ee e5 1e be 22 6a 0b be 88 48 b7 3d 37 1c 14 3e
       -0.15517399 -0.13614705 0.08949381 0.14463888
0002d0 c6 9f 11 be 71 d5 4b be de 3e 0e 3e cc b3 c7 3d
       -0.14221105 -0.1990564 0.1389117 0.097510904
0002e0 8c 67 09 3d 47 3c a7 3d 5f dd f4 3d 7f 7e c9 bd
       0.033546016 0.08165794 0.11956286 -0.0983858
0002f0 a0 51 35 be 06 c7 7e bd 97 bb de 3d 35 eb 0a be
       -0.17706919 -0.062201522 0.10875624 -0.13566287
000300 68 1d 21 be e0 bd aa bc 98 60 be 3d a4 ce c2 3d
       -0.15733874 -0.020842493 0.092957675 0.0951207
000310 d6 e7 ef 3b 5a 7a f6 3d 45 0e 04 be 58 99 39 be
       0.007321338 0.120350555 -0.12896068 -0.18124902
000320 2c 72 11 3e ac f3 f9 bc 56 e0 e3 bd b1 46 4e be
       0.1420371 -0.0305117 -0.11126773 -0.20144154
000330 30 df 1d 3e c7 dc d9 3d 0e af 87 3a 8d 4e 1c 3e
       0.1541717 0.10637813 0.0010351853 0.1526434
000340 5a b0 f8 3d 18 4c c1 be 4b d9 ce 3d ad 43 74 be
       0.121430114 -0.37753367 0.10100039 -0.23853941
000350 00 d6 32 3d 01 72 5d 3e 69 7e 30 be ed d3 11 be
       0.043661118 0.2162552 -0.17235722 -0.14241
000360 c7 de 0b 3e 61 ed eb 3d 66 74 4a be cd 29 52 be
       0.13659202 0.11519886 -0.19770965 -0.20523758
000370 d5 b9 c9 3d cf 07 66 be 23 56 87 be d7 07 08 3e
       0.09849898 -0.22463916 -0.26432905 0.1328424
000380 bc d5 12 3e 04 b0 4e 3e bd 00 17 3e a7 51 d6 3d
       0.14339346 0.20184332 0.14746375 0.10464793
000390 79 f5 6d bc eb 81 09 be 59 ad 02 3e f1 89 0f be
       -0.014523857 -0.13428466 0.1276144 -0.14017464
0003a0 e7 30 9a 3b 16 57 bb 3d 54 58 a9 bd a9 db 58 be
       0.0047055366 0.0914747 -0.082688004 -0.21177544
0003b0 7a 3b 10 3e b4 e2 62 3d 20 0a 71 be a6 2e 06 be
       0.14085189 0.055391982 -0.23539019 -0.13103732
0003c0 4b 0a ba bd c1 93 a3 bd 3c 33 c0 3d 48 8b 25 be
       -0.090839945 -0.07987166 0.09384772 -0.16166413
0003d0 bb 17 1c be ef 15 5d be 9f 9e e5 3d ae 27 07 be
       -0.15243427 -0.21590398 0.11211895 -0.1319873
0003e0 fa 76 5a 3d 76 ec d2 bd 93 af 6f be 4a fb 2b be
       0.05333612 -0.102990076 -0.2340682 -0.16795078
0003f0 ca 2c 90 be 4e c3 c8 3d ef ce f2 3d 59 83 4c be
       -0.2815917 0.098028764 0.11855876 -0.1997198

fc2.bias f4 [10]
000000 48 87 37 3e 0b 6a eb 3e 3a aa 77 be 0a 79 a8 3d
       0.179227 0.45979342 -0.2418603 0.08226211
000010 7b ff e1 bd 97 23 ee 3d 3b f6 c3 3d 68 e5 23 be
       -0.11035057 0.11627882 0.09568449 -0.1600548
000020 3c cb b1 bd 13 93 35 be
       -0.08681342 -0.17731886

exp_avg f4 [10, 1, 5, 5]
000000 92 3f d0 3a e2 51 f4 3a 08 cd 86 b9 82 e5 ba 3a
       0.0015888086 0.0018640126 -0.00025711232 0.0014259072
000010 b5 62 20 b9 94 80 66 3b 95 3c 4c 3b 91 36 c2 ba
       -0.0001529556 0.0035171853 0.003116404 -0.0014817287
000020 17 e4 98 ba 9f c3 89 bb 01 78 0a ba fd 16 63 b9
       -0.0011664656 -0.004204228 -0.0005282164 -0.00021656971
000030 75 1a aa ba fb e3 ce bb 74 b7 56 bc 1b 7e 4a ba
       -0.0012977856 -0.0063137985 -0.013105262 -0.00077244797
000040 0b 43 ac ba c3 59 de ba 2e 18 31 bc 18 a5 96 bc
       -0.0013142539 -0.0016964007 -0.010808988 -0.01838927
000050 89 9d e0 3a 9c 11 6f 38 10 39 08 bb 12 1f e8 bb
       0.0017136793 5.699844e-05 -0.0020785965 -0.007083782
000060 fc 34 4a bc 7b 86 b7 b9 3f 80 36 3c 3e 01 7e 3c
       -0.012341734 -0.00035004676 0.011138975 0.015503226
000070 e0 8d 46 3c 29 ba 8a 3b cb 90 4f bb 9c 2e 94 3b
       0.012118787 0.004233618 -0.0031671997 0.004522158
000080 5a d0 e0 3b b2 98 16 3b 2c 9e 39 3b 91 07 65 b9
       0.006860775 0.0022979197 0.0028323038 -0.0002184196
000090 6b e7 5c 3b e3 cb a1 3b 78 d8 2b 3b 12 c8 b0 3b
       0.0033707272 0.0049376353 0.0026221555 0.005394944
0000a0 0f 35 41 3b 31 8a 9d 3b 78 48 e6 3b 02 d7 e6 3b
       0.0029481088 0.0048077335 0.007027682 0.007044674
0000b0 ba 43 0f 3c ea 6f e2 3b f2 dc a1 3b 53 07 f9 3b
       0.008744175 0.006910314 0.004939669 0.00759975
0000c0 7b 00 1f 3c 2d c8 24 3c d8 5e d6 bb 56 b2 23 bb
       0.009704704 0.010057491 -0.006542068 -0.0024978123
0000d0 ac 13 6b 3b 67 cc 73 3b c3 b9 45 3b 7d 84 dd bb
       0.003586988 0.003720069 0.0030170537 -0.0067601786
0000e0 cc 64 ea bb 75 18 3e bb 5c da b7 bb 02 15 cc bb
       -0.007153129 -0.0029006277 -0.0056107473 -0.0062280903
0000f0 50 eb d2 3a 7c dc 36 ba 31 42 bd bb 1b a7 ba bb
       0.0016091857 -0.0006975604 -0.005775713 -0.00569619
000100 18 0e c2 bb 05 67 f3 3b 7b ba 84 3a 3e ed 68 bb
       -0.0059220903 0.0074280524 0.0010126376 -0.0035541798
000110 4b 5d 5b bb cc 93 91 bb 22 9f 80 3b 15 42 ac bb
       -0.0033472355 -0.0044426676 0.00392522 -0.005256901
000120 4c 77 15 bc fd c4 18 bc 8a ff ba bb e4 42 93 bc
       -0.009122681 -0.009324309 -0.005706732 -0.017976232
000130 74 eb 48 bc 1f df 26 bc 2b 45 2b bc 93 a6 a6 bb
       -0.012263168 -0.010185032 -0.010453503 -0.005085775
000140 ff bc 90 bc 19 a5 44 bc 53 9c 4f bc 9e 82 26 bc
       -0.017668245 -0.012002253 -0.012671548 -0.0101629775
000150 6e af f0 bb cf 47 83 bc 5c de 24 bc 6d 8b 78 bc
       -0.0073451316 -0.016025452 -0.01006278 -0.01516996
000160 fc ab 44 bc a0 13 0b bc a3 a1 5d bc a2 60 26 bc
       -0.012003895 -0.008488566 -0.013527307 -0.010154875
000170 08 54 70 bc 3b 98 36 bc 2e b2 ff bb 33 74 68 bc
       -0.014668472 -0.011144693 -0.007803223 -0.01418786
000180 cf 1c 53 bc 45 d8 80 bc ae 2a 3d bc 10 79 96 bb
       -0.0128852865 -0.015728125 -0.01154582 -0.0045920685
000190 8a 06 2e bb 58 f5 a7 3b ec 86 55 3c 9d 7a 46 3c
       -0.002655419 0.005125683 0.013032656 0.012114194
0001a0 95 0e df 3b 54 10 16 bc 77 99 75 3b 47 a6 84 3c
       0.0068071582 -0.009159166 0.0037475505 0.016192568
0001b0 a6 2b 5b 3c b7 d7 07 3c 0b ea df bb fe 18 48 3b
       0.013377106 0.0082911765 -0.00683332 0.0030532475
0001c0 a8 07 95 3c 21 b3 8d 3c 55 7d 4f 3c c6 05 5a bb
       0.018192127 0.01729733 0.012664159 -0.0033267601
0001d0 9a a9 1c 3c 8d b7 86 3c 44 fd 83 3c 92 13 59 3c
       0.009561921 0.016444946 0.016111977 0.013249295
0001e0 05 2f 84 3a 10 7b 21 3c 43 78 3c 3c 38 d3 0d 3c
       0.0010084814 0.009856001 0.011503282 0.0086563155
0001f0 26 ae 29 3c d2 3b b8 3b 2e 15 2c 3c 41 11 10 3b
       0.010356462 0.0056223655 0.0105030965 0.002198294
000200 73 42 13 3b be 18 0e 3b 3f 65 12 3c 9b 7a 07 3c
       0.0022470027 0.0021682228 0.008935272 0.0082689775
000210 25 2f 8f 3a 5a 32 99 3b 02 ea 6d 3b 5e 67 c9 3b
       0.0010924084 0.004675192 0.003630281 0.0061463555
000220 62 98 54 3b 9b 1a a9 ba 10 24 57 3b 59 77 97 3a
       0.003243946 -0.0012901606 0.0032827891 0.0011555954
000230 71 ad 98 3b c5 3d 0c 3b 24 9f 9f 39 73 dc 95 ba
       0.0046593477 0.0021399122 0.00030445412 -0.0011433497
000240 d8 3e 32 bb 90 fe 6a 3b 91 eb 50 3a c7 25 57 ba
       -0.0027198102 0.0035857297 0.00079696724 -0.00082072284
000250 b6 bb f4 bb ac c6 75 bc b1 d3 1f 3b 74 8a 2d 3b
       -0.007468666 -0.01500098 0.0024387653 0.002648023
000260 af 1c 28 3b 97 0d 82 39 97 fe 65 38 a9 2c 9a ba
       0.0025651862 0.00024805657 5.483496e-05 -0.0011762577
000270 47 6c 2f 3b 9e 67 64 3b e0 17 bf 3a 7c f9 16 ba
       0.002676742 0.00348518 0.0014579259 -0.0005759222
000280 90 78 f5 3a db f5 f4 3a eb 5e 1f 3b cd 4b ca 39
       0.0018727947 0.0018688993 0.002431805 0.00038584918
000290 0d 2e 4b bb 73 4b 0a 3a 09 e5 aa b9 fb 10 a8 39
       -0.003100279 0.0005275525 -0.0003259557 0.00032056108
0002a0 57 13 16 bb b7 c5 02 bc 27 4a f3 3a 84 a9 33 ba
       -0.002289971 -0.007981709 0.0018561528 -0.0006853568
0002b0 75 97 5e bb c2 20 9d b9 59 27 aa bb f7 6f ce 3b
       -0.0033964787 -0.0002996978 -0.005192679 0.0062999683
0002c0 1f 3f 25 3c 8e da ee 3b e0 da d0 3a 01 ae 28 3b
       0.01008585 0.0072892373 0.001593437 0.002573848
0002d0 ec 28 f3 3b 3e 69 29 3c 16 a3 a4 3b b0 9d 24 bb
       0.0074206498 0.010340033 0.005024324 -0.0025118403
0002e0 b7 ad af ba 53 41 46 3b e3 4f 71 3b 7c 30 3c bb
       -0.0013403211 0.0030251339 0.0036821298 -0.0028715422
0002f0 2e ba e1 bb 3e 3b ce bb c4 3d 3f bb 7d 09 2f bb
       -0.0068886494 -0.0062936833 -0.0029181102 -0.0026708536
000300 e9 e3 e3 bb c6 9d 01 bc a1 34 74 bb 0d 2b e3 bb
       -0.0069546592 -0.007911151 -0.0037262815 -0.0069326223
000310 26 42 d0 bb 69 eb 39 bc c3 a9 aa bb c9 61 26 3b
       -0.0063555418 -0.01134763 -0.0052082255 0.0025387874
000320 7e a7 2e 3c ac 47 36 ba 30 61 34 bc ff cd 52 bc
       0.01066005 -0.0006953429 -0.011009499 -0.012866496
000330 96 4c 5d bc 1d 18 9e 3b 09 dd cd bb 0a cc 22 bc
       -0.013507029 0.004824652 -0.006282453 -0.009936342
000340 95 1b 50 bc 54 f2 99 bc f7 ab c5 3a ed 38 69 bb
       -0.012701889 -0.018792309 0.0015081157 -0.003558691
000350 f4 0a 5c bc 42 43 83 bc 78 8f e6 bc 4d da 28 ba
       -0.013430346 -0.016023282 -0.028144583 -0.0006441221
000360 4a 10 ad bb ca f4 67 bc 41 62 9b bc 22 31 e6 bc
       -0.005281483 -0.014157483 -0.01896775 -0.0280996
000370 e7 61 1e bc 8c ef 67 bc 2f fb 49 bc 68 47 66 bc
       -0.009666896 -0.0141562335 -0.012327953 -0.0140551105
000380 19 3d ae bc 28 62 c9 3b a2 d3 9e 3b 5f ae 7a 3b
       -0.021269368 0.0061457343 0.004847006 0.0038250906
000390 9b 44 57 3a 65 a6 f6 39 19 71 a9 3b b8 10 bc 3b
       0.0008211822 0.0004704475 0.005170953 0.0057392977
0003a0 cc e5 1e 3b 3d 89 89 3b ed 76 90 3b 62 af 6c 3b
       0.0024245856 0.0041972683 0.0044087083 0.0036115278
0003b0 2f 3f c6 3b fb 46 b7 3b dc 12 77 3b 92 f2 a4 3b
       0.0060500125 0.0055931783 0.003770045 0.0050337994
0003c0 78 3c 8f 3a 23 20 d9 3a 28 30 cb 3b 36 ee d3 3b
       0.0010928055 0.0016565364 0.006200809 0.006467606
0003d0 93 34 22 3b b4 a3 82 b9 0c e8 d1 ba 62 7e c5 ba
       0.0024750575 -0.000249175 -0.001601459 -0.0015067572
0003e0 70 ed 8c 39 fa eb 8e 3a
       0.00026879786 0.0010904067

exp_avg_sq f4 [10, 1, 5, 5]
000000 db 25 74 3a b6 5c 4d 3a c1 eb 40 3a d1 a2 35 3a
       0.0009313502 0.00078339444 0.0007359349 0.00069288636
000010 2c 39 3f 3a cb 80 62 3a 97 18 2f 3a b5 5a 0e 3a
       0.0007294591 0.00086404075 0.00066793844 0.00054303865
000020 f9 58 f4 39 1f 80 29 3a 3f 40 46 3a dc 16 0e 3a
       0.00046605596 0.000646593 0.0007562674 0.00054202764
000030 e7 1b e6 39 ea 72 1b 3a b9 cd 42 3a ea 39 1d 3a
       0.00043889807 0.00059299043 0.0007431168 0.00059977046
000040 72 1f fe 39 ad 3e 0f 3a d7 ca 2c 3a d5 e3 3b 3a
       0.00048470084 0.00054643565 0.0006591505 0.00071674335
000050 9a e0 20 3a 0f 52 08 3a e4 fa 07 3a a0 b7 0c 3a
       0.0006136984 0.0005200216 0.0005187227 0.00053679384
000060 cf a4 24 3a 84 88 2a 3a 57 9b 3a 3a 6c 4e 18 3a
       0.0006280662 0.0006505328 0.00071184844 0.00058100256
000070 54 e5 31 3a 32 f7 59 3a 13 68 4b 3a 39 24 2d 3a
       0.0006786187 0.0008314728 0.0007759344 0.0006604824
000080 3d 58 0a 3a ef 3c 49 3a 0b f6 5f 3a fd 4f 38 3a
       0.0005277431 0.00076766213 0.0008543438 0.0007030962
000090 24 1c ff 39 ff ed 2d 3a 34 6f 56 3a 96 fd 61 3a
       0.00048658357 0.00066348905 0.00081800227 0.0008620856
0000a0 4a 5c 24 3a f9 d1 18 3a 18 43 45 3a 53 85 65 3a
       0.00062698557 0.0005829628 0.00075249514 0.00087555236
0000b0 aa 0a 6d 3a d8 0f 36 3a 25 a6 42 3a da 17 61 3a
       0.00090424216 0.000694511 0.000742527 0.0008586623
0000c0 f9 15 73 3a 28 cb 74 3a cd c3 50 3a f7 dd 60 3a
       0.00092729885 0.0009338134 0.0007963747 0.0008577997
0000d0 52 be 7a 3a cc 0f 70 3a 36 85 5f 3a ff 0d 71 3a
       0.0009565103 0.00091576274 0.0008526625 0.0009195506
0000e0 d6 9f 89 3a 24 13 78 3a 1e e0 56 3a 1f c0 4b 3a
       0.0010499905 0.00094633014 0.0008196848 0.0007772464
0000f0 a5 9f 8a 3a 6a 43 80 3a b5 84 40 3a 24 55 3c 3a
       0.0010576142 0.0009785716 0.00073439936 0.0007184318
000100 ae 8a 38 3a 9a 1b 84 3a ed 32 55 3a c8 4d 35 3a
       0.0007039708 0.0010079027 0.00081328937 0.00069161924
000110 f7 c7 2f 3a 5e be 2c 3a 39 bd 82 3a cd dc 55 3a
       0.00067055173 0.0006589646 0.0009974606 0.0008158207
000120 40 8e 3c 3a c1 12 3f 3a fd eb 5c 3a 9d 07 b4 3a
       0.0007192828 0.00072888663 0.0008427499 0.0013735179
000130 99 c8 a3 3a 53 e2 84 3a cf 22 77 3a c5 22 89 3a
       0.0012495696 0.0010138251 0.0009427489 0.0010462633
000140 09 d9 a6 3a 67 e8 84 3a 72 0a 55 3a ff 87 51 3a
       0.0012729476 0.0010140062 0.00081268616 0.0007992982
000150 42 1f 72 3a 04 f8 92 3a cc ce 62 3a 8d 74 3f 3a
       0.0009236225 0.001121283 0.0008652031 0.0007303439
000160 95 14 41 3a dd 3c 80 3a d4 fb 87 3a 47 dc 59 3a
       0.00073654327 0.0009783764 0.0010374733 0.0008310717
000170 35 7e 4e 3a d5 7b 6c 3a 85 7f a1 3a 4e b3 8c 3a
       0.00078770827 0.0009021138 0.0012321329 0.0010734589
000180 6b b5 75 3a b1 81 7c 3a ba 46 98 3a de 69 c4 3a
       0.00093730417 0.00096323626 0.0011617758 0.0014985164
000190 d0 c2 50 3a 54 68 5a 3a 44 34 61 3a 13 0a 84 3a
       0.00079635996 0.0008331586 0.0008590857 0.0010073803
0001a0 87 ff ab 3a ba 1f 38 3a a5 cd 3e 3a 47 b7 1c 3a
       0.0013122418 0.00070237706 0.0007278568 0.0005978238
0001b0 0b 72 6f 3a 34 30 ae 3a 59 32 2c 3a ca 24 3d 3a
       0.000913412 0.0013289512 0.00065687817 0.000721526
0001c0 bc 74 30 3a 76 39 72 3a 43 18 af 3a ab 43 2c 3a
       0.0006731262 0.000924013 0.0013358671 0.00065713626
0001d0 da 28 52 3a 3c 82 68 3a eb 5d 8f 3a 48 63 ba 3a
       0.00080169516 0.0008869504 0.0010938024 0.0014220262
0001e0 93 e2 32 3a 97 7c 5f 3a 81 62 87 3a 14 7c a2 3a
       0.00068239233 0.000852534 0.0010329039 0.0012396597
0001f0 e7 63 ca 3a 62 a4 ac 3a cf 22 84 3a b3 4e 5b 3a
       0.001544115 0.0013171548 0.0010081175 0.0008365914
000200 f8 b7 6c 3a b6 87 74 3a 3d f3 8f 3a d6 4c 55 3a
       0.0009030099 0.0009328084 0.0010982525 0.00081367546
000210 f7 d2 3f 3a 8f 06 5e 3a 8d bd 72 3a 72 8b 73 3a
       0.0007317508 0.0008469605 0.00092598127 0.00092904933
000220 3d 80 3d 3a f2 d7 2b 3a 95 2e 3e 3a 2f 5e 62 3a
       0.0007228887 0.00065553107 0.0007254866 0.000863525
000230 9c f6 53 3a 9c 79 2b 3a f0 c0 20 3a 6c 24 33 3a
       0.0008085759 0.00065412535 0.00061322656 0.00068337354
000240 d7 1e 68 3a c5 a3 2c 3a c2 9b 13 3a 45 2e 27 3a
       0.0008854693 0.0006585683 0.00056308147 0.0006377439
000250 32 15 43 3a 63 4b 73 3a db 9c 3b 3a 85 4c 45 3a
       0.0007441818 0.0009280948 0.0007156857 0.0007526356
000260 dc e4 54 3a 46 87 57 3a 92 af 55 3a 70 37 59 3a
       0.0008121261 0.00082217564 0.0008151467 0.0008286154
000270 9e b0 6b 3a d3 3d 66 3a 50 a6 48 3a ff 92 43 3a
       0.00089908566 0.0008783016 0.0007654177 0.0007460564
000280 1f 7d 69 3a a3 7c 66 3a ec 15 48 3a e4 54 25 3a
       0.0008906889 0.0008792376 0.0007632661 0.00063069
000290 b7 6f 35 3a 28 9a 52 3a da de 40 3a 45 8b 2a 3a
       0.0006921249 0.00080338353 0.0007357426 0.0006505738
0002a0 47 19 22 3a 48 01 48 3a fb 96 40 3a 8a 60 2f 3a
       0.0006183576 0.00076295855 0.00073467166 0.00066901057
0002b0 7a e6 28 3a 9c 8e 3c 3a c3 ef 55 3a 76 65 2f 3a
       0.0006443035 0.00071928813 0.00081610325 0.0006690839
0002c0 6c 87 18 3a d6 b1 1a 3a 66 01 3c 3a 02 76 49 3a
       0.0005818519 0.00059011334 0.0007171839 0.0007685126
0002d0 fe c4 33 3a 57 d6 25 3a 4b b4 1c 3a 99 bf 39 3a
       0.0006857662 0.00063261896 0.00059777935 0.000708574
0002e0 78 5f 4d 3a 8e b4 46 3a fa b3 30 3a 88 37 1c 3a
       0.00078343553 0.00075800053 0.0006740686 0.00059592025
0002f0 dd d9 28 3a 33 a9 52 3a ea 6f 38 3a dd ff 2e 3a
       0.00064411556 0.0008036077 0.00070357195 0.00066757
000300 69 57 26 3a b1 aa 2e 3a ee 3c 52 3a f4 70 33 3a
       0.00063454226 0.0006663008 0.00080199435 0.00068451394
000310 86 d2 37 3a 5d 9d 39 3a 26 8f 4a 3a b3 d4 55 3a
       0.00070122664 0.0007080639 0.0007727019 0.0008157
000320 2b ab 78 3b 07 e4 72 3b bc 84 6e 3b b6 6e 65 3b
       0.003794382 0.0037062184 0.0036395034 0.0035008616
000330 82 a4 61 3b 00 2d 75 3b c7 5c 89 3b 15 c5 93 3b
       0.003443033 0.0037410855 0.004191968 0.004509578
000340 9a b3 8a 3b 54 17 82 3b 61 f5 6f 3b 9b c2 81 3b
       0.004232836 0.003970066 0.0036614763 0.0039599664
000350 67 8e 8b 3b 4a 4e 85 3b c9 d1 7a 3b d4 a2 51 3b
       0.004258919 0.0040681707 0.0038272014 0.0031987922
000360 34 55 54 3b e5 90 51 3b fe 78 56 3b f6 44 61 3b
       0.0032399418 0.0031977233 0.0032725926 0.003437338
000370 4e b2 44 3b dd f3 3e 3b bc 8f 3b 3b 4d d2 45 3b
       0.0030013504 0.0029137053 0.0028619608 0.0030185163
000380 ed 78 54 3b 05 5e 22 3a 5b d4 25 3a a3 27 0b 3a
       0.003242071 0.00061938196 0.0006325894 0.00053083355
000390 a3 cf 1a 3a 2e 9c 2b 3a 4c 87 12 3a 8a 00 02 3a
       0.0005905574 0.0006546405 0.0005589619 0.0004959187
0003a0 17 5e fe 39 2d 36 23 3a 98 77 36 3a 05 cb fa 39
       0.00048516758 0.00062260294 0.000696057 0.00047834977
0003b0 fe a7 de 39 68 a0 14 3a 74 4c 3d 3a db 4f 51 3a
       0.00042468304 0.00056696543 0.000722117 0.00079846167
0003c0 3e 6c e0 39 1f 0b f3 39 f2 a0 39 3a 11 71 6e 3a
       0.00042805256 0.00046356858 0.00070811727 0.00090958277
0003d0 2a 3b 66 3a 4d 27 f3 39 a7 c4 15 3a 4e f5 5e 3a
       0.000878262 0.00046377853 0.00057132024 0.0008505181
0003e0 7f e6 79 3a 94 b4 50 3a
       0.0009532943 0.00079614785

exp_avg f4 [10]
000000 5b af ec ba d6 c8 6a bb 5c 89 6b 3a c4 1d 55 3c
       -0.0018057631 -0.0035825274 0.0008985007 0.013007585
000010 5e 99 f0 ba 01 f6 c8 bb ba 6d 57 3b 14 60 f9 3b
       -0.0018356254 -0.0061328416 0.0032871799 0.0076103304
000020 82 90 7e 3c 4e 84 fa 3a
       0.015537383 0.0019112916

exp_avg_sq f4 [10]
000000 25 36 9b 3a 33 67 96 3a de 30 60 3a 9f 9e 43 3a
       0.0011841698 0.0011474848 0.00085522037 0.0007462296
000010 08 26 e2 3a 3d bb 99 3a b9 69 2f 3a cb 2d a4 3a
       0.0017253766 0.0011728775 0.0006691474 0.0012525854
000020 35 e1 36 3b 02 09 19 3a
       0.002790523 0.0005837829
