checkpoint/model_epoch1.pth (torch, 268573 bytes, 24 tensors)

conv1.weight f4 [10, 1, 5, 5]
-0.22300632 -0.22822613 -0.25046584 -0.26410428 -0.20149167 0.13812083 0.11067976 -0.0805867
0.008418618 -0.21774197 -0.14578374 0.017035639 0.117634796 0.19982238 0.3383013 0.22733158
0.1457051 0.2166603 0.13750428 0.162553 0.121357016 -0.0834518 -0.02475726 -0.14269115
-0.09813649 0.33289355 0.31173038 0.20568298 -0.20508838 -0.09601406 0.27499694 0.30087167
0.07971791 -0.24093996 -0.07873143 0.06717846 -0.10947249 -0.27354622 0.02502728 0.13510081
0.22704399 -0.05403204 -0.14243513 -0.26173624 0.13575096 -0.043883163 -0.10285913 -0.06761047
-0.26240343 -0.2223649 0.019025696 0.030248089 0.1566159 0.07334615 0.14294803 0.1399257
0.18978949 0.056723658 0.19787773 -0.013792899 0.23668842 0.05256346 -0.14201857 -0.06438017
-0.21471813 0.09411901 0.05550178 -0.2823269 -0.16295975 -0.07285866 -0.032053985 -0.2617015
-0.008671872 0.014898795 0.038243704 -0.17146651 -0.022319635 -0.2254214 -0.19265941 -0.14500688
-0.09023021 -0.13468342 -0.05233932 -0.17000753 -0.23596737 -0.15595911 -0.0047897766 -0.25073728
-0.23854539 -0.20059638 -0.20880018 -0.20489454 -0.117635444 -0.05496157 -0.09433067 -0.06571443
-0.1891046 -0.07293364 -0.22061658 0.19421735 0.3107024 0.38457012 -0.022250665 -0.24906741
-0.36163953 0.22020115 0.33319527 0.17769068 -0.33623108 -0.30218273 0.09183694 0.19515617
0.1909325 -0.004462806 -0.17587611 0.028443936 0.19113348 0.1134552 -0.031683367 -0.22398758
0.2088035 0.22959393 0.114379615 -0.17568223 -0.25446007 -0.029520879 -0.10305919 -0.1956525
-0.35879686 -0.38351822 -0.1136927 -0.1697827 -0.17168912 -0.14856039 -0.2458195 0.32660425
0.13686669 -0.033603467 0.015431173 0.035693742 0.17492151 0.027972037 0.34287933 0.112339586
0.17310084 -0.018540446 0.2513312 0.08506529 0.28593782 0.20340917 1.6103724e-05 -0.23326935
0.2666157 0.27636623 0.28069887 -0.15712743 0.12938444 -0.0204842 0.26215932 0.037284695
0.05562579 0.034821026 -0.12582143 -0.16250631 0.18392228 -0.07519141 0.016068246 0.0037295981
-0.25817382 0.10224281 -0.12006233 -0.10902529 -0.31032392 -0.15953656 -0.1764599 -0.12128424
0.27842328 0.3511269 0.24711527 0.17588155 0.17836705 0.19054572 -0.0346186 0.23926847
0.034920204 0.0006849789 -0.1762764 0.07021308 0.21868607 0.31492916 -0.055129174 -0.10630475
-0.2894328 -0.26020372 -0.1584469 -0.20443681 -0.08526234 -0.29595733 -0.31391242 -0.10583194
0.22494903 -0.095768966 -0.20991126 -0.06503555 -0.053265143 0.031869043 0.30748275 0.3454919
0.19096683 0.19121762 0.11326633 -0.0054838653 0.31284168 0.25775284 0.17620268 -0.32730514
-0.25993326 -0.190849 0.012326663 -0.100960605 0.0031674707 -0.27537623 -0.34283996 -0.2650823
-0.26686493 0.19732805 0.34498483 -0.13536167 -0.28328618 0.026679527 0.41159102 0.09775666
-0.06125936 -0.24201834 -0.17237797 0.34892896 -0.059845097 0.1962071 0.08438534 -0.052374523
0.14925435 -0.033816315 -0.09367604 0.1930391 0.101004735 0.18324824 -0.0058716647 0.37811363
0.21142958 0.19703245
00000000: c55b 64be 1cb4 69be 0f3d 80be ad38 87be
00000010: d553 4ebe 8c6f 0d3e 12ac e23d a40a a5bd
00000020: 3eee 093c c0f7 5ebe 5548 15be 538e 8b3c
00000030: 83ea f03d 3d9e 4c3e d435 ad3e 9cc9 683e
00000040: b833 153e 33dc 5d3e eccd 0c3e 4b74 263e
00000050: 078a f83d c7e8 aabd bdcf cabc a11d 12be
00000060: c9fb c8bd 0671 aa3e 209b 9f3e 8f9e 523e
00000070: b002 52be 05a3 c4bd 66cc 8c3e da0b 9a3e
00000080: 2543 a33d f7b8 76be f23d a1bd dc94 893d
00000090: 1d33 e0bd 400e 8cbe 0306 cd3c de57 0a3e
000000a0: 387e 683e b350 5dbd 84da 11be 4b02 86be
000000b0: 4d02 0b3e d5be 33bd cfa7 d2bd 5c77 8abd
000000c0: be59 86be a0b3 63be c7db 9b3c d7ca f73c
000000d0: eb5f 203e 8236 963d f860 123e af48 0f3e
000000e0: 2d58 423e 1157 683d 76a0 4a3e 9dfb 61bc
000000f0: 735e 723e c84c 573d 516d 11be c0d9 83bd
00000100: 12df 5bbe 78c1 c03d d655 633d 278d 90be
00000110: ecde 26be ec36 95bd 0a4b 03bd bdfd 85be
00000120: 7814 0ebc 131a 743c 6ea5 1c3d eb94 2fbe
00000130: abd7 b6bc ded4 66be 8248 45be af7c 14be
00000140: 9eca b8bd 73ea 09be c161 56bd 7416 2ebe
00000150: 6ea1 71be bfb3 1fbe 8ff3 9cbb a360 80be
00000160: 3e45 74be 2369 4dbe b7cf 55be e0cf 51be
00000170: daea f0bd 621f 61bd 7030 c1bd 4995 86bd
00000180: a3a4 41be 3b5e 95bd 50e9 61be eae0 463e
00000190: 6314 9f3e 60e6 c43e 0747 b6bc 870b 7fbe
000001a0: d128 b9be 697c 613e 9298 aa3e 8cf4 353e
000001b0: 7b26 acbe b2b7 9abe 0115 bc3d 05d7 473e
000001c0: cf83 433e bb3c 92bb de18 34be 4203 e93c
000001d0: 7fb8 433e 335b e83d 6bc6 01bd 005d 65be
000001e0: 96d0 553e ac1a 6b3e dc3f ea3d 0be6 33be
000001f0: 9748 82be c5d5 f1bc b210 d3bd 2159 48be
00000200: 39b4 b7be 805c c4be b8d7 e8bd 84db 2dbe
00000210: 46cf 2fbe 3720 18be 1bb8 7bbe ac38 a73e
00000220: c826 0c3e caa3 09bd 08d3 7c3c 9a33 123d
00000230: a01e 333e 9d25 e53c e18d af3e 4c12 e63d
00000240: 5941 313e 22e2 97bc 7cae 803e b636 ae3d
00000250: 7166 923e 7e4a 503e 7c16 8737 29de 6ebe
00000260: da81 883e e07f 8d3e c3b7 8f3e 03e6 20be
00000270: 5b7d 043e 7bce a7bc bf39 863e d6b7 183d
00000280: ded7 633d 7ea0 0e3d 55d7 00be 0e68 26be
00000290: 1f56 3c3e f4fd 99bd 8ea1 833c 466c 743b
000002a0: 5c2f 84be ae64 d13d 3de3 f5bd a748 dfbd
000002b0: c7e2 9ebe 8d5d 23be e7b1 34be df63 f8bd
000002c0: 7f8d 8e3e e8c6 b33e c90b 7d3e 4b1a 343e
000002d0: daa5 363e 6b1e 433e 3ccc 0dbd cb02 753e
000002e0: 7d08 0f3d 2890 333a cd81 34be e0cb 8f3d
000002f0: 3eef 5f3e 653e a13e 21cf 61bd 4eb6 d9bd
00000300: 8930 94be 6c39 85be e73f 22be e257 51be
00000310: 069e aebd b887 97be 21b9 a0be 6bbe d8bd
00000320: 0a59 663e 8522 c4bd faf2 56be 5c31 85bd
00000330: 8d2c 5abd 1d89 023d 616e 9d3e 50e4 b03e
00000340: cf8c 433e 8dce 433e 2df8 e73d ffb1 b3bb
00000350: c92c a03e 2ef8 833e 7a6e 343e 8a94 a7be
00000360: f915 85be ec6d 43be c6f5 493c 6fc4 cebd
00000370: 5795 4f3b 1dfe 8cbe b888 afbe deb8 87be
00000380: 85a2 88be 5d10 4a3e daa1 b03e 409c 0abe
00000390: e30a 91be 068f da3c 0fbc d23e a534 c83d
000003a0: 18eb 7abd a8d3 77be da83 30be d1a6 b23e
000003b0: 2220 75bd 84ea 483e 39d2 ac3d ab86 56bd
000003c0: 22d6 183e fa82 0abd 39d9 bfbd 0bac 453e
000003d0: 92db ce3d 6da5 3b3e 1867 c0bb 1c98 c13e
000003e0: ff80 583e e0c2 493e

conv1.bias f4 [10]
-0.023775605 -0.077081054 0.20029807 0.01555373 0.056467734 0.010422182 -0.02365317 0.054862328
-0.12230281 0.15813142
00000000: 0fc5 c2bc acdc 9dbd f01a 4d3e 12d5 7e3c
00000010: b64a 673d cdc1 2a3c 4bc4 c1bc 52b7 603d
00000020: e579 fabd 34ed 213e

conv2.weight f4 [20, 10, 5, 5]
0.06947875 -0.042592797 0.036622807 0.009432521 0.007909141 0.045737136 0.04867444 -0.020088006
0.03728465 0.052777816 0.0878768 0.019643206 0.03338383 0.09684724 0.13880917 0.023339385
0.047485806 0.040134475 0.18818453 0.1259526 -0.012735273 0.0007016121 -0.015355333 0.008199805
0.03574031 0.09043502 0.042183354 -0.01915535 0.110164836 0.088317685 -0.0086594755 -0.05654241
0.021489657 0.066729926 0.07458427 0.0028331878 -0.01996625 0.043515265 0.088295266 -0.033902355
0.052385982 0.005103063 0.08252494 0.030193895 -0.03202157 -0.023843816 0.04628933 -0.051694717
0.04493107 -0.006070058 0.103947885 -0.02127403 -0.07256327 0.122895434 -0.010830238 0.07405149
-0.07227795 -0.0058897836 0.101997 -0.029388158 -0.015524481 -0.044840224 0.06457998 0.06386151
0.019609801 0.03401701 -0.021443708 0.062250458 0.018175067 0.031209838 -0.005741667 -0.041107234
0.0034410798 -0.018746201 0.033537358 0.072887935 0.061347354 0.032870255 -0.019612312 0.047507085
0.017823387 0.0554225 0.031045754 -0.06542764 -0.008811817 -0.01942338 -0.009576773 -0.0671173
-0.04409259 -0.038801674 -0.04389886 -0.029250143 -0.02893128 0.00492462 0.014680109 -0.094992675
-0.04671359 -0.012564587 0.044130627 0.061686683 0.06705327 0.0034242403 0.008660557 0.06912861
-0.07008773 -0.020143177 -0.03653819 -0.026902549 -0.03774447 -0.069888555 -0.14039591 -0.016394973
-0.019501245 -0.059185017 -0.028155396 -0.058728497 -0.05234986 -0.049769457 -0.0660582 -0.11030069
0.08196253 0.0007086598 -0.03275817 -0.13167022 -0.20351742 -0.024122005 0.02558523 -0.07629118
0.014279404 -0.1075118 -0.0031670523 -0.03696943 0.0200343 0.025710383 0.027328953 0.0144028505
-0.04120143 0.0009959305 0.1421377 0.118115276 -0.0029120042 0.011290657 0.006903921 0.06689566
0.116685435 0.031381093 -0.060958862 0.0010753096 -0.020953383 -0.028510522 -0.07264219 -0.1183425
0.029930677 0.081433095 0.0016507325 -0.19609746 -0.14652896 0.09119805 0.039715417 -0.021655291
-0.10223573 0.03552608 -0.015064881 0.06419126 0.057608526 -0.10942657 0.056260232 0.085992634
0.11283544 0.133746 -0.020339135 0.0041907895 -0.029562715 -0.035976544 0.035009295 -0.047063563
-0.12285919 -0.046246804 -0.045092374 0.0014788348 -0.15372813 -0.2016793 -0.040365007 0.0482756
-0.0032628588 -0.10383842 0.0035210173 0.055981725 0.005615637 0.06189333 -0.0050536813 0.07682389
0.09669872 0.08874764 0.12523822 -0.047017626 0.071531415 0.08802402 0.028675327 -0.043856975
-0.0067696776 -0.07735045 -0.06973862 0.056213483 0.009380049 -0.12890272 -0.1377018 -0.07913463
0.070631415 0.0822106 -0.034822196 0.030038754 0.07947388 0.15181008 0.06937893 -0.042525772
0.10272161 0.17944257 0.2457511 0.23882298 -0.07549969 -0.05397564 0.093973316 0.06338282
0.02430455 0.107021846 0.028894864 -0.10338288 -0.09284122 -0.04696787 -0.03147265 0.006070492
-0.10623163 0.03274742 -0.016322084 -0.022287067 -0.079328366 0.022517012 -0.009244994 0.049048867
0.023493243 -0.14102145 -0.034528784 -0.048729867 0.012186667 0.044437513 0.0022346482 0.013565884
-0.12519075 -0.06458652 0.0070530716 -0.13626131 -0.012581559 -0.040281568 -0.023961363 0.0059412923
00000000: e04a 8e3d c975 2ebd cc01 163d dc8a 1a3c
00000010: 5795 013c dd56 3b3d d95e 473d 9a8f a4bc
00000020: cab7 183d 8d2d 583d c0f8 b33d caea a03c
00000030: 7cbd 083d d957 c63d fe23 0e3e 3d32 bf3c
00000040: 7a80 423d 0c64 243d 72b3 403e b8f9 003e
00000050: 9ba7 50bc 64ec 373a ef94 7bbc 7a58 063c
00000060: 6e64 123d ff35 b93d 74c8 2c3d aeeb 9cbc
00000070: 1a9e e13d e7df b43d 79e0 0dbc 0499 67bd
00000080: 140b b03c b3a9 883d a3bf 983d 01ad 393b
00000090: 4390 a3bc 103d 323d 26d4 b43d 32dd 0abd
000000a0: af92 563d 9837 a73b d602 a93d 3059 f73c
000000b0: 0d29 03bd 1b54 c3bc e199 3d3d d7bd 53bd
000000c0: a409 383d 56e7 c6bb a1e2 d43d e046 aebc
000000d0: 0d9c 94bd 9ab0 fb3d 5071 31bc 4fa8 973d
000000e0: 7606 94bd 16ff c0bb cee3 d03d 6fbf f0bc
000000f0: 655a 7ebc 62aa 37bd 8242 843d d3c9 823d
00000100: bca4 a03c 6c55 0b3d b7aa afbc 56fa 7e3d
00000110: e1e3 943c c6ab ff3c 9824 bcbb 0f60 28bd
00000120: bd83 613b a291 99bc 785e 093d 4546 953d
00000130: 5d47 7b3d f6a2 063d 00aa a0bc ca96 423d
00000140: 5a02 923c b402 633d aa53 fe3c edfe 85bd
00000150: 705f 10bc c81d 9fbc e6e7 1cbc cc74 89bd
00000160: 6f9a 34bd 81ee 1ebd 4bcf 33bd ff9d efbc
00000170: 4b01 edbc b55e a13b d784 703c 858b c2bd
00000180: c056 3fbd b3db 4dbc 51c2 343d 2dab 7c3d
00000190: 3a53 893d 3869 603b 02e5 0d3c 4d93 8d3d
000001a0: 288a 8fbd 4e03 a5bc 12a9 15bd bc62 dcbc
000001b0: f299 1abd bb21 8fbd f2c3 0fbe c04e 86bc
000001c0: 13c1 9fbc fd6b 72bd 25a6 e6bc 4b8d 70bd
000001d0: cf6c 56bd 0fdb 4bbd 8649 87bd 54e5 e1bd
000001e0: f9db a73d 5bc5 393a 6e2d 06bd 8fd4 06be
000001f0: df66 50be 839b c5bc 1e98 d13c 8d3e 9cbd
00000200: 29f4 693c 262f dcbd 528e 4fbb 426d 17bd
00000210: f91e a43c 959e d23c f8e0 df3c eff9 6b3c
00000220: d5c2 28bd e289 823a 8c8c 113e 6ce6 f13d
00000230: 53d7 3ebb 73fc 383c 493a e23b 9700 893d
00000240: c6f8 ee3d 7689 003d 00b0 79bd 67f1 8c3a
00000250: 6ea6 abbc e68e e9bc 6ec5 94bd 8d5d f2bd
00000260: 2e31 f53c 65c6 a63d 645d d83a c6cd 48be
00000270: b00b 16be 0bc6 ba3d a2ac 223d 7066 b1bc
00000280: f760 d1bd cb83 113d b1d2 76bc b576 833d
00000290: ebf6 6b3d 0a1b e0bd 2171 663d e81c b03d
000002a0: 4416 e73d b6f4 083e 429e a6bc e452 893b
000002b0: 822d f2bc 245c 13bd e865 0f3d b9c5 40bd
000002c0: 999d fbbd 4a6d 3dbd c8b2 38bd 76d5 c13a
000002d0: e86a 1dbe 0585 4ebe c755 25bd a3bc 453d
000002e0: b0d5 55bb 3da9 d4bd dec0 663b 184d 653d
000002f0: 6103 b83b dc83 7d3d 5a99 a5bb d855 9d3d
00000300: fa09 c63d 53c1 b53d 733e 003e 8e95 40bd
00000310: 107f 923d f045 b43d 85e8 ea3c 5fa3 33bd
00000320: 2cd4 ddbb ea69 9ebd 1fd3 8ebd 1c40 663d
00000330: c7ae 193c 13ff 03be b301 0dbe 5611 a2bd
00000340: 34a7 903d 085e a83d b8a1 0ebd d513 f63c
00000350: 34c3 a23d 1a74 1b3e 8a16 8e3d 812f 2ebd
00000360: b55f d23d cbbf 373e 2da6 7b3e 038e 743e
00000370: 959f 9abd 9015 5dbd 1575 c03d dace 813d
00000380: 561a c73c 452e db3d ecb4 ec3c 67ba d3bd
00000390: 8a23 bebd 6261 40bd 77e9 00bd faea c63b
000003a0: f88f d9bd 2922 063d e4b5 85bc 5e93 b6bc
000003b0: e976 a2bd 9975 b83c 5178 17bc 77e7 483d
000003c0: e774 c03c ed67 10be 0e6e 0dbd f898 47bd
000003d0: 96aa 473c 1c04 363d 2d73 123b 7143 5e3c
000003e0: 0132 00be f045 84bd 741d e73b 1688 0bbe
000003f0: e222 4ebc 49fe 24bd 9f4a c4bc 2caf c23b

conv2.bias f4 [20]
-0.014060618 0.021028142 -0.011253591 -0.047975793 -0.046445824 0.030625718 -0.01797559 0.05604598
0.050747246 0.041489404 0.004235231 0.0071128816 0.07808373 -0.008233161 0.03081661 -0.01940817
-0.04137729 0.007038059 -0.025451621 0.024305347
00000000: 825e 66bc 3643 ac3c fb60 38bc 4482 44bd
00000010: fa3d 3ebd c9e2 fa3c 8b41 93bc 7890 653d
00000020: 58dc 4f3d cbf0 293d b1c7 8a3b 2d13 e93b
00000030: 5dea 9f3d 61e4 06bc 1e73 fc3c e2fd 9ebc
00000040: 3c7b 29bd 859f e63b eb7f d0bc 021c c73c

fc1.weight f4 [50, 320]
-0.079282135 0.0039464827 -0.08009004 -0.011418634 0.059450723 0.007026971 -0.1160865 -0.0803716
0.017336011 0.05827031 0.008061514 0.11839246 -0.0030156244 -0.0011733333 0.03525804 0.046255413
0.04566052 0.011879551 -0.0003679478 -0.026148545 0.049979694 -0.023617959 -0.082030654 -0.11386434
-0.08151899 0.047794443 0.027048735 -0.06367409 -0.01884855 0.047288127 0.0706806 -0.06048908
-0.06892372 -0.026646992 -0.0023576189 -0.121960096 -0.085319154 -0.03224779 0.0021030812 -0.03671971
0.05617568 0.037289448 -0.027237197 0.0024918015 0.0003567199 0.032222234 -0.037151773 -0.04128173
0.08954747 0.029291246 -0.0634754 -0.012795136 0.018597316 0.024742117 0.016196478 0.057419855
0.013341303 0.007579713 -0.09200892 0.11804465 0.035236802 -0.051686697 -0.0142330825 0.015186097
-0.08870318 -0.072235554 0.01583774 -0.009435398 -0.047641482 -0.098612465 -0.06376768 -0.035028342
-0.00072479964 0.010272507 0.0422052 -0.046568245 -0.026570251 0.051543146 0.020690367 0.008672232
0.030992894 0.020757956 0.036959417 -0.12937653 -0.109592795 -0.052923687 -0.014829705 0.014377615
0.04722199 0.08003544 -0.0019528668 -0.03487091 0.061438166 -0.0039821006 -0.006820011 -0.09943083
-0.041967053 -0.06515174 -0.12242243 0.021611666 0.002769301 -0.0299722 -0.045267683 0.04771058
0.008149616 0.044579003 -0.00059846905 0.03532373 0.0025549447 -0.0779505 -0.0061978647 0.05835501
-0.0551185 0.036101624 0.0020861777 -0.07689803 -0.0067502083 -0.02319868 -0.07094424 -0.06326239
0.099031664 0.04817214 -0.0034896983 -0.027834758 0.020089429 0.020332254 0.049166523 -0.112487406
-0.09534335 -0.013345849 -0.015045163 -0.114496365 0.015381674 -0.034088496 -0.0066056517 0.011852283
0.07817115 0.032392923 0.0071209227 0.05157004 0.038793147 -0.019988447 -0.036159415 -0.04744823
-0.07066869 0.009145916 -0.015835121 0.037512224 0.050572895 0.05982998 -0.025906948 0.038230594
0.11317281 -0.062061306 -0.09072803 0.06263078 0.047081094 0.0037014773 -0.042569295 -0.047952134
-0.017126339 0.006899527 0.09892582 0.019540766 0.02513135 -0.038061474 0.047450732 0.02191965
0.024514917 -0.06983334 0.033702374 0.009292676 -0.050558884 -0.02645773 -0.06323762 -0.074543975
-0.07409667 -0.07074257 -0.095394716 -0.011942856 -0.032888368 0.009635879 -0.016199917 0.048513792
0.06590551 0.09563819 -0.06755996 0.020833066 0.04546991 0.049410895 -0.042375073 -0.028110398
-0.07863094 -0.021363404 0.027160933 0.09504695 -0.0017562923 -0.006797331 -0.016984673 0.09932495
0.07522766 0.016766649 0.016756 -0.07942001 0.016678302 -0.06945029 -0.07287893 0.017239654
0.00014519993 -0.01703274 -0.0025711593 -0.06461955 0.010898801 0.046653137 0.038505327 0.019378424
0.057131667 -0.11473223 -0.006037695 0.10845196 -0.034190644 -0.05619198 0.03728345 0.0682509
-0.14467983 -0.09800927 -0.060650013 -0.04437633 0.046889514 0.034326833 -0.03877171 -0.031041559
0.008763208 0.03862811 0.048865344 0.10882091 0.041778047 -0.09074425 -0.0006918116 0.064776674
-0.012462196 0.03993012 0.03608958 0.049338453 0.053081825 0.026722578 0.02766881 0.07221926
-0.03471563 -0.08875911 0.048841834 0.11215233 -0.09379474 -0.0053594937 -0.042163186 -0.023351062
00000000: ac5e a2bd 7f51 813b 3f06 a4bd 3915 3bbc
00000010: 9a82 733d 8142 e63b c2be edbd de99 a4bd
00000020: 4004 8e3c d9ac 6e3d 7114 043c bf77 f23d
00000030: c8a1 45bb 88ca 99ba bc6a 103d 5176 3d3d
00000040: 8706 3b3d 73a2 423c 1ee9 c0b9 7935 d6bc
00000050: 82b7 4c3d 737a c1bc b0ff a7bd b531 e9bd
00000060: 6ef3 a6bd 1bc4 433d 4f95 dd3c 9067 82bd
00000070: 4668 9abc 32b1 413d fec0 903d 66c3 77bd
00000080: e127 8dbd cb4a dabc 4882 1abb 37c6 f9bd
00000090: cfbb aebd 4216 04bd d9d3 093b 6867 16bd
000000a0: 7818 663d d2bc 183d 8b20 dfbc 7e4d 233b
000000b0: 2206 bb39 76fb 033d 752c 18bd 0817 29bd
000000c0: aa64 b73d 32f4 ef3c 64ff 81bd b1a2 51bc
000000d0: 6659 983c fbaf ca3c 7aae 843c 1531 6b3d
000000e0: 7b95 5a3c 3e5f f83b 2c6f bcbd 65c1 f13d
000000f0: 7754 103d 6eb5 53bd e031 69bc 1bcf 783c
00000100: 03aa b5bd 3cf0 93bd 26be 813c ed96 1abc
00000110: b723 43bd 55f5 c9bd a198 82bd e179 0fbd
00000120: 7b00 3eba 044e 283c 5cdf 2c3d 58be 3ebd
00000130: dba9 d9bc e81e 533d d87e a93c fa15 0e3c
00000140: cfe4 fd3c 970c aa3c c262 173d 487b 04be
00000150: 3072 e0bd 82c6 58bd 4af8 72bc 1790 6b3c
00000160: d86b 413d 9fe9 a33d 56f7 ffba cdd4 0ebd
00000170: 96a6 7b3d 487c 82bb 667a dfbb 64a2 cbbd
00000180: a5e5 2bbd 476e 85bd 9cb8 fabd f30a b13c
00000190: 297d 353b 4288 f5bc 9b6a 39bd 2b6c 433d
000001a0: f885 053c 7998 363d 94e2 1cba 9eaf 103d
000001b0: dc70 273b 83a4 9fbd 7517 cbbb aa05 6f3d
000001c0: f0c3 61bd 4cdf 133d 41b8 083b b77c 9dbd
000001d0: da30 ddbb 280b bebc 374b 91bd b68f 81bd
000001e0: 1dd1 ca3d 2650 453d 6cb3 64bb b805 e4bc
000001f0: 9692 a43c d48f a63c d662 493d cc5f e6bd
00000200: 6043 c3bd 8ca8 5abc fd7f 76bc 127d eabd
00000210: 6b03 7c3c 61a0 0bbd 3974 d8bb 1430 423c
00000220: 3218 a03d 71ae 043d a156 e93b 1b3b 533d
00000230: 90e5 1e3d d0be a3bc e51b 14bd 1359 42bd
00000240: bfba 90bd c1d8 153c a8b8 81bc 6ba6 193d
00000250: 8625 4f3d 4810 753d cf3a d4bc af97 1c3d
00000260: 25c7 e73d ff33 7ebd 9ecf b9bd 9144 803d
00000270: 1bd8 403d 7c94 723b 245d 2ebd 7569 44bd
00000280: 894c 8cbc 6d15 e23b 9f99 ca3d f513 a03c
00000290: 43e0 cd3c 59e6 1bbd b35b 423d d690 b33c
000002a0: 82d3 c83c c804 8fbd 800b 0a3d 4f40 183c
000002b0: d516 4fbd e2bd d8bc ba82 81bd 83aa 98bd
000002c0: ffbf 97bd 7be1 90bd 4e5e c3bd f8ab 43bc
000002d0: f4b5 06bd cedf 1d3c b0b5 84bc 66b6 463d
000002e0: 78f9 863d f5dd c33d e05c 8abd 1baa aa3c
000002f0: a83e 3a3d 1463 4a3d 7c91 2dbd c747 e6bc
00000300: 4209 a1bd 4e02 afbc 9b80 de3c faa7 c23d
00000310: 6433 e6ba 25bc debb 7123 8bbc e16a cb3d
00000320: f610 9a3d 365a 893c e143 893c f5a6 a2bd
00000330: efa0 883c f43b 8ebd 8c41 95bd 2d3a 8d3c
00000340: cf40 1839 3f88 8bbc e580 28bb 4157 84bd
00000350: e290 323c 5c17 3f3d c3b7 1d3d 80bf 9e3c
00000360: e502 6a3d bbf8 eabd dbd7 c5bb 101c de3d
00000370: 7d0b 0cbd 9029 66bd 88b6 183d 21c7 8b3d
00000380: f326 14be 16b9 c8bd 266c 78bd f4c3 35bd
00000390: 380f 403d 4b9a 0c3d 16cf 1ebd de4a febc
000003a0: 8f93 0f3c 8238 1e3d 0727 483d 7fdd de3d
000003b0: 751f 2b3d 1fd8 b9bd b15a 35ba a2a9 843d
000003c0: 3d2e 4cbc c48d 233d abd2 133d 1e17 4a3d
000003d0: 546c 593d 4fe9 da3c b3a9 e23c b1e7 933d
000003e0: fa31 0ebd 56c7 b5bd 600e 483d 1fb0 e53d
000003f0: 7517 c0bd b19e afbb 4eb3 2cbd ba4a bfbc

fc1.bias f4 [50]
-0.01848806 0.04358096 0.071002774 -0.04243916 0.05017514 -0.009975236 0.10471003 -0.028333
-0.042817157 0.03871051 0.07164278 0.060229458 -0.013280569 0.055271693 -0.011693906 0.06713624
0.10965876 -0.030254308 0.016198065 0.039035972 0.03224357 0.05767853 -0.0037928345 0.061308663
-0.048725266 0.019897474 0.049466386 0.03991179 -0.036934454 -0.009912204 0.008301671 0.025610492
-0.0037047523 -0.022740908 0.05679135 0.02555321 0.035251006 -0.023204973 0.01684376 0.025820978
0.044735905 0.080442645 0.060946852 0.1193994 0.0063195187 0.027922785 0.028915083 0.061550893
0.06302593 0.11293953
00000000: 4674 97bc f381 323d e769 913d afd4 2dbd
00000010: 7384 4d3d 2c6f 23bc 3672 d63d 9c1a e8bc
00000020: 0b61 2fbd e98e 1e3d 73b9 923d 2ab3 763d
00000030: be96 59bc 9264 623d cc97 3fbc ba7e 893d
00000040: c694 e03d e2d7 f7bc ceb1 843c 2fe4 1f3d
00000050: d511 043d 5340 6c3d 3491 78bb cb1e 7b3d
00000060: 2594 47bd 0700 a33c 449d 4a3d 8c7a 233d
00000070: 9548 17bd cc66 22bc bb03 083c 18cd d13c
00000080: 6ecb 72bb 244b babc 0c9e 683d f754 d13c
00000090: 5c63 103d 5b18 bebc edfb 893c 8486 d33c
000000a0: ff3c 373d 1dbf a43d 68a3 793d ac87 f43d
000000b0: f713 cf3b 53be e43c 53df ec3c ca1c 7c3d
000000c0: bd13 813d d74c e73d

fc2.weight f4 [10, 50]
0.11932832 0.1792234 -0.099773444 -0.17290907 0.00995771 0.07831666 -0.13468745 -0.20278168
-0.05860101 0.07327562 -0.06816436 -0.1759217 -0.22241431 -0.20245738 0.08596264 -0.2955477
-0.15940905 -0.26578286 0.12839593 0.15522306 -0.26670897 0.05025909 0.07233405 -0.019320901
0.023104666 -0.031165246 -0.18559599 -0.06933534 -0.22703665 0.07385644 0.15620293 0.13693795
0.10884236 -0.20255366 -0.05917502 0.11124727 -0.1831725 -0.037322596 0.09445457 0.016854439
-0.14790334 0.010104189 -0.24311844 -0.14276047 0.09277098 0.124158755 -0.29181015 -0.23029076
0.13439865 -0.0339886 -0.17426181 -0.05263091 0.044153154 -0.1742996 0.02775212 -0.20032816
0.10456879 -0.09149744 -0.12613428 -0.18372656 -0.10130141 0.072487004 -0.16856956 0.18171732
-0.1991225 0.093029425 0.17087847 -0.20124376 -0.073274784 -0.26505494 0.10421852 0.030697638
-0.082637295 0.11654042 -0.04978772 -0.09920212 -0.13876317 -0.21697573 -0.058449745 -0.20207293
0.12891498 -0.19308375 -0.13823146 -0.2325514 0.17137711 -0.13698956 0.12758979 -0.24062711
-0.25009426 0.12296175 0.074693166 0.099429116 0.10395272 0.114941664 0.11898514 0.09834032
0.07733374 0.0696221 -0.050157096 0.19487646 0.07872886 0.1867996 -0.121816695 -0.09754991
-0.071632184 0.053488273 0.0910916 0.12138194 0.09879879 0.032524426 -0.18189773 0.11819503
-0.0026301309 -0.11570819 -0.12640451 -0.13447031 -0.10010865 -0.05946184 -0.028211085 -0.07006393
-0.16053493 0.0976581 -0.17507227 0.10439461 -0.013332123 -0.0077401167 0.006611899 -0.1589736
0.083335444 -0.008334728 0.13047852 -0.06436982 0.13558732 -0.12554707 0.19365461 -0.012238959
-0.1272255 0.008685014 -0.0110295545 -0.10965368 0.1011617 0.13020612 -0.23494118 0.13880266
0.12307155 0.08906558 -0.27035055 -0.093679644 -0.08981172 -0.14299081 0.016307194 -0.04589548
-0.11716999 0.0873957 -0.12984756 -0.19210345 -0.22646724 0.12840636 0.037575528 0.051393304
-0.12536432 0.08415989 0.15258655 -0.20575184 0.048917912 0.10053435 -0.18788917 0.13805185
-0.04214969 -0.17072138 -0.081483096 0.08871056 -0.10574527 -0.15697989 0.11680441 -0.10210008
-0.15651272 -0.1373807 0.076683745 0.11604677 -0.12881711 -0.14693896 0.12842563 -0.011239611
0.012132916 0.06267742 0.12703487 -0.104986824 -0.122416735 -0.040202595 0.07538696 -0.10491522
-0.09387106 -0.055354036 0.11501976 0.10122726 -0.017293865 0.12577285 -0.0065699467 -0.09448709
0.12721646 -0.08091787 -0.149663 -0.08713342 0.15990183 0.10016788 0.025036119 0.10860609
0.10947455 -0.3065796 0.08969127 -0.21481621 0.03634953 0.19300582 -0.049256317 -0.11389191
0.030439252 0.10686031 -0.12612727 -0.19882733 0.07621031 -0.1737385 -0.24819036 0.11721569
0.039691024 0.19096546 0.1746304 0.11111566 0.036623515 -0.09844776 0.035922676 -0.10446547
0.04069747 0.09116948 -0.026992528 -0.18612564 0.10752503 0.066454075 -0.12558332 -0.15334442
-0.091960095 -0.09828105 0.056000836 -0.21652693 -0.17943309 -0.19673753 0.090394445 -0.108619615
0.06264557 -0.07484233 -0.09711094 0.01513997 -0.1774193 0.12245987 0.0977926 -0.17367889
00000000: 6862 f43d 5786 373e 0556 ccbd 130f 31be
00000010: aa25 233c 7c64 a03d 82eb 09be 00a6 4fbe
00000020: 9d07 70bd 8711 963d c299 8bbd d124 34be
00000030: 94c0 63be fd50 4fbe 2e0d b03d 0752 97be
00000040: 203c 23be b114 88be 397a 033e cbf2 1e3e
00000050: 148e 88be 7adc 4d3d e023 943d de46 9ebc
00000060: ff45 bd3c 424e ffbc e00c 3ebe b0ff 8dbd
00000070: 4c7c 68be 0c42 973d a9f3 1f3e 7639 0c3e
00000080: bee8 de3d 3a6a 4fbe 8161 72bd 9cd5 e33d
00000090: 9291 3bbe 94df 18bd 6671 c13d 5212 8a3c
000000a0: f973 17be 0a8c 253c 0af4 78be cd2f 12be
000000b0: b6fe bd3d f246 fe3d 2468 95be 57d1 6bbe
000000c0: cd9f 093e a137 0bbd b071 32be 8293 57bd
000000d0: f0d9 343d 987b 32be 6a58 e33c d322 4dbe
000000e0: 2928 d63d 0363 bbbd 5829 01be d122 3cbe
000000f0: 1d77 cfbd 1174 943d 809d 2cbe 1b14 3a3e
00000100: c5e6 4bbe 3686 be3d c4fa 2e3e d812 4ebe
00000110: 1711 96bd 48b5 87be 8570 d53d 9d79 fb3c
00000120: be3d a9bd beac ee3d 35ee 4bbd 7b2a cbbd
00000130: ef17 0ebe e32e 5ebe 0069 6fbd 35ec 4ebe
00000140: 4a02 043e bfb7 45be 8c8c 0dbe f421 6ebe
00000150: 7b7d 2f3e fe46 0cbe e6a6 023e f466 76be
00000160: 5b0c 80be 5fd3 fb3d bbf8 983d 7ea1 cb3d
00000170: 2ae5 d43d 8966 eb3d 7bae f33d a666 c93d
00000180: 2761 9e3d 0896 8e3d 8771 4dbd b28d 473e
00000190: 993c a13d 6548 3f3e 087b f9bd 3fc8 c7bd
000001a0: e5b3 92bd 8516 5b3d 3c8e ba3d 1897 f83d
000001b0: 0557 ca3d 5538 053d 6643 3abe 3c10 f23d
000001c0: 465e 2cbb 6af8 ecbd 2f70 01be 96b2 09be
000001d0: c405 cdbd 428e 73bd ef1a e7bc ad7d 8fbd
000001e0: 4563 24be f800 c83d 2546 33be d7cc d53d
000001f0: fa6e 5abc cea0 fdbb a1a8 d83b fac9 22be
00000200: c6ab aa3d 628e 08bc 299c 053e 53d4 83bd
00000210: 67d7 0a3e 698f 00be 654d 463e ea85 48bc
00000220: 6747 02be 974b 0e3c 4eb5 34bc 1c92 e0bd
00000230: de2d cf3d c154 053e 6c94 70be 4922 0e3e
00000240: f00c fc3d 0468 b63d 636b 8abe 1ddb bfbd
00000250: 35ef b7bd 2f6c 12be aa96 853c e6fc 3bbd
00000260: d2f6 efbd 84fc b23d c2f6 04be c4b6 44be
00000270: 07e7 67be f57c 033e cce8 193d c981 523d
00000280: 815f 00be 055c ac3d a63f 1c3e 9cb0 52be
00000290: 265e 483d f4e4 cd3d 0566 40be 775d 0d3e
000002a0: 27a5 2cbd 96d1 2ebe 9ce0 a6bd e2ad b53d
000002b0: fa90 d8bd 56bf 20be 2737 ef3d d919 d1bd
000002c0: df44 20be 87ad 0cbe 5e0c 9d3d eea9 ed3d
000002d0: a2e8 03be 2b77 16be 0282 033e 5826 38bc
000002e0: 23c9 463c 055d 803d 6e15 023e 5503 d7bd
000002f0: a0b5 fabd 7aab 24bd 7a64 9a3d cadd d6bd
00000300: 783f c0bd eaba 62bd 7b8f eb3d 3d50 cf3d
00000310: ddab 8dbc 99ca 003e b548 d7bb 7382 c1bd
00000320: 0845 023e 45b8 a5bd 4241 19be 0273 b2bd
00000330: 4ebd 233e d124 cd3d 8c18 cd3c df6c de3d
00000340: 3134 e03d 00f8 9cbe 0eb0 b73d c8f8 5bbe
00000350: 3fe3 143d 51a3 453e fec0 49bd 2940 e9bd
00000360: bd5b f93c 94d9 da3d 8227 01be 6499 4bbe
00000370: 2714 9c3d 81e8 31be 9d25 7ebe c80e f03d
00000380: 0e93 223d 738c 433e 50d2 323e 9b90 e33d
00000390: 8a02 163d fb9e c9bd a823 133d fef1 d5bd
000003a0: 64b2 263d 10b7 ba3d 6f1f ddbc b897 3ebe
000003b0: 1536 dc3d 1319 883d ea98 00be 5206 1dbe
000003c0: 9355 bcbd 9347 c9bd 2261 653d 3cb9 5dbe
000003d0: 4fbd 37be 9075 49be b920 b93d f673 debd
000003e0: 524c 803d ef46 99bd 1ae2 c6bd a30d 783c
000003f0: 68ad 35be 3ecc fa3d 7d47 c83d e1d8 31be

fc2.bias f4 [10]
-0.0328229 0.16771297 -0.17243125 0.05425139 -0.03435074 0.101021536 0.11152497 -0.07511229
-0.024245871 -0.053542998
00000000: 4e71 06bd f3bc 2b3e d191 30be b536 5e3d
00000010: 5db3 0cbd 61e4 ce3d 3467 e43d 79d4 99bd
00000020: 479f c6bc e74f 5bbd

exp_avg f4 [10, 1, 5, 5]
-6.9156704e-05 0.00096217054 0.004413418 0.009777442 0.011295252 -0.0032294686 0.00081343745 0.0055485205
0.009277143 0.008628692 -0.0031950101 -0.0002521452 0.0018008066 0.0027307617 0.0018328297 -0.0036682263
0.00019816792 -0.0017501825 -0.0028614528 -0.003998354 -0.0031880895 -0.00048026597 -0.00075396907 -0.0026623518
-0.0019112414 -0.0035545113 -0.005256636 -0.0054230606 -0.006271645 -0.0058097015 -0.006376313 -0.0078097656
-0.0079665575 -0.008766888 -0.0070444336 -0.008927467 -0.008579088 -0.006236362 -0.006259147 -0.006746508
-0.010788978 -0.0057956027 -0.003769414 -0.0049894145 -0.005994169 -0.008089059 -0.0028322393 -0.0028649657
-0.004777513 -0.00453711 -0.0009409155 -0.002609283 -0.0037904007 -0.0065604583 -0.0056507075 -0.0010490079
-0.0046166065 -0.007156844 -0.0077079064 -0.0057541914 -0.0034776425 -0.004215381 -0.00480396 -0.0039237654
-0.003031469 -0.003935872 -0.00067590125 0.0015506155 -0.0004738546 -0.0019505098 -0.0020556215 0.0036673795
0.003126693 -0.00026815108 -2.5081754e-05 -0.005381247 -0.0055603534 -0.0047886795 -0.0042589367 -0.0028270748
-0.005131665 -0.0035279905 -0.0032274358 -0.0029468974 -0.0034596536 -0.0039867517 -0.002855659 -0.0026985572
-0.0032655133 -0.004692343 -0.0021635261 -0.0021083995 -0.002745535 -0.0041538305 -0.0061278204 -0.0004380299
-0.00042241058 -0.00217199 -0.0029120375 -0.0048252135 0.003657298 0.0003057933 -0.0032179442 -0.0020674858
-0.0032486843 0.0023557772 -0.0009844424 -0.0034421259 -0.0028485807 -0.0023803848 -0.0025161777 -0.002476409
0.00027886935 0.0003142054 -0.0016869679 -0.005554435 -0.00046059716 0.0037946193 -0.0005271092 -0.0034499448
-0.0052852933 0.00097366836 0.0045570447 6.6035056e-05 -0.0027954339 -0.0018703378 -0.0012078149 0.0013362636
0.005298031 0.0053811898 -0.003680909 -0.0014528846 0.0017303531 0.00573584 0.0074268435 -0.006971868
-0.005883717 -0.0020460207 0.0034270005 0.005764492 -0.009849103 -0.007361317 -0.0065295612 -0.001713294
-0.00045018308 -0.007512274 -0.004913956 -0.0063504917 -0.004367087 -0.0047243102 0.0019292728 0.0034033612
0.0045037493 0.004545087 0.0059888875 0.00088764064 0.000642663 0.00028703912 -0.00023495931 0.0030596424
-0.0016054116 -0.0015850839 -0.00012578288 -0.0008459081 0.0011717294 -0.000300988 0.00085531746 0.0013865964
0.00046316255 0.0023143613 0.0021335126 0.0036564865 0.0038804756 0.0025673977 0.0040897806 0.0010525138
-0.0015973222 -0.0022886058 0.001710651 0.002278814 -0.0007837452 -0.003312818 -0.0037274598 -0.0012274192
0.002505241 -0.003037494 -0.0027488929 -0.0018123655 0.0016606313 0.004978565 -0.00076435856 0.004044957
0.00508014 0.00560551 0.007878657 0.0009057302 0.005563226 0.0061445488 0.007241594 0.0073034335
0.0083357915 0.0068382956 0.008811116 0.008621273 0.010645705 0.002326156 -0.0016437281 -0.0010841307
0.004455669 0.004353751 -0.00167903 -0.0043486776 0.001477983 0.004121705 0.00345609 0.0047272323
0.0079363 0.01206651 0.012711929 0.007795185 0.012722156 0.014673426 0.017325427 0.0152901905
0.010350711 -0.0026801887 -0.0012972784 0.0026973647 0.0010448007 -0.0023000452 -0.0029745556 -0.0014924585
0.0016785522 0.001370622 -0.0005164965 -0.0040339455 -0.001310843 0.0020756228 0.0024607687 0.0006152884
-0.0029604568 0.00038998676 0.004956539 0.0015189019 -0.0002933913 -0.00021590234 0.0029525245 0.0067805657
0.0014749818 -0.00063965574
00000000: 3908 91b8 2c3a 7c3a 6f9e 903b 9031 203c
00000010: b80f 393c 7ea5 53bb dd3c 553a 5dd0 b53b
00000020: 28ff 173c 5b5f 0d3c 6063 51bb 5b32 84b9
00000030: 0b09 ec3a 94f6 323b 8f3b f03a a066 70bb
00000040: 4ccb 4f39 6166 e5ba 3687 3bbb a004 83bb
00000050: 44ef 50bb 35cc fbb9 02a6 45ba da7a 2ebb
00000060: 9f82 faba cef2 68bb dc3f acbb eeb3 b1bb
00000070: 5f82 cdbb 4f5f bebb 64f0 d0bb 10e9 ffbb
00000080: 2a86 02bc fea2 0fbc fed4 e6bb 8344 12bc
00000090: 4e8f 0cbc 655a ccbb 8819 cdbb d011 ddbb
000000a0: 41c4 30bc 0ae9 bdbb 4608 77bb 3e7e a3bb
000000b0: bc6a c4bb f987 04bc 179d 39bb 26c2 3bbb
000000c0: af8c 9cbb 0aac 94bb c5a7 76ba 8100 2bbb
000000d0: 5f68 78bb 1df9 d6bb 9229 b9bb dd7e 89ba
000000e0: e746 97bb f583 eabb 9b92 fcbb a88d bcbb
000000f0: 29e9 63bb 2e21 8abb 8a6a 9dbb ee92 80bb
00000100: 9cab 46bb 7df8 80bb f72e 31ba 063e cb3a
00000110: b06f f8b9 40a8 ffba 9bb7 06bb 6b58 703b
00000120: 34e9 4c3b a196 8cb9 a866 d2b7 2c55 b0bb
00000130: a033 b6bb 5bea 9cbb 8d8e 8bbb 7246 39bb
00000140: 8727 a8bb dc35 67bb 6383 53bb bc20 41bb
00000150: 5bbb 62bb 4ca3 82bb 0226 3bbb 47da 30bb
00000160: 3902 56bb 3ac2 99bb f2c9 0dbb 132d 0abb
00000170: 6fee 33bb db1c 88bb e2cb c8bb 61a7 e5b9
00000180: fd76 ddb9 f257 0ebb e2d7 3ebb d31c 9ebb
00000190: 47af 6f3b e252 a039 25e4 52bb a87e 07bb
000001a0: e1e7 54bb 6263 1a3b 6808 81ba 4a95 61bb
000001b0: 41af 3abb 3b00 1cbb 75e6 24bb 404b 22bb
000001c0: 3635 9239 efbb a439 401d ddba fa01 b6bb
000001d0: 4e7c f1b9 26af 783b b32d 0aba 7818 62bb
000001e0: 4130 adbb c73d 7f3a 4353 953b 4d7c 8a38
000001f0: 9933 37bb 1f26 f5ba 8b4f 9eba 9125 af3a
00000200: 1b9b ad3b b154 b03b 683b 71bb b86e beba
00000210: 04cd e23a b7f3 bb3b e15c f33b 4574 e4bb
00000220: 32cc c0bb 8816 06bb 8797 603b 10e4 bc3b
00000230: 225e 21bc 3437 f1bb eef5 d5bb 9b90 e0ba
00000240: 8d06 ecb9 8629 f6bb 4005 a1bb c917 d0bb
00000250: c819 8fbb 63ce 9abb a7df fc3a ed0a 5f3b
00000260: 3094 933b f4ee 943b 6e3e c43b 8eb0 683a
00000270: 6278 283a bd7d 9639 695f 76b9 4884 483b
00000280: ad6c d2ba 97c2 cfba 96e4 03b9 eebf 5dba
00000290: b794 993a edcd 9db9 6237 603a 74be b53a
000002a0: a0d4 f239 8aac 173b 67d2 0b3b aaa1 6f3b
000002b0: 944f 7e3b c941 283b 9103 863b 81f4 893a
000002c0: 3d5d d1ba 6ffc 15bb ec37 e03a 2858 153b
000002d0: 4074 4dba dd1b 59bb 6648 74bb 5be1 a0ba
000002e0: f82e 243b b110 47bb c526 34bb e58c edba
000002f0: 8aa9 d93a 3b23 a33b 3c5f 48ba 8f8b 843b
00000300: 4e77 a63b 6dae b73b 7c15 013c 866e 6d3a
00000310: b94b b63b 3658 c93b e54a ed3b a451 ef3b
00000320: d892 083c c813 e03b 805c 103c 3d40 0d3c
00000330: 536b 2e3c 6c72 183b 5d72 d7ba 6419 8eba
00000340: dc00 923b e9a9 8e3b e612 dcba 5a7f 8ebb
00000350: e1b8 c13a 5e0f 873b 927f 623b e6e6 9a3b
00000360: 4107 023c 9cb2 453c b245 503c c06e ff3b
00000370: 9770 503c cf68 703c 0eee 8d3c b583 7a3c
00000380: 0796 293c 1ba6 2fbb 7109 aaba 45c6 303b
00000390: b2f1 883a 5bbc 16bb c3f0 42bb 999e c3ba
000003a0: de02 dc3a 71a6 b33a 7e65 07ba 302f 84bb
000003b0: 98d0 abba 2c07 083b d944 213b 4e4b 213a
000003c0: 3904 42bb 2377 cc39 766a a23b e415 c73a
000003d0: 50d2 99b9 d863 62b9 247f 413b 822f de3b
000003e0: 2d54 c13a 92ae 27ba

exp_avg_sq f4 [10, 1, 5, 5]
0.0002597004 0.0002327689 0.00021761253 0.00022561787 0.00024080103 0.00025585014 0.00020206346 0.00016726232
0.0001717805 0.00020978732 0.00022942954 0.00018422023 0.00016268053 0.00018713725 0.0002266564 0.00021176013
0.00018266572 0.0001675548 0.00017419008 0.00021192025 0.00019714992 0.00014820349 0.00012163706 0.00012526634
0.00017476948 0.00018278231 0.00022804448 0.00018119796 0.00016543601 0.00018625545 0.00022956077 0.0002264967
0.0001549166 0.00017586655 0.00019625179 0.00023714006 0.00017382279 0.00014929527 0.00017218378 0.0002014924
0.00020791232 0.00015458703 0.0001500168 0.00017652505 0.00020890254 0.00017367107 0.00015184743 0.00016203386
0.00018647064 0.00021776279 8.346605e-05 7.857983e-05 0.00010757021 0.00013215849 0.00012860465 8.1337195e-05
9.791523e-05 0.00012359646 0.00013447498 0.00011827827 9.9555524e-05 9.969848e-05 0.00010733271 0.00010770122
0.00010536691 0.000108311855 0.00010049861 9.982153e-05 0.00010120262 0.000107331805 0.000101651785 9.9144956e-05
0.00010059149 0.00010766302 0.00011218414 0.00026009558 0.0002745891 0.0002598862 0.0002545396 0.00026743405
0.00022114605 0.00022173121 0.00021583046 0.00020029773 0.00022950246 0.00019526936 0.00019698622 0.00017997515
0.00017225623 0.00022101843 0.000191051 0.0001681879 0.00016751465 0.00018958093 0.00025392364 0.00021000323
0.00017992954 0.00018041486 0.00021228296 0.00028504984 0.00024981712 0.0002884461 0.00024618715 0.00031481357
0.00045391926 0.00024465888 0.00029764647 0.00020681738 0.00032005232 0.00048889394 0.00026512583 0.00029657414
0.000216891 0.00035775139 0.0005274244 0.00028756898 0.00028878383 0.0002589497 0.0003910857 0.0005406565
0.00030549683 0.00028410248 0.00029668756 0.00041340897 0.000551843 0.00043383584 0.0003479868 0.0002862648
0.00029737726 0.0003015913 0.00038501617 0.00030344704 0.0002562865 0.0002554078 0.00027438407 0.00036276854
0.00028563777 0.00021663118 0.000201434 0.00023845362 0.00030872767 0.0002510847 0.00022206512 0.00022610524
0.00023158483 0.00025638787 0.00021656785 0.00021640201 0.00022013971 0.00022976712 0.00022448332 0.00022262982
0.00025703845 0.00031069395 0.0003133705 0.00025264794 0.0002877505 0.0003176839 0.00031238628 0.00030953888
0.00030027688 0.0003318306 0.0002956811 0.0002496225 0.00027238156 0.0002891912 0.00028387396 0.00022514092
0.00020874702 0.00024562408 0.00025709986 0.00022929593 0.00019281264 0.00020256903 0.00024192395 0.0002524406
0.00024836222 0.00029215336 0.00034334455 0.00035803064 0.00028652098 0.00032469723 0.0003454908 0.0003689891
0.00035564514 0.00034690488 0.00035694317 0.0003247949 0.00030009667 0.00032283526 0.00032621314 0.0002940794
0.00024626614 0.00022742088 0.00025451664 0.00026085274 0.00022751864 0.00021212062 0.00022050254 0.0002521004
0.0008125005 0.0007560091 0.000713438 0.00079463783 0.00078875275 0.000828889 0.0008980276 0.0009960836
0.0009759276 0.0008647917 0.0008414815 0.00085262523 0.00089580397 0.00083460304 0.0007278275 0.00072648923
0.0006732326 0.00061321777 0.0006110554 0.0006078037 0.0006646411 0.00058536185 0.00058028655 0.00059954746
0.0005996866 0.00024346304 0.0002456189 0.0002219694 0.00025158827 0.00028243352 0.00022164256 0.0001748783
0.00019023096 0.00023936943 0.00028767306 0.00018594944 0.00017037337 0.00025049684 0.00029845026 0.00034923345
0.00016834521 0.00020673766 0.0003027417 0.00041176516 0.00043610742 0.00017630206 0.000234628 0.0003602069
0.00044109375 0.0004138218
00000000: 6628 8839 6d13 7439 eb2e 6439 d693 6c39
00000010: 897f 7c39 a023 8639 ffe0 5339 2363 2f39
00000020: fa1f 3439 5bfa 5b39 0693 7039 3e2b 4139
00000030: 3995 2a39 463a 4439 9daa 6d39 ed0b 5e39
00000040: f589 3f39 a6b1 2f39 cba6 3639 e936 5e39
00000050: 07ba 4e39 1267 1b39 6617 ff38 ed59 0339
00000060: 5342 3739 41a9 3f39 391f 6f39 f5ff 3d39
00000070: e478 2d39 914d 4339 40b6 7039 bf7f 6d39
00000080: 1c71 2239 d168 3839 f0c8 4d39 cda8 7839
00000090: 3344 3639 258c 1c39 3b8c 3439 b447 5339
000000a0: 0a03 5a39 a418 2239 d44d 1d39 9519 3939
000000b0: d90c 5b39 791b 3639 3c39 1f39 a2e7 2939
000000c0: 5587 4339 4157 6439 7f0a af38 3acb a438
000000d0: 5197 e138 0694 0a39 0cda 0639 9393 aa38
000000e0: d757 cd38 ac99 0139 da01 0d39 2a0c f838
000000f0: 77c8 d038 3715 d138 cf17 e138 a7dd e138
00000100: 6ef8 dc38 7c25 e338 c8c2 d238 4757 d138
00000110: be3c d438 5317 e138 e32d d538 0bec cf38
00000120: a5f4 d238 25c9 e138 6744 eb38 705d 8839
00000130: baf6 8f39 5641 8839 ba73 8539 6436 8c39
00000140: 71e3 6739 8580 6839 8c50 6239 0307 5239
00000150: 99a6 7039 38c1 4c39 168e 4e39 b6b7 3c39
00000160: ae9f 3439 2fc1 6739 dd54 4839 985b 3039
00000170: dfa6 2f39 3eca 4639 0e21 8539 5034 5c39
00000180: 78ab 3c39 bf2d 3d39 4698 5e39 be72 9539
00000190: e3f9 8239 953a 9739 ae12 8139 900d a539
000001a0: 03fc ed39 8f45 8039 6f0d 9c39 1edd 5839
000001b0: b2cc a739 1e29 003a 9600 8b39 827d 9b39
000001c0: 3c6d 6339 9490 bb39 da42 0a3a dbc4 9639
000001d0: e967 9739 a4c3 8739 a20a cd39 d8ba 0d3a
000001e0: 172b a039 97f3 9439 bb8c 9b39 d0be d839
000001f0: 8fa9 103a 7674 e339 ff71 b639 d015 9639
00000200: 4de9 9b39 e61e 9e39 ffdb c939 f917 9f39
00000210: 315e 8639 41e8 8539 35db 8f39 f831 be39
00000220: a7c1 9539 7d27 6339 0738 5339 6809 7a39
00000230: badc a139 05a4 8339 27da 6839 aa16 6d39
00000240: 94d5 7239 cc6b 8639 7d16 6339 f9e9 6239
00000250: 4ed5 6639 a4ed 7039 4863 6b39 bd71 6939
00000260: 1ec3 8639 a3e4 a239 e04b a439 d575 8439
00000270: 38dd 9639 d08e a639 c7c7 a339 9b49 a239
00000280: 7b6e 9d39 8df9 ad39 a505 9b39 c4df 8239
00000290: 6fce 8e39 969e 9739 ebd4 9439 ce13 6c39
000002a0: 1ae3 5a39 1bc7 8039 5ccb 8639 286f 7039
000002b0: c02d 4a39 b668 5439 f7ac 7d39 015a 8439
000002c0: 9d36 8239 292c 9939 ed02 b439 0fb6 bb39
000002d0: 3238 9639 203c aa39 fd22 b539 e174 c139
000002e0: e275 ba39 c9e0 b539 1a24 bb39 3c49 aa39
000002f0: 4b56 9d39 3742 a939 9607 ab39 ab2e 9a39
00000300: 481d 8139 d477 6e39 a570 8539 10c3 8839
00000310: 1292 6e39 b26c 5e39 b336 6739 582c 8439
00000320: fcfd 543a e92e 463a 0406 3b3a 3e4f 503a
00000330: 4dc4 4e3a cd49 593a 9d69 6b3a 058f 823a
00000340: 65d5 7f3a 30b3 623a de96 5c3a b682 5f3a
00000350: 63d4 6a3a 43c9 5a3a adcb 3e3a de71 3e3a
00000360: e07b 303a 59c0 203a 3c2f 203a 0455 1f3a
00000370: 4f3b 2e3a f872 193a 5f1e 183a f32a 1d3a
00000380: 4934 1d3a 1d4a 7f39 69c6 8039 75c0 6839
00000390: 9be7 8339 9613 9439 b968 6839 895f 3739
000003a0: bc78 4739 3eff 7a39 d3d2 9639 6cfb 4239
000003b0: 41a6 3239 1e55 8339 5179 9c39 5219 b739
000003c0: d385 3039 b8c7 5839 4eb9 9e39 2fe2 d739
000003d0: 59a5 e439 b9dd 3839 7906 7639 27da bc39
000003e0: 9a42 e739 39f6 d839

exp_avg f4 [10]
-0.0048201103 0.005239003 -0.00079764787 0.0052082352 0.007683344 -0.0036438953 -0.0007994626 -0.0052556987
-0.010557493 0.00032574584
00000000: 04f2 9dbb f1ab ab3b 3e19 51ba d8a9 aa3b
00000010: 90c4 fb3b 6bce 6ebb 0793 51ba ff37 acbb
00000020: 56f9 2cbc dec8 aa39

exp_avg_sq f4 [10]
0.00029733995 0.00019478102 8.087389e-05 0.00013359284 0.00060711993 0.00039583736 0.00018046689 0.00023634317
0.00063369755 0.00024278952
00000000: 4be4 9b39 223e 4c39 d79a a938 0e15 0c39
00000010: 2127 1f3a 6488 cf39 b63b 3d39 e3d2 7739
00000020: b91e 263a 5195 7e39

exp_avg f4 [20, 10, 5, 5]
0.0003697589 0.0016653576 0.0017389355 0.00014123556 -0.0014490301 -0.0034023526 -0.0023288166 -0.0024535833
-0.0025711502 -0.00023185762 9.0760994e-05 -0.001784934 -0.0045349984 -0.0055959895 -0.0028428456 -0.00056456804
-0.0017524185 -0.0012240096 -0.001274081 -0.0005373087 -0.0034812524 -0.0013652847 0.00053435675 0.0005590408
-0.000233062 -0.0046656053 -0.0023417445 -0.0012140975 -0.0005394997 0.002762741 -0.0036281184 -0.00020768927
0.0017659096 0.0026318682 0.0002372919 -0.0034432951 -0.00284207 3.2028624e-05 -0.00023908091 -0.0035102565
-0.0017102165 -0.0016508242 -0.0035364677 -0.0049476293 -0.003588755 -0.0017969917 -0.0021678684 -0.004089511
-0.0011064642 5.7250203e-05 -0.0040309946 -0.0024939761 -0.0007604231 0.0016425935 0.0029102487 -0.0011683305
0.00081164314 0.0023559104 0.002592554 -0.00095724844 -0.0024059066 -0.0011733233 -0.0016156944 -0.0017575255
-0.0031804119 -0.0022042182 -0.0033653372 -0.0046523246 -0.0069121895 -0.0017755419 -0.0021504916 -0.0035102305
-0.003145875 -0.00048408413 0.0016031595 -0.0013583318 -0.004895651 -0.0068119294 -0.0078074336 -0.0044725556
-0.0018494942 -0.005072916 -0.006622425 -0.0030561467 -0.002880278 -0.0031516652 -0.0047591566 -0.00093134056
0.00021863887 -0.002545652 -0.0042810836 -0.0016388628 -0.0001827674 -0.003390881 -0.0044799545 -0.0031738605
-0.005511105 -0.008011401 -0.008114512 -0.0041021327 -0.0054389453 -0.0012393878 -0.0018230468 -0.0026038345
0.00015768889 -0.00498081 -0.000973968 0.0009861817 -0.0012703814 -0.0025581948 -0.0029348205 -0.002531871
-3.9598483e-05 -0.0008237112 -0.005019763 8.414195e-06 -0.0011547469 -0.00061288744 -0.002395666 -0.0013865154
-0.002448095 -0.0022192395 -0.001216518 0.0027408525 0.00086212216 -0.0020359682 0.00074166345 -0.00043713354
-0.0023365717 -0.00016376805 -0.0061482047 -0.007085397 -0.0073225396 -0.006596725 -0.0015709556 0.00021871072
-0.0053347037 -0.0053735254 -0.0032116836 -0.0034254903 -0.00091139745 -0.0002316801 0.0010129465 0.0010067426
-0.00027151764 -0.002572732 0.00096998474 0.00093162816 -0.0010733342 0.00011851774 -0.00039404177 -0.0007828489
-6.847351e-05 0.0014750871 -0.0004630743 0.0006400271 0.00087725034 0.0015231776 0.001109395 -0.0023459475
-0.0020981524 -0.000967302 -0.0025800287 -0.0031505383 -0.0012288318 -0.0020604008 -0.0043625273 -0.0061092773
-0.004648951 -0.0018615264 -0.0026336762 -0.005746238 -0.002656634 -0.0004245137 -0.00034852026 -0.0011725262
-0.0016420418 -0.00039566777 0.0012845004 0.0014390718 0.0005746085 0.0010325011 0.0012852375 0.0014852013
-0.0011359976 -0.003872133 -0.0034987794 -0.004427947 -0.0039310935 -0.003227484 -0.003812438 -0.006361738
-0.007510401 -0.008572172 -0.0040086647 -0.0028899892 -0.005300224 -0.0048932396 -0.0003757584 -5.813474e-05
-0.0015099274 -0.0018801502 -0.0004273459 -0.0001787769 0.000343854 -6.358891e-05 0.0014103064 0.00079737604
-0.0007398135 -0.00096172944 -0.003979876 -0.0041859923 -0.0058389353 -0.0044762 -0.0036663015 -0.0013761164
-0.0058557624 -0.00835853 -0.007039704 -0.003680244 -0.0021611932 -0.002061125 -0.0012421089 0.00043519045
-0.0003937643 -0.0040518614 -0.0019144708 -0.0006694154 -0.002313427 0.00042152853 -0.0058243596 -0.0027822366
-0.002314694 -0.0022819538 -0.00072210585 -0.0025432494 -0.002322789 -0.0012479498 -0.0011897582 -0.0030781864
-0.00048547797 -0.0007414568 0.0015667892 -0.0013816105 -0.0032881433 -0.0005319837 0.0012578648 0.0005581539
0.00015835342 -0.00070118357 -0.0014879245 -0.00087708444 -0.0008957058 -0.00063735095 2.856637e-05 -0.0015137657
00000000: 33dc c139 2148 da3a feec e33a a218 1439
00000010: 62ed bdba 01fa 5ebb 0f9f 18bb 4ccc 20bb
00000020: be80 28bb ce1e 73b9 f056 be38 72f4 e9ba
00000030: 539a 94bb 905e b7bb 094f 3abb 85ff 13ba
00000040: 68b1 e5ba f26e a0ba 10ff a6ba 2dda 0cba
00000050: b925 64bb 5af3 b2ba 1314 0c3a 988c 123a
00000060: 1b62 74b9 efe1 98bb f477 19bb 5a22 9fba
00000070: 366d 0dba 1a0f 353b bac5 6dbb 2ac7 59b9
00000080: 1876 e73a 6c7b 2c3b 8fd1 7839 e8a8 61bb
00000090: 0642 3abb 7956 0638 cbb1 7ab9 550c 66bb
000000a0: 5829 e0ba 7860 d8ba 15c4 67bb b91f a2bb
000000b0: 5131 6bbb 0989 ebba cc12 0ebb 4e01 86bb
000000c0: c706 91ba f01f 7038 6f16 84bb fa71 23bb
000000d0: 2157 47ba 4b4c d73a dfb9 3e3b ab22 99ba
000000e0: 73c4 543a 9e65 1a3b d7e7 293b dbef 7aba
000000f0: 6aac 1dbb 32ca 99ba b5c5 d3ba c55c e6ba
00000100: 756e 50bb a574 10bb fd8c 5cbb 8772 98bb
00000110: a67f e2bb 4db9 e8ba 43ef 0cbb e50b 66bb
00000120: 062b 4ebb accc fdb9 1b21 d23a 0d0a b2ba
00000130: b26b a0bb 9b36 dfbb 80d5 ffbb 848e 92bb
00000140: ba6a f2ba b43a a6bb ed00 d9bb a249 48bb
00000150: 0cc3 3cbb 2b8c 4ebb b3f2 9bbb 3525 74ba
00000160: 6d42 6539 f4d4 26bb 5548 8cbb 1ccf d6ba
00000170: 40a5 3fb9 8b39 5ebb 95cc 92bb 8b00 50bb
00000180: 8096 b4bb 4042 03bc bbf2 04bc 2f6b 86bb
00000190: 2e39 b2bb f472 a2ba 4df3 eeba 18a5 2abb
000001a0: 4a59 2539 1036 a3bb e351 7fba c442 813a
000001b0: ed82 a6ba 63a7 27bb 1e56 40bb bfed 25bb
000001c0: 8c16 26b8 53ee 57ba d37c a4bb b12a 0d37
000001d0: e05a 97ba 2eaa 20ba 9b00 1dbb bdbb b5ba
000001e0: 3870 20bb a970 11bb 9273 9fba e09f 333b
000001f0: 0a00 623a e16d 05bb 316c 423a 122f e5b9
00000200: 2b21 19bb 27b9 2bb9 e176 c9bb 9e2c e8bb
00000210: eaf1 efbb 5729 d8bb 86e8 cdba b655 6539
00000220: bdce aebb 6614 b0bb 1c7b 52bb 317e 60bb
00000230: d9ea 6eba 27ef 72b9 d8c4 843a adf4 833a
00000240: 7b5a 8eb9 489b 28bb 9346 7e3a 8238 743a
00000250: 1faf 8cba ba8c f838 6497 ceb9 1a38 4dba
00000260: 7099 8fb8 b657 c13a c8c8 f2b9 7ec7 273a
00000270: 46f7 653a 5ca5 c73a 1e69 913a 78be 19bb
00000280: 2881 09bb 8a92 7dba b315 29bb 4379 4ebb
00000290: c110 a1ba ca07 07bb 88f3 8ebb 5530 c8bb
000002a0: 3a56 98bb 76fe f3ba c199 2cbb f04a bcbb
000002b0: ec1a 2ebb 4491 deb9 99b9 b6b9 73af 99ba
000002c0: c839 d7ba a171 cfb9 ae5c a83a 3d9f bc3a
000002d0: 53a1 163a fd54 873a 6a75 a83a 16ab c23a
000002e0: c1e5 94ba 9dc3 7dbb c74b 65bb 5018 91bb
000002f0: 67d0 80bb 3284 53bb 19da 79bb 2076 d0bb
00000300: cf19 f6bb 4c72 0cbc 1e5b 83bb f965 3dbb
00000310: 80ad adbb 7857 a0bb 7001 c5b9 b4d5 73b8
00000320: c2e8 c5ba 5f6f f6ba 650d e0b9 0f76 3bb9
00000330: 4d47 b439 095b 85b8 08da b83a 0007 513a
00000340: 0bf0 41ba 921c 7cba 9f69 82bb a62a 89bb
00000350: 8a54 bfbb 16ad 92bb 5546 70bb ce5e b4ba
00000360: b2e1 bfbb 37f2 08bc 51ad e6bb 4030 71bb
00000370: cea2 0dbb f013 07bb 42ce a2ba 462a e439
00000380: 2672 ceb9 7ac5 84bb fbee faba b57b 2fba
00000390: dd9c 17bb 9a00 dd39 45da bebb 2f56 36bb
000003a0: 1fb2 17bb d58c 15bb b44b 3dba a5ac 26bb
000003b0: ef39 18bb 3f92 a3ba a9f1 9bba 66bb 49bb
000003c0: c087 feb9 535e 42ba b95c cd3a 2817 b5ba
000003d0: e47d 57bb d274 0bba f0de a43a 1351 123a
000003e0: ac0b 2639 a2cf 37ba 7606 c3ba 24ec 65ba
000003f0: cccd 6aba e613 27ba d0a1 ef37 8c69 c6ba
