checkpoint/model_epoch2.pth (torch, 268573 bytes, 24 tensors)

conv1.weight f4 [10, 1, 5, 5]
00000000: 04ab 4fbe 5cf3 74be 82b6 8abe e943 9abe
00000010: ef02 6ebe e0ca 1e3e b475 e03d 6968 bcbd
00000020: b148 3abc 48cf 4abe be2d 10be d666 8b3c
00000030: d78f 1d3e 4926 823e efa2 c13e a12a 683e
00000040: ee2c 153e 542d 7d3e 2618 223e a8e2 093e
00000050: 6385 dd3d 51b1 afbd 8fe8 5dbd 7068 24be
00000060: 5bbf 04be d635 b83e 0bb2 a73e 0f99 513e
00000070: 2ea6 43be 6075 b0bd 461f aa3e 8720 a43e
00000080: 639f 743d a288 7cbe b760 b0bd 08ba 0f3e
00000090: 9098 b9bd c5d5 91be 2001 9bba 9822 cf3d
000000a0: 18f0 6a3e 7842 9bbd 9b54 17be 8bd7 8ebe
000000b0: b6d2 df3d 97a6 84bd db1f 0cbe 41ac a7bd
000000c0: b404 88be da54 63be c7aa 8fbd c7dd fb3c
000000d0: 296c 623e 127d 053e f7db 273e 6a41 003e
000000e0: 2117 9c3e 274e 0b3e 8281 263e 426d bebd
000000f0: 5459 933e 94c3 c63d bacf 1fbe 932f 0abe
00000100: 8349 8cbe 6549 003e 9620 94bc 7926 adbe
00000110: 2fef 2cbe f5a3 28bd 13f1 94bc 2149 92be
00000120: cb6b 0abd 42ff 603d b6c2 cc3d 178f 09be
00000130: 48e1 afbc 4430 66be d757 32be 224d fabd
00000140: 783a 81bd 99aa 1cbe ccdb 9ebd 4dc9 2abe
00000150: cc27 6abe 27e1 e6bd 9bb2 92bc 6e47 86be
00000160: 1673 71be fca9 38be 5523 1cbe 0b65 38be
00000170: 557f fbbd e0a3 2fbd 340f 83bd cb46 3dbd
00000180: c45d 30be 1928 5cbd 98d3 38be 4293 663e
00000190: 1a96 ac3e 54ec ce3e 8a6e 4fbd 373f 8ebe
000001a0: 8074 c7be c768 6a3e 4e31 b53e e1b7 1b3e
000001b0: 8634 c0be 1e0a adbe 2c4b a63d b11d 6f3e
000001c0: 75f6 4c3e 7e26 fcbc 39c4 54be 1e4f 25bb
000001d0: 48a4 663e 6cea 1c3e 988c 08bd f2c0 76be
000001e0: 4d3f 313e 69a2 813e 27af 193e 414e 2bbe
000001f0: 6c3b 85be 00eb 0dbc 584d eabd 2083 4cbe
00000200: 0d05 b4be 4f3c b7be 9b26 c3bd d067 47be
00000210: 5fa0 53be 4b8d 27be e6a0 96be 2e5e b63e
00000220: 11b5 163e b36c 74bd fc45 adbc 22b5 d0bc
00000230: 7bc2 423e 0ccd 5b3d 628e b73e aca9 043e
00000240: 7c2f 2f3e 4a98 83bc f06e 8b3e eacb fe3d
00000250: 1792 ad3e 0def 6a3e 332f 99bc 2fe4 84be
00000260: 60dc 863e 41fd a33e 550b a63e 4569 25be
00000270: f71f eb3d dd6a 35bd ee87 8d3e 35a1 ae3d
00000280: 701d 753d a286 003c 79af 38be db3f 36be
00000290: ae13 643e 8e04 96bd b569 8cbc 8f03 15bd
000002a0: 042b 80be 6b66 153e 703c f8bd c8e1 06be
000002b0: f1b9 a1be 2c9a 09be 90e0 21be bfb6 d5bd
000002c0: faed 9e3e 784e cf3e 1a8b 893e a9db 433e
000002d0: 0cac 233e d358 3a3e 4540 c9bc 4ada 743e
000002e0: cd90 853d aaf5 56bd b45c 69be 3c80 413d
000002f0: ead9 5e3e 86cc b53e ca7d b4bd 1d0e 1abe
00000300: f1bf 9abe 9c10 8bbe 96d0 19be 82a1 55be
00000310: 2762 c7bd 7b29 93be f513 a1be ab43 d4bd
00000320: 6084 703e f1c8 d2bd bea3 7cbe 9da6 13be
00000330: 1b3f 01be a1e8 553c 6404 a33e 550e ba3e
00000340: 2e00 353e 0cb7 3d3e 9391 b53d 22cc c13c
00000350: 5b44 b13e 50e7 8c3e 3f31 633e efbd b8be
00000360: 250d 87be cbd0 43be 20d1 05b7 ce31 a2bd
00000370: c41d 4ebc cd8b 8abe 7b6f b4be d3eb 96be
00000380: 969d 85be d5b2 663e 42f7 b53e 8b00 20be
00000390: c4c1 9ebe 5180 213d d41e e43e 46b2 0a3e
000003a0: 4b2f 9ebd 14b3 90be 117f 47be 84bf b43e
000003b0: fe84 dabc 344c 4b3e 94f8 833d abbe cbbd
000003c0: bb16 193e 9062 0fbc 45ea 97bd c604 4c3e
000003d0: 0611 a13d e1cd 623e 141f 5c3d 490d e03e
000003e0: 3e7d 813e abae 503e
-0.20280081 -0.23920959 -0.27092367 -0.30129936 -0.23243307 0.15507078 0.1095995 -0.09199602
-0.01136987 -0.19805634 -0.1407995 0.01701681 0.15386902 0.25419834 0.3781962 0.22672512
0.1456792 0.24724323 0.15829524 0.13465369 0.10816457 -0.08578742 -0.054176863 -0.16055465
-0.12963621 0.35978574 0.32753024 0.20468543 -0.19106361 -0.086161375 0.33226985 0.32056066
0.059722316 -0.24661496 -0.08612197 0.14035809 -0.09062302 -0.28483406 -0.0011825897 0.1011402
0.22943151 -0.07581037 -0.14778368 -0.2789882 0.10928862 -0.06477087 -0.13684027 -0.08187152
-0.26566088 -0.22200337 -0.07014995 0.0307454 0.22111572 0.13035992 0.16392504 0.12524953
0.30486396 0.13604032 0.16260341 -0.09298183 0.2877909 0.09705272 -0.15606585 -0.1349471
-0.27399835 0.12527998 -0.018081944 -0.33818415 -0.16888116 -0.041171987 -0.01818136 -0.28571418
-0.033794206 0.054930933 0.09998076 -0.1343349 -0.021469727 -0.2247935 -0.1741632 -0.12221743
-0.0630998 -0.15299453 -0.07756767 -0.16678353 -0.22866744 -0.11273413 -0.017907431 -0.26226372
-0.23579058 -0.18033594 -0.15247853 -0.18007295 -0.12280146 -0.042880893 -0.06399384 -0.04621009
-0.17223269 -0.053749178 -0.18049467 0.22517112 0.33708268 0.4041468 -0.050642528 -0.27782604
-0.3895607 0.22891532 0.3538918 0.15206863 -0.37540072 -0.3379678 0.08119807 0.2335117
0.20015891 -0.030780073 -0.20777978 -0.002522416 0.22523606 0.153238 -0.033337206 -0.2409704
0.17309304 0.25319222 0.15008222 -0.1672907 -0.26021898 -0.008661985 -0.114405334 -0.19971895
-0.35160103 -0.357882 -0.09528848 -0.19473195 -0.20666645 -0.16362493 -0.2941963 0.35618728
0.14717509 -0.059673976 -0.021151535 -0.025476996 0.19019501 0.053662345 0.35850817 0.1295535
0.17107958 -0.016063828 0.27233076 0.12441237 0.3390052 0.22942753 -0.018699264 -0.2595534
0.26340008 0.32029155 0.3243052 -0.16153438 0.11480706 -0.044291366 0.2764277 0.085268416
0.059842527 0.007844599 -0.18035688 -0.17797796 0.22273132 -0.073250875 -0.017140249 -0.036380347
-0.25032818 0.1458985 -0.121209025 -0.13172066 -0.31587175 -0.13437718 -0.1580832 -0.10435247
0.31040937 0.40489554 0.2686394 0.19126762 0.159836 0.18197946 -0.024566779 0.23911396
0.06521759 -0.052480377 -0.2278927 0.047241434 0.21762815 0.35507601 -0.08813055 -0.15044446
-0.30224565 -0.2716111 -0.15020975 -0.20862392 -0.09735518 -0.28742585 -0.31460539 -0.10364469
0.23487997 -0.10292233 -0.24671838 -0.14419027 -0.12621729 0.013055951 0.31839287 0.3633906
0.1767585 0.18526858 0.08865657 0.023656908 0.34622464 0.27520227 0.22186755 -0.36082408
-0.26377216 -0.19122617 -7.9761085e-06 -0.07919656 -0.012580339 -0.27059785 -0.35241303 -0.29476795
-0.2609679 0.22529157 0.35540205 -0.15625207 -0.31007206 0.039429013 0.4455477 0.13544568
-0.07723864 -0.28261626 -0.19482066 0.35302365 -0.026674744 0.19853288 0.06443897 -0.099484764
0.14950077 -0.0087515265 -0.0741773 0.19923696 0.07864575 0.22148849 0.053740576 0.43760136
0.25290865 0.2037913

conv1.bias f4 [10]
00000000: d4aa 81bd 6656 12be b3a7 403e 365d bfbd
00000010: 309a 313d 3e04 34bc 6076 90bd 7a8f 573d
00000020: 10da 2ebe 6fc1 363e
-0.06331411 -0.14290771 0.18813972 -0.093439505 0.043359935 -0.01098734 -0.07053828 0.052627064
-0.17075372 0.17847227

conv2.weight f4 [20, 10, 5, 5]
00000000: 1356 ac3d a0ff 34bd 3a21 e23c d75a 263c
00000010: 3cc7 003d 64b7 d43c 3970 393d dd22 223b
00000020: 1818 563d 95c3 843d 5b14 8a3d c855 143c
00000030: c878 003d 04c7 f73d 795b 2b3e e228 a53c
00000040: e75a 373d 5029 a53d a89a 5d3e d2ad fe3d
00000050: 5b16 fbbc 96d4 2cbd c821 43bd ae90 82bc
00000060: 0816 983d 016c d63d 5198 4b3d db1b d83c
00000070: 9714 f63d 852f b13d bbeb 873c 3c13 b5bc
00000080: f3b5 6c3d 8931 873d 6bae 873d 3733 eb3c
00000090: 2a5d 64bb 61f4 733d 7842 993d 5e82 01bd
000000a0: 79c3 0b3d 5cec 8c3c eaf0 ac3d 6ce7 d53b
000000b0: 1b4c 28bd fbc4 d6bb 2c57 6f3d 4ecd 47bd
000000c0: d665 843c 41ac 1ebd 58b6 c43d a9c3 17bd
000000d0: 4972 27bd e3d5 f23d b509 05bc 3de8 dd3d
000000e0: 8d37 88bd 83cc f7bc 6b56 d13d cf10 c2bc
000000f0: 0b95 55bd dc7b 92bd a1b0 803d 08ee 273d
00000100: 30d4 113c 3585 4e3c c915 06bd 8bcb 203d
00000110: 6684 90bb 80a8 a03d 86bf 85bc 969a aabd
00000120: f633 56bc 0c39 31b9 5979 393c 5514 973d
00000130: b8ca 823d 193b 563d 5910 3abb 5dad 473d
00000140: 2b30 6c3c e141 6c3d 940c 033d 3027 82bd
00000150: b6e8 8bbc a6fa b4bc 040b 39bc 83d5 75bd
00000160: 9efb 35bd 85db 37bd 5d6b 82bd 8f87 d3bc
00000170: 55cc 07bd 9071 37bc c528 de3c 1f9f e2bd
00000180: a879 6ebd 9775 b2bc 2874 123d 9f1a 803d
00000190: 49b9 993d 5bc5 173d 7241 bb3c 6a9b 213d
000001a0: 1950 a6bd f347 dbbc 9cef e0bc e428 1dbc
000001b0: eda6 7bbd 3917 aebd 6d95 13be 3571 57bc
000001c0: 81c2 e6bc 3427 8dbd 48b4 02bd 1e44 c1bd
000001d0: 1a46 10bd 9560 4cbd d1f5 93bd ca83 ebbd
000001e0: abf5 a03d 1ad5 623c 7533 c6bc 860d 0bbe
000001f0: 9e2d 57be d74d 2dbc 3233 043d 37fc 3dbd
00000200: ba37 d13c 8cde f5bd 372a 40bc cd14 28bd
00000210: c0b6 f43c a5eb f83c f8db 053d b615 413c
00000220: 1381 1fbd a3d5 633b 6c4e 123e 39c5 e83d
00000230: 88ae b1bc f20f 323c 5141 0c3d df12 8a3d
00000240: 75c8 eb3d 5142 7bbc 440a ecbd 8c3f 59bd
00000250: deaa 0fbd 682e 3b3d 25ab e3bd 2d77 2abe
00000260: e17d 153d 5ae7 b83d e6cb 39bc 94db 6abe
00000270: c49a 43be 5f14 823d f1e8 563d c4d0 33bc
00000280: 20c6 2ebe 4783 b8ba 3abb 9dbc ce62 5e3d
00000290: 4a56 903d 9038 20be 2b21 b03c b413 883d
000002a0: 3d13 d43d 2033 fd3d d053 19bd 9399 66bc
000002b0: a524 ddbb 2550 36bd 1907 82bd 2e25 95bd
000002c0: 114a 2ebe 668d 8cbd a5b1 4ebd e14c 8cba
000002d0: 2b9a 21be 2a3d 7ebe 9cb6 94bd aadf 463d
000002e0: ecb3 b63b fdbf 19be 728f 17bd f2b7 313d
000002f0: 5564 073c 7290 933d 2c81 03bd 28dd 723d
00000300: 2ae2 b03d 065c 9c3d ce24 003e a208 59bd
00000310: fe0c 993d ec49 c93d 108b f83c 9708 d1bd
00000320: 27e0 b0bc 18f1 dabd af2b d9bd 30df 253d
00000330: 60bf 3b3c f4ef 2abe 5347 32be 6702 95bd
00000340: 2dbf cb3d 3f23 fa3d 42bc b2bd 8df6 013c
00000350: c6d9 943d e107 293e ac31 d83d 37bc 70bd
00000360: 0f70 da3d 7e88 473e c5f4 843e a165 733e
00000370: a74b 93bd 5370 c2bc 64fc 073e cfa6 943d
00000380: 9d20 18bc 2772 b83d a2b1 8c3c 0052 e5bd
00000390: b995 11be 0153 c7bd d41e 06bd 6d54 5d3c
000003a0: d264 a9bd b6cd 973b d537 4fbd d93b be3c
000003b0: 2e00 86bd febe 30bb 5f8b 593b 87b2 c43c
000003c0: a1f1 573d fb03 fdbd b36e d4bc 92c2 3dbd
000003d0: a0fc 303d 277e 263d c21e cb3c bd94 033d
000003e0: 00f6 ccbd 6aba 1a3d f549 d0bc 3514 2dbe
000003f0: 2e36 103b eb7f 03bd 8217 e9bc d694 713d
0.08414855 -0.044189095 0.027603734 0.010153494 0.031440005 0.025966354 0.04527304 0.0024740018
0.05226907 0.06482617 0.06742164 0.009053655 0.031365186 0.12098506 0.16734113 0.020161096
0.044764426 0.0806452 0.21641028 0.12435497 -0.030650308 -0.042194925 -0.04763964 -0.01593813
0.07426077 0.10469819 0.049705807 0.02638047 0.12015646 0.08651642 0.016591897 -0.022103898
0.057790708 0.06601245 0.066250645 0.028710945 -0.003484557 0.05955923 0.07483381 -0.03161847
0.034121964 0.017202549 0.08444388 0.006527832 -0.041088205 -0.0065542436 0.058432743 -0.04877978
0.01616184 -0.038738493 0.09605092 -0.03705183 -0.040880475 0.11857202 -0.00811999 0.108353116
-0.066512205 -0.030248886 0.10221561 -0.023689656 -0.05214409 -0.071525306 0.06283689 0.04099849
0.008900687 0.012605001 -0.03273562 0.039256614 -0.0044103144 0.07844639 -0.016326677 -0.08330266
-0.013073912 -0.00016901287 0.011320435 0.07376925 0.06386322 0.052302454 -0.0028391092 0.048749316
0.014415781 0.057680015 0.031994417 -0.06355131 -0.017078739 -0.022092175 -0.01129413 -0.060018074
-0.044429414 -0.044887085 -0.06368134 -0.025821475 -0.03315385 -0.011196509 0.02711905 -0.11065506
-0.05822149 -0.021784587 0.035755306 0.062550776 0.075060435 0.037053447 0.022858355 0.039454855
-0.08120746 -0.026767706 -0.027458005 -0.009592269 -0.06143849 -0.08500523 -0.1441247 -0.013149549
-0.028168919 -0.06892243 -0.03191021 -0.094368204 -0.035223104 -0.049896795 -0.0722462 -0.11499746
0.078593574 0.013844753 -0.024194458 -0.13579378 -0.21013495 -0.0105776405 0.032275386 -0.04638311
0.025539268 -0.12005338 -0.011728815 -0.041035462 0.029872298 0.030385802 0.03268048 0.011784961
-0.038941454 0.0034764789 0.14287728 0.11365742 -0.021689668 0.0108680595 0.034241978 0.067418806
0.115128435 -0.015335635 -0.115253955 -0.05303912 -0.03507506 0.045698553 -0.111166276 -0.16647024
0.036497 0.09028502 -0.011340117 -0.22935325 -0.19102007 0.06351542 0.052468244 -0.010975067
-0.17067766 -0.001407721 -0.019254316 0.054293446 0.07047708 -0.15646577 0.02150019 0.06644383
0.10355232 0.12363267 -0.037433445 -0.014074701 -0.006748753 -0.044510026 -0.0634901 -0.07282482
-0.17020442 -0.06862907 -0.050462384 -0.0010704064 -0.15781467 -0.2482802 -0.072613925 0.048553146
0.0055756476 -0.15014644 -0.037002034 0.043388315 0.008263667 0.07205285 -0.03210561 0.059292942
0.08636887 0.076347396 0.1251404 -0.05298675 0.07473181 0.098285526 0.030339748 -0.102067165
-0.02159126 -0.10690516 -0.10604035 0.04049605 0.011459202 -0.16693097 -0.1741002 -0.07275849
0.09948573 0.12213754 -0.087273136 0.007932317 0.072680995 0.16506912 0.10556349 -0.058773246
0.10665905 0.19485661 0.25967994 0.23769237 -0.07192164 -0.023735201 0.13279873 0.07258379
-0.009285119 0.09006148 0.017174546 -0.11197281 -0.14217271 -0.097326286 -0.032744244 0.013508898
-0.08271183 0.004632677 -0.050590355 0.023221897 -0.06543003 -0.002696931 0.0033194644 0.02401091
0.05272067 -0.12354275 -0.025931692 -0.046328135 0.043209672 0.040647652 0.02479494 0.03212427
-0.10007858 0.037775435 -0.02542589 -0.1690224 0.002200495 -0.032104414 -0.028453592 0.05897983

conv2.bias f4 [20]
00000000: 82db a8bc 0a1b 503a 32d5 a8bc 5c8d 68bd
00000010: 82f5 3cbd 15b6 c13c f48d 4bbc 577f 4e3d
00000020: f6c7 3d3d 9fd9 5a3d e047 9a3c b383 c1bb
00000030: 8b0a ab3d 1cb1 83bc 5dcd a33c d8ca 78bc
00000040: 0311 5dbd 4a4a 3bbc 9adb 16bd fcb5 dd3c
-0.020612482 0.00079385994 -0.020609472 -0.056775436 -0.046132572 0.023646394 -0.012423981 0.05041441
0.046333276 0.053430196 0.0188331 -0.0059055923 0.0835162 -0.016075663 0.019995386 -0.0151850805
-0.0539713 -0.011431286 -0.036830522 0.027064316

fc1.weight f4 [50, 320]
00000000: 5cd9 90bd 2ff5 f93a b640 aebd 1371 c7bc
00000010: 19ea 9f3d fa27 223d cae3 32be 078b 97bd
00000020: 2472 203d 2cbf 933d b095 adbb 60dc 253e
00000030: 83c9 19bb 5283 45bc a1cf 1c3d 6d5f aa3d
00000040: b2c5 5a3d e5af 9a3b f9db 21bc 251d 8abc
00000050: 79ef 973d c17d b03b 063c adbd b59f 0bbe
00000060: fec4 ecbd 3e5e b33d 6301 8a3d 28a2 bdbd
00000070: 9391 6bbc 733c 593d ddb6 b83d 75e7 cbbd
00000080: d403 92bd d474 fdbc 05fe 01bb a00e 20be
00000090: 8a75 b4bd eabe 1f3c 2416 cd3c 1bb3 89bd
000000a0: c6dd ae3d 0eb0 7f3d 9821 14bd bc04 6abb
000000b0: 15e0 5e3c e671 2e3d f425 b4ba 96e4 a63c
000000c0: f763 8d3d ce1f 273d 6320 37bd 7824 e8bc
000000d0: 8f04 1e3d fbbb 943c b3c9 7d3b 158d 503d
000000e0: 5442 473d d569 b13c fd54 14be 7349 c63d
000000f0: 1e3f 8c3c 6f9c 63bd 992a 2bbd 3e87 01bc
00000100: ccd1 d1bd 6741 b6bd 6002 d03c 041b 0dbb
00000110: 4ae4 77bd 7e1f bcbd 1de9 9dbd 04c3 3bbd
00000120: 6317 08bc 90be 493a 1496 363d 4606 93bd
00000130: 00d3 29bc 67bf 603d 10b9 4bbc cfbe 613b
00000140: 050d bc3c 8ff0 483d 95f6 043d aa22 10be
00000150: a116 10be 67c9 52bd 0ecd 1a3b eec7 3c3d
00000160: 53ca 683d 7fec da3d 58ba d63a c76e b2bc
00000170: d31e 923d 4ecf ed3b d0f0 cdbc e52b c0bd
00000180: 0721 70bd d30b 75bd 81ce 1fbe 264d aa3b
00000190: 2efb 2f3d a8d0 5a3b 700a a3bd 8b15 213d
000001a0: 079d 9c3c 3f2e 7b3d ee90 0fbc 2486 ba3c
000001b0: c909 46bc e877 81bd 35f7 babc 5d62 713d
000001c0: d90e 4ebd 91c2 103d ff24 4d3c 7f10 95bd
000001d0: 3a27 a33c c985 99bc 2529 d0bd 65a6 5fbd
000001e0: a658 fe3d d350 a73d 5d3d 133c 6150 60bd
000001f0: d82b 4a38 f3c9 c63c 50b7 743d f2ee eabd
00000200: 8d96 c0bd c332 7dbc 744d 13bc 5fd1 e0bd
00000210: 35bd 6d3d 8100 afbc d378 1b3b 53b7 d13c
00000220: 621f 9c3d d774 b1bc e29c 0dbd 23a2 4a3d
00000230: 9500 e03d 8fab b3bc 0849 e7bc c82b 1ebd
00000240: 6380 dfbc 6514 133d 08cd 3c3d 9ecc 6f3d
00000250: 2055 603d ef8f 423d 45e7 fcbc c3b8 673d
00000260: 3b9c 183e 3eaa 92bd 7a9a 90bd e6a8 3e3d
00000270: c641 5e3d d174 e1bc 7e22 5fbd 61b1 a7bd
00000280: 573e c3ba 490a 833b c7d3 043e f57d 613d
00000290: 2510 0b3d 89e1 35bd 159e 743d fbbd db3c
000002a0: ec1c 273d b48a 78bd fb4e 563d fe56 733b
000002b0: fcf5 15bd 8e16 19bd effa 64bd 4d13 eabd
000002c0: eafc c3bd 5c81 ddbd ff54 20be eb9e 2bbd
000002d0: 8a42 06bd 44f3 bc3c 24a5 e7bc e2a6 ac3c
000002e0: 14f3 6c3d 0ac6 d23d 489e 8ebd 4315 c03b
000002f0: f67e d33c 614b b43d 84ae b9bc ccc6 07bd
00000300: 2262 c9bd a43e c3bc 09ed 613d eba2 f03d
00000310: b960 71ba c6f9 55bc a899 06bc 0e0a d33d
00000320: c009 b03d a05e 48bc 6a7b 763c f13f d2bd
00000330: 0999 5a3d 96a5 85bd 5bb6 79bd bf98 7e3b
00000340: 9351 733c ac18 5bbb 3e72 07bd 346a a0bd
00000350: 2844 a23c ea51 a13d c285 fa3c 2de3 9ab9
00000360: 723d 5a3d 4201 02be fb5a 10bd b34e 013e
00000370: 4d99 0fbd de03 70bd 636b 123d 826d fb3d
00000380: 7bf3 e2bd b01a a7bd 82c6 b5bd 17ff 96bd
00000390: fcfc 723d 6d02 563d aa2b 83bd 5042 65bd
000003a0: 127d 253c 398a dd3c f70d 833d 6fb8 eb3d
000003b0: f79b 733d 28f2 b5bd e55d 873c 0e12 b43d
000003c0: f1d1 6abd 226f fd3c c0ea 0e3d b713 773d
000003d0: b641 f73c 971b 3fbb b270 993c 1187 903d
000003e0: 46df 3fbd f0b4 f6bd e218 943c 71aa f43d
000003f0: 40d7 1cbe e4b7 6ebc 9fdc a1bd 41c5 c1bc
-0.07072708 0.0019070263 -0.085084364 -0.02434591 0.078083225 0.039588906 -0.17469707 -0.07399564
0.039171353 0.072141975 -0.005297385 0.16197348 -0.0023466058 -0.012055235 0.038283948 0.08318982
0.053411193 0.0047206753 -0.009879106 -0.0168596 0.07418723 0.005386085 -0.08458714 -0.13635142
-0.11561011 0.0875821 0.06738546 -0.092594445 -0.014377969 0.053036164 0.090192534 -0.09956256
-0.071296364 -0.030939497 -0.0019835245 -0.15630579 -0.08811481 0.009750107 0.025034972 -0.06723615
0.08538394 0.06242376 -0.03616485 -0.0035708388 0.01360323 0.04258909 -0.0013744221 0.02037267
0.069038324 0.040801816 -0.04470862 -0.028337702 0.038578566 0.018156042 0.0038724958 0.050915796
0.04864724 0.02165691 -0.14485545 0.09681978 0.01711994 -0.05556911 -0.04178867 -0.007905779
-0.10245094 -0.08899193 0.025391757 -0.0021530995 -0.060520448 -0.09185694 -0.077104785 -0.04584028
-0.008306357 0.00076959375 0.04457672 -0.07178931 -0.010365248 0.054870035 -0.012434259 0.0034446006
0.022955427 0.04905754 0.03246172 -0.14075723 -0.14071132 -0.051461603 0.0023620757 0.046089105
0.056833576 0.10689639 0.0016382439 -0.021781338 0.071347855 0.0072573787 -0.025139242 -0.09383372
-0.058625247 -0.05982573 -0.15606119 0.005197185 0.042964153 0.003338853 -0.07960975 0.039327186
0.019117845 0.0613234 -0.008762581 0.022769041 -0.012087294 -0.063216984 -0.022822956 0.058931697
-0.05030713 0.035341803 0.012521028 -0.07278537 0.019916166 -0.018740552 -0.10164098 -0.054602046
0.12419252 0.08169713 0.008986798 -0.054764155 4.8201386e-05 0.024266219 0.059745133 -0.114713565
-0.09403715 -0.015453997 -0.008990634 -0.10977434 0.05804177 -0.021362545 0.002372314 0.025600111
0.07623173 -0.021662159 -0.034573443 0.049471032 0.10937611 -0.021932391 -0.028233066 -0.03861597
-0.0272829 0.03590812 0.04609397 0.058544748 0.05476868 0.047500547 -0.030871997 0.056572687
0.14903347 -0.07161377 -0.07060714 0.046547793 0.054261945 -0.027521523 -0.054476254 -0.08188129
-0.0014895898 0.003999029 0.12971412 0.055051763 0.033950943 -0.04440454 0.05972107 0.026823988
0.040799066 -0.060679153 0.052321415 0.0037130709 -0.036611542 -0.037375025 -0.05590337 -0.114294626
-0.09569724 -0.10815689 -0.15657423 -0.041899603 -0.0327783 0.023065217 -0.028276987 0.02107567
0.057849005 0.10291679 -0.069637835 0.0058619096 0.025817376 0.0880344 -0.022666223 -0.03314857
-0.098331705 -0.02383358 0.055157695 0.11749824 -0.0009207833 -0.013060039 -0.008215345 0.10304652
0.0859561 -0.012229592 0.015044073 -0.10266102 0.053368602 -0.06525724 -0.060964923 0.0038848368
0.014850992 -0.0033431454 -0.033067934 -0.07832757 0.01980789 0.07876952 0.030581359 -0.00029542428
0.053281255 -0.12695792 -0.035243016 0.12627678 -0.03505831 -0.058597438 0.035746943 0.12276746
-0.110815965 -0.08159387 -0.08875753 -0.07372873 0.059323296 0.052248407 -0.06404813 -0.055971444
0.01010062 0.027043449 0.06399148 0.11509787 0.05947491 -0.08884078 0.016524265 0.08792506
-0.057329122 0.030936781 0.034891844 0.060321536 0.0301827 -0.0029160732 0.018730495 0.07057012
-0.04684379 -0.1204623 0.018078271 0.119465716 -0.15316486 -0.01457021 -0.07903408 -0.023653628

fc1.bias f4 [50]
00000000: c961 33bc 914a 4f3d 46c1 9f3d 3848 f5bc
00000010: 363e a73d 9183 6dbc cc14 f53d b84d c9bb
00000020: 3e48 c5bc ac58 1a3d f8e3 af3d 936f b43d
00000030: 4edb b1bb 6d07 dd3d 362f b93c 87e9 e03d
00000040: 347d 1f3e 0fde 99bc 9c55 703d 3d18 443d
00000050: 61fe 983d db1d 9e3d 1394 df3c 653a c63d
00000060: acb9 b2bc 6c8b fd3c 0b2b 8d3d c142 513d
00000070: c1d7 fbbc bd50 b23b 080d 9e3c b020 4f3d
00000080: 14a1 c93c c076 31bc dc22 b43d 321e b63c
00000090: 4011 9e3d f672 01bd 76b4 8c3c f8f4 af3d
000000a0: b9a3 923d a016 ea3d a99d c43d 2c9e 203e
000000b0: a785 163d 436a 813d 1611 833d 1beb c03d
000000c0: 0290 a03d 3713 203e
-0.010948607 0.05060822 0.07800536 -0.029941663 0.08166163 -0.0144967 0.11966857 -0.006143298
-0.0240823 0.03768222 0.085884035 0.088103436 -0.0054277545 0.10792432 0.02260552 0.10982042
0.15575105 -0.018782644 0.058675393 0.047874678 0.07470394 0.07720538 0.027292287 0.096791066
-0.02181705 0.03095027 0.068929754 0.051089052 -0.030742528 0.0054417537 0.019293323 0.050568283
0.02461294 -0.010831535 0.087957114 0.022231195 0.07718134 -0.031603776 0.017175894 0.08591646
0.07160134 0.114300966 0.09600384 0.15685338 0.036748555 0.06319096 0.06399743 0.09419843
0.07839967 0.1563233

fc2.weight f4 [10, 50]
00000000: e68f 1f3e 5433 343e 44d9 febd 944e 4bbe
00000010: b7bf 07bc 9e2e cf3d 1032 08be c3c0 41be
00000020: ee89 b7bd 3eaa 4f3d 6cd3 ffbd 418e 3ebe
00000030: 0ece 81be 9309 62be 97d3 a33d 8b00 b1be
00000040: 97b4 14be 6b1d 96be 3209 ef3d 9573 353e
00000050: 510c 9ebe 414f 773d 420d ad3d 4be9 eabc
00000060: 9d28 5b3b e74d 2abd 498e 53be 40b2 9abd
00000070: a79a 53be 3769 953d 8848 243e a2b9 1d3e
00000080: ba91 103e cd76 85be dae3 efbd b488 b53d
00000090: 6640 82be d1a0 50bd be09 d73d dc1b a33d
000000a0: 3a71 44be fdc8 38bb 7b68 8ebe e2b0 33be
000000b0: dbfb b83d 47c1 c13d f514 a5be adaa 8cbe
000000c0: 914b 0c3e 6d62 c73c 7701 2dbe cb5e f5bc
000000d0: 6e5e b83c e1ff 69be ac4f 7e3d 1e72 80be
000000e0: c167 c63d ae86 a7bd 9cec 2dbe 2c17 3fbe
000000f0: 9e9f 32be 4f50 833d 452c 41be 35f2 5a3e
00000100: d067 62be d966 b53d 2130 103e 26db 5abe
00000110: bb88 fcbd 4648 8ebe 945b ef3d 2ae4 573d
00000120: bcba e4bd 3d8b fb3d 6492 503d ce6e 2fbe
00000130: 89ea 3cbe c81b 94be 078d 69bd 351c 80be
00000140: 7ed8 ec3d c574 5cbe b3a1 febd 265e 6fbe
00000150: ac23 143e 99d0 2bbe 88b2 b83d 2598 8abe
00000160: e579 97be 72c1 fd3d 0c31 a13d 1afa cf3d
00000170: d576 b63d 67c5 013e 44d3 d93d 19fb db3d
00000180: 5bae bd3d 226f 623d 1aa5 9cbd 975e 4d3e
00000190: 7c2b a53d a846 403e ab13 f7bd 2489 dfbd
000001a0: 6aab a3bd 75fd 863d 565a d33d 27d4 063e
000001b0: 4407 be3d 8d1a 623d 00d9 21be 07b6 eb3d
000001c0: 6349 3abd 80b1 bbbd a139 0dbe 8e9b 2bbe
000001d0: 45f6 07be b10f a1bd d4d0 abbd a745 90bd
000001e0: 1962 4bbe c703 c13d 412c 20be fcf5 b83d
000001f0: bee9 31bc 1767 243c 182d 4e3b b28c 39be
00000200: 5892 a03d cfcb 8ebc 890e ff3d ac97 80bd
00000210: 7341 083e 705d 06be 542d 573e 8a98 933c
00000220: 07fb adbd 5608 c03c fac0 85bc b9c0 09be
00000230: be54 e33d 1b42 1c3e 5d88 89be 0d2b 0e3e
00000240: 6ae1 023e 6fff cb3d f70f a3be 4c52 d6bd
00000250: 2a67 08be d842 0ebe 0509 d2bb a6ba 89bd
00000260: 2158 f4bd 3489 c53d 7c89 2abe d522 3dbe
00000270: c8ee 6dbe 9746 143e 693f 293d 40b0 5a3d
00000280: 9ae4 e8bd b835 c93d 8f74 233e 5579 80be
00000290: ab11 633d 30e5 a83d a626 58be 35bc 0b3e
000002a0: 9516 8fbd 30a9 3abe 48d0 0abe b53d c23d
000002b0: 5f53 17be 95d9 48be a4fe 013d 5e6a 04be
000002c0: 5b3b 2fbe be5b 07be 85a2 8d3d 3967 fe3d
000002d0: 8c80 04be 75ae 36be c858 073e c561 2a3d
000002e0: 781b a43c 66de 843d 6f42 2a3e f4fe 02be
000002f0: 9d69 07be e1ee abbd 2a2e bd3d 677a 1abe
00000300: 1746 c3bd 2fbe 4dbd 633b ee3d 1db6 e13d
00000310: 4bda 103c 753f 0a3e 91ba 50bd c784 27be
00000320: ae7d 083e 3a18 8dbd e9d4 14be 4be9 12be
00000330: cf65 1b3e 4241 c93d 8f6f 2a3d 8b41 043e
00000340: 6d03 063e 0cd5 c5be f798 aa3d 1bc3 6abe
00000350: d79a 2a3d 9e12 473e 6569 cabd 821e 02be
00000360: 8f22 b73d 086d e63d 7983 1ebe 100e 64be
00000370: bb81 9b3d b3be 52be d9f7 88be 1cb8 dd3d
00000380: eedc e93d 6ff4 5b3e 2de6 253e 36f0 c53d
00000390: 9fc7 153d b9ac f4bd a59c 913d 8723 e2bd
000003a0: 4db3 1f3d 7edd c23d 7791 03bd 5ef7 4ebe
000003b0: b881 f63d d80c 2e3d c017 36be 263e 3bbe
000003c0: 4650 a1bd 195b b9bd 4f55 a03d c99b 24be
000003d0: 6f36 26be 3286 50be 13b7 c83d 2f6e d6bd
000003e0: a18d 753d 8c77 e7bd 8ba1 15be 8477 8fbc
000003f0: 2a6b 65be 66ce cf3d 7b28 da3d c2e5 55be
0.15582237 0.17597705 -0.12443784 -0.19854194 -0.0082854545 0.101163134 -0.13300347 -0.18921189
-0.08961855 0.050699465 -0.124914974 -0.18608953 -0.2535252 -0.22073965 0.07999342 -0.34570727
-0.14522015 -0.2931932 0.11671676 0.17719872 -0.30868772 0.060378317 0.08449794 -0.028675696
0.0033440955 -0.0415782 -0.20659746 -0.0755353 -0.20664464 0.07295459 0.16043293 0.15402845
0.1411809 -0.260672 -0.11713381 0.08863965 -0.25439757 -0.050934616 0.10499905 0.07964298
-0.19183818 -0.002819597 -0.27814087 -0.17547944 0.090324126 0.09460693 -0.3224255 -0.27473965
0.13700701 0.024338925 -0.1689509 -0.029952427 0.022505965 -0.22851516 0.0620877 -0.25087065
0.09687758 -0.08179985 -0.1698479 -0.18661183 -0.17443702 0.06411802 -0.18864544 0.21381457
-0.22109914 0.08857507 0.1408086 -0.21372661 -0.12330767 -0.27789515 0.11687389 0.05270783
-0.11168429 0.12282417 0.05092086 -0.17132112 -0.18448843 -0.28927445 -0.05701926 -0.2502152
0.1156473 -0.21528919 -0.124331854 -0.23375759 0.14466733 -0.16778792 0.09018427 -0.27069202
-0.29585186 0.123904124 0.07870683 0.10155125 0.08909384 0.1267296 0.10635999 0.107412525
0.09261771 0.055281766 -0.07648678 0.20055614 0.080649346 0.18776953 -0.12064298 -0.109148294
-0.07991679 0.06591312 0.103199646 0.13166867 0.092787296 0.055201102 -0.15805435 0.11509328
-0.045480143 -0.09164715 -0.13791515 -0.16758558 -0.13277538 -0.07864321 -0.0838944 -0.07044535
-0.1986164 0.094245486 -0.15641882 0.09031293 -0.010858951 0.010034344 0.0031459983 -0.18120077
0.07840413 -0.017431168 0.12453944 -0.06278929 0.13306217 -0.13121581 0.21013385 0.018017072
-0.08495145 0.023441475 -0.01632737 -0.13452424 0.11100148 0.15259592 -0.2686185 0.1388361
0.12781301 0.099608295 -0.31848118 -0.10464916 -0.13320604 -0.13892686 -0.0064097666 -0.067250535
-0.11930872 0.0964531 -0.16654009 -0.18470319 -0.23235619 0.14480053 0.04132024 0.05339074
-0.11371727 0.09824699 0.15962432 -0.2509257 0.05543677 0.08246839 -0.21108493 0.13646014
-0.06986729 -0.18228602 -0.13556015 0.09484426 -0.14777897 -0.19614251 0.031736985 -0.12931201
-0.17112486 -0.1321859 0.06915764 0.12422032 -0.12939662 -0.17839988 0.13217461 0.041597147
0.02003263 0.06487732 0.16626905 -0.1279257 -0.13223882 -0.08395172 0.09237321 -0.15085755
-0.09534853 -0.0502302 0.11632421 0.110210635 0.008841108 0.1350077 -0.050959174 -0.16359244
0.13329193 -0.068893865 -0.14534344 -0.14346807 0.15175556 0.098269 0.041610297 0.12915628
0.13087244 -0.38639104 0.08329957 -0.2292599 0.041651573 0.19440696 -0.09883384 -0.1270695
0.089421384 0.11251265 -0.1547984 -0.2227099 0.075931035 -0.20580558 -0.26751593 0.10826132
0.11419092 0.21479963 0.16201086 0.09664957 0.036567327 -0.11947007 0.07109956 -0.110419326
0.038989354 0.095149025 -0.032121148 -0.2021155 0.12036461 0.042492718 -0.17782497 -0.18285426
-0.07876639 -0.090505786 0.07828771 -0.16075052 -0.16231702 -0.20363691 0.09800544 -0.104702346
0.05994952 -0.11302099 -0.14612405 -0.017513044 -0.22404161 0.10146789 0.10652252 -0.20888427

fc2.bias f4 [10]
00000000: 8ddf dabb 1efa 713e 2896 3dbe 5a4c 9c3d
00000010: cfe0 8fbd 4183 f03d 6f51 f03d 533f e6bd
00000020: db35 17bd ddb6 96bd
-0.0066794814 0.23630568 -0.18514311 0.076317504 -0.07025301 0.11743785 0.11734282 -0.11242547
-0.036916595 -0.07359097

exp_avg f4 [10, 1, 5, 5]
00000000: 898e de3b 6360 8b3b 0553 d03b 984b 393c
00000010: 7d66 6d3c e68b 6f3b 9acc 633b 75f5 683b
00000020: 6467 f13b 249e 283c 9bc6 3f3b ebea a13a
00000030: f2ce 07bb f03a ff39 cffa 433b a1ee 87ba
00000040: e1a7 c6ba 3321 37bb f4ad ceba 4356 053a
00000050: 42dd 3f3a 2868 3339 fafc 183b d812 aa3a
00000060: f041 783b c327 26bb 99ec 83b9 346b d5ba
00000070: 3f3a f8ba 0c97 ce39 777f cfb7 9fe8 60ba
00000080: 2e3a 4539 fb85 053a 92d5 c739 4557 8d3b
00000090: 94e3 893b 19c2 fa3a fdef 6db9 7381 adba
000000a0: 65ac 953b 6135 e33b bd30 803b ff9c 063b
000000b0: 56e0 bc3a 3bb1 883b 3a97 b63b 8b42 a13b
000000c0: 5d58 8d3b 3232 4d3b 5ab4 063a e3e0 52ba
000000d0: af5b 2abb 7c7c a0bb 5843 39bb 3e31 823b
000000e0: c8a5 c63a 95ab 413a f5d3 303b c2bf 5d3a
000000f0: 07bb 953b 07cc 063b 33de 953b 063b 703b
00000100: 3d38 37ba 5f84 5a3b 7aa5 f33a 9777 f33a
00000110: 3149 a8b9 3ff6 06b9 7372 ba39 689d 8eba
00000120: d31f ebba 04ae d0ba 3a0b 6f3a eff0 6dba
00000130: 8565 9cba 27a5 85ba f3de 863a e0ea 34b9
00000140: 7318 5cba 041d 1cba 5ba9 a8ba 0410 cf39
00000150: fe86 023a 898d 20bb 4d91 26bb 7bea 0bbb
00000160: e743 6cba 1ee6 6639 64d2 bfbb 3a54 abbb
00000170: 54e4 30bb 7272 9eba 17f8 3a38 a159 1dbc
00000180: d38e e4bb 2b65 afbb 1c16 70bb dd09 9dba
00000190: 1997 01bc 53e4 4bbc 6bf6 67bc 6eed 13bc
000001a0: 0d46 36ba cccd 13bc 8813 19bc 239b 1fbc
000001b0: 350d 32bb bb8a 1c3b 8909 beba 6527 983a
000001c0: 19c3 d93a 9451 403b 160e fe3b 8727 843b
000001d0: e154 cb3b f0f7 3d3b d986 753b d254 173c
000001e0: 27d4 2d3c e071 433c 7f97 c33b efe6 883b
000001f0: bb85 aa3b ff55 173c 74d7 1a3c 0d5b fe3b
00000200: 3a2e fb3b 73d5 f03b 70e6 d83b 8931 073c
00000210: 6666 a23b f941 a53b c973 ce3b 784c b73b
00000220: 68cf 0b3b ab6a 033b 684c fe3a 2b9b b53b
00000230: 705d 353b d483 8839 1b30 9b3a 8934 e139
00000240: 9db5 283b ed85 59ba c2ea 9cbb d2cd 2dbb
00000250: e94e 94ba 2183 5bba 6390 6d3b 5505 793b
00000260: 9f61 293b 68e7 cab9 764e 2abb 3096 673b
00000270: 2797 063b dbfa a93b ef79 ea37 f369 c8ba
00000280: ec69 2e3b 545f f63a 82eb f23a c101 263b
00000290: cd8c f9b9 2e96 0d3a 1c0b 93ba edb9 4b3a
000002a0: 416f 863b 8956 91ba 0022 f6b8 7529 e23a
000002b0: 620d c83a b755 ca3a 897a 7139 6884 843b
000002c0: 00df 8d3b 0fc2 923a e5c4 113a 5638 403b
000002d0: 3184 d73b 826b 023b aed5 843a b4b1 173b
000002e0: f9dc 6e3b 016c 953b 1cd7 fa3a d0da 8738
000002f0: 835c b63b 5e2b ab3b 74d7 6a39 8465 2dbb
00000300: af45 cbba a804 cb3b d2b5 5e3b 5909 98bb
00000310: 1777 d3bb 78e3 19bb ddc2 2d3b acee f53a
00000320: da13 8c3c 322f 4c3c 3366 3b3c 7dae 3b3c
00000330: 1188 063c 0e22 803c f84e 493c 86ea 243c
00000340: 9669 243c 792b 133c 1437 293c f294 cd3b
00000350: f539 7c3b ad42 8c3a 684d a2ba 65d1 683b
00000360: fea5 6db9 e9dc a2bb da58 b5bb 405e 00bc
00000370: a5c2 8aba d4e2 ffba f2e1 86bb 8e0c 9cbb
00000380: 080e eabb b13c b4bb 6e25 17bb ee03 92bb
00000390: ba8c 62bb 9826 72bb 085e f5bb 7a85 a5bb
000003a0: 1435 96bb ac36 e0bb 4f1b 94bb d75b bbbb
000003b0: 1abf 88b9 cb02 61bb 08de 94bb 2370 1b3b
000003c0: fe68 973b e4c6 733b b233 413b 84c9 ea3b
000003d0: 5f9a 253c b258 543c 223f 0b3c 3719 cd3b
000003e0: 5cb9 063c b2da 333c
0.006791894 0.0042534336 0.006357553 0.011309527 0.014489767 0.0036551892 0.0034759403 0.0035546694
0.0073670615 0.01029161 0.0029262665 0.0012353336 -0.0020722714 0.00048681302 0.0029904132 -0.00103708
-0.0015156233 -0.0027943372 -0.0015768395 0.00050864014 0.0007319042 0.00017109571 0.0023344145 0.0012975587
0.0037881099 -0.002535329 -0.00025162546 -0.0016282559 -0.0018938257 0.0003940392 -2.4735678e-05 -0.0008579585
0.00018809058 0.0005093512 0.0003811536 0.004313382 0.0042080376 0.0019131332 -0.00022691484 -0.0013237431
0.00456767 0.0069338535 0.00391206 0.0020540354 0.0014410119 0.004171518 0.005572227 0.0049212626
0.0043135122 0.0031310436 0.0005138569 -0.0008044375 -0.002599459 -0.004897652 -0.00282689 0.0039731553
0.0015155608 0.00073879334 0.0026981805 0.0008459055 0.0045694145 0.0020568387 0.0045736074 0.0036656274
-0.0006989276 0.003334306 0.0018588745 0.0018575069 -0.0003209799 -0.0001287097 0.00035561956 -0.0010880651
-0.0017938562 -0.0015921001 0.00091187994 -0.00090767344 -0.0011932111 -0.0010196314 0.0010289833 -0.00017253635
-0.0008395977 -0.00059552514 -0.0012867855 0.0003949405 0.0004979222 -0.0024498424 -0.0025416196 -0.0021349478
-0.0009012804 0.00022020235 -0.005853938 -0.0052285464 -0.0026991563 -0.0012088551 4.4576907e-05 -0.009603889
-0.006975034 -0.0053526363 -0.0036634272 -0.0011981089 -0.00790956 -0.012444573 -0.014157872 -0.009028776
-0.00069531874 -0.009021234 -0.0093430355 -0.009741577 -0.0027168517 0.00238864 -0.0014498691 0.001160842
0.001661393 0.00293455 0.007753144 0.0040330323 0.0062051867 0.0028986894 0.0037464409 0.009236531
0.010609663 0.011929005 0.0059689875 0.00417792 0.00520393 0.009236812 0.009450782 0.007762319
0.0076654227 0.007349664 0.006619267 0.008251556 0.0049560545 0.005043265 0.0063004238 0.0055938326
0.002133334 0.0020052593 0.0019401433 0.005542179 0.0027674101 0.0002603816 0.0011839898 0.00042954486
0.0025743016 -0.00082978496 -0.0047887275 -0.0026520384 -0.0011315021 -0.0008373727 0.0036249391 0.0037997563
0.002584554 -0.00038700853 -0.0025986708 0.0035337321 0.002053687 0.005187375 2.7951754e-05 -0.0015290364
0.0026613427 0.001879672 0.0018533322 0.0025330635 -0.00047597886 0.00054011017 -0.0011218521 0.00077715405
0.004102618 -0.0011088412 -0.00011736527 0.0017254787 0.0015262777 0.0015436922 0.00023029199 0.0040441044
0.004329562 0.001119675 0.00055606506 0.0029330454 0.0065770377 0.0019900505 0.0010134482 0.002314669
0.0036447628 0.004559994 0.0019137594 6.478059e-05 0.0055652275 0.0052236756 0.00022396242 -0.0026458213
-0.0015508438 0.0061956234 0.0033982885 -0.004639786 -0.0064534056 -0.002348153 0.0026513853 0.0018763146
0.01709931 0.012462424 0.01143794 0.0114551755 0.008211152 0.015641239 0.012286894 0.01006568
0.010034939 0.008982533 0.010328073 0.006273859 0.0038486694 0.0010701023 -0.0012382688 0.00355252
-0.00022663918 -0.004970182 -0.0055342736 -0.007834971 -0.0010586573 -0.0019522556 -0.0041162902 -0.004762239
-0.007142786 -0.005500399 -0.0023063081 -0.004456035 -0.0034568743 -0.0036949273 -0.007488016 -0.005051312
-0.004583964 -0.006842455 -0.004519857 -0.0057177353 -0.00026082323 -0.003433394 -0.0045430698 0.0023717962
0.0046206703 0.0037197405 0.0029480276 0.007165136 0.010107606 0.0129606 0.008498939 0.0062591094
0.008222904 0.010977434

exp_avg_sq f4 [10, 1, 5, 5]
00000000: 87dc 203a 9285 073a 361a f639 f0bb eb39
00000010: 5eac ec39 d6c7 1a3a 3857 f639 627b d339
00000020: 78a6 c339 c8e5 ea39 4e87 083a 5b73 e039
00000030: d1ce cc39 7dc9 e839 74f9 063a 0e6c ef39
00000040: 1c4e d939 b222 d939 b6c4 ed39 cd44 023a
00000050: b815 e039 7d0e c639 392d b339 401b b439
00000060: 17b8 d439 2f2c 8739 9881 9e39 8d8d 8339
00000070: 2d43 7e39 f797 9439 af83 a839 c18f 9939
00000080: deb4 5d39 c601 8339 931a 9b39 17ab a939
00000090: 2f4f 7239 45cd 6c39 7b91 8c39 cd48 a339
000000a0: 5fca 9a39 d983 6f39 576c 8539 5293 9939
000000b0: 7892 ae39 5aae 8f39 9b1b 8339 2300 9039
000000c0: 972c a239 afda b239 0b32 1239 2c8f 1739
000000d0: 296e 2a39 2117 3a39 9d40 3739 60f9 0939
000000e0: b8fa 2639 6458 3539 fcf0 3039 94b5 2b39
000000f0: d61c 1939 d15e 2239 3076 1f39 f290 1a39
00000100: eef6 2039 9bb8 2439 e671 1c39 8396 1539
00000110: 701b 1839 be36 2339 de51 2c39 cd9c 1f39
00000120: 6d02 1b39 54dc 2539 6a1e 3039 c50f 033a
00000130: 4f85 f739 a451 d939 ef35 d439 4e46 e239
00000140: def3 db39 3531 c039 c01e a739 7a7d 9f39
00000150: 3354 bb39 c8ac bb39 e395 9f39 fb61 8739
00000160: 65f7 8539 954a b239 11da b139 40d0 9039
00000170: baa8 8e39 d2d9 a239 2695 da39 dd1b c339
00000180: 9994 a639 5def b039 f6bb d239 13b3 053a
00000190: 64b4 df39 44ff e839 9fb8 d739 b268 f239
000001a0: ce5c 2a3a f64d bd39 b855 ce39 64c9 a239
000001b0: d9b9 f839 53f3 3a3a ba43 b239 4c11 c539
000001c0: 9b81 b039 7e82 0b3a 348b 463a 223c c539
000001d0: e546 de39 6070 da39 7679 183a b767 4c3a
000001e0: abab e239 e520 f339 937f fa39 2602 1b3a
000001f0: af32 4b3a f26e 543a c12c 223a ee47 003a
00000200: e993 013a 4d48 f639 3803 303a d746 023a
00000210: 58eb d939 bacf d839 d19f df39 4503 123a
00000220: bfc3 e239 ff8f b339 eee1 ab39 7eda d639
00000230: 0ef7 f639 a290 cd39 234a b039 8cb5 b639
00000240: cfc9 da39 d636 d539 7c8a bc39 b9c3 b739
00000250: 4faa c939 d1f1 dd39 365b bd39 825a d239
00000260: a429 033a 05f8 193a ea07 193a 79d2 e739
00000270: 7a56 0b3a 9f23 1d3a 00f4 1c3a 0b72 163a
00000280: d6d6 043a 32fa 0e3a af81 ff39 eca2 e439
00000290: 1abe 003a 58a8 fb39 afce e739 aebe c139
000002a0: f249 ba39 85da e139 e503 d939 0954 ba39
000002b0: 3fcd a539 ee87 b839 6963 e339 d999 d739
000002c0: 59c8 c739 4933 d939 ee66 f039 c494 fe39
000002d0: 8048 d839 1923 ee39 08a0 ee39 3bb6 f539
000002e0: b389 013a 518d 003a 7b65 f939 ceb2 d739
000002f0: 2934 cd39 5eb4 e939 1622 f739 3d3e d839
00000300: da10 b839 3287 b139 c4cd d739 202e d339
00000310: dbaa ba39 f540 b439 7812 bc39 5096 dc39
00000320: 902e e23a 50e3 dd3a 4b3d e33a 46b5 f03a
00000330: ae3d f63a c42b e63a bee0 093b c722 183b
00000340: 5e3b 143b 0820 053b b6ae f83a d136 0c3b
00000350: 698f 0c3b e0fe 003b 35b3 e13a 28c5 e53a
00000360: 370e dc3a edbb bc3a f9b8 b83a dceb b93a
00000370: 44ed cc3a df45 b13a 10c2 a33a 295a a83a
00000380: 78eb af3a d553 cc39 e9c6 c239 b1ec b039
00000390: 01da bb39 4d8b ce39 01d0 b739 99b8 9f39
000003a0: 3541 9c39 8046 bf39 53e6 dd39 771b a039
000003b0: ab57 9239 a72b bc39 7e22 e139 4278 003a
000003c0: 84db 9939 f40f a939 eabb e939 29a3 173a
000003d0: 5406 1b3a 7201 a639 ad39 ca39 734f 093a
000003e0: 8361 1d3a 4737 0d3a
0.0006136377 0.0005169745 0.00046940305 0.00044962717 0.0004514185 0.00059044117 0.0004698576 0.00040336984
0.00037317327 0.00044803158 0.000520815 0.00042810556 0.00039064002 0.0004440061 0.0005148866 0.0004566614
0.0004144766 0.00041415315 0.00045350724 0.00049693586 0.0004274079 0.00037776298 0.00034175234 0.00034352578
0.0004057295 0.00025782126 0.00030232663 0.0002509173 0.00024248353 0.00028341982 0.0003214157 0.0002928954
0.0002114358 0.00024987588 0.00029583703 0.00032361664 0.00023108417 0.00022583183 0.00026811272 0.00031144024
0.00029523947 0.00022841933 0.00025448456 0.00029292196 0.00033296994 0.00027404987 0.00025006835 0.00027465922
0.0003093227 0.00034113738 0.00013942287 0.00014453818 0.00016253501 0.00017746958 0.0001747631 0.00013158238
0.00015924394 0.00017294433 0.00016874442 0.00016375474 0.00014601959 0.00015484846 0.0001520745 0.00014740581
0.00015350778 0.0001570903 0.0001491975 0.00014265817 0.00014506071 0.00015565284 0.00016433696 0.00015221834
0.00014782856 0.00015817705 0.00016795998 0.0004999603 0.00047210834 0.00041450292 0.00040475975 0.0004315846
0.0004195263 0.00036657756 0.00031875633 0.0003042033 0.00035730153 0.00035796151 0.00030438518 0.00025822208
0.0002555206 0.00034006374 0.00033922543 0.0002762098 0.00027210062 0.00031061337 0.00041691324 0.00037214058
0.000317727 0.00033747675 0.00040194363 0.00051002315 0.00042668276 0.00044440676 0.0004114555 0.0004623584
0.00064988143 0.00036106975 0.00039355247 0.00031049096 0.00047440713 0.0007131595 0.00034001266 0.00037587655
0.000336659 0.0005321874 0.00075738435 0.0003761957 0.0004239596 0.00041663926 0.0005816439 0.0007797437
0.00043233982 0.0004637308 0.00047778766 0.0005913101 0.0007751388 0.00081036903 0.00061864784 0.0004893531
0.0004943 0.00046974645 0.0006714347 0.00049696624 0.0004156481 0.000413535 0.00042652947 0.0005569945
0.0004325192 0.00034248826 0.00032783992 0.0004098005 0.00047104846 0.00039208407 0.00033624572 0.00034849008
0.0004173056 0.00040667382 0.00035961333 0.00035050305 0.00038464597 0.00042332572 0.00036116847 0.00040121755
0.00050034584 0.00058734446 0.0005837666 0.00044216568 0.0005315315 0.00059943827 0.00059872866 0.00057390396
0.00050674134 0.0005454152 0.00048734012 0.00043608935 0.000491114 0.00047999877 0.00044213745 0.00036953896
0.00035531778 0.00043078154 0.00041392367 0.00035539296 0.00031624173 0.0003519649 0.0004337088 0.0004112262
0.00038105508 0.00041427676 0.00045853056 0.00048557494 0.00041252747 0.00045421047 0.0004551413 0.00046865814
0.0004941478 0.000490387 0.0004756859 0.00041141215 0.0003913951 0.00044575607 0.00047136907 0.00041245102
0.0003510777 0.000338608 0.00041161303 0.00040279422 0.00035603982 0.00034380672 0.00035871915 0.00042073661
0.0017256308 0.0016928706 0.0017336992 0.001836457 0.0018786693 0.0017560651 0.0021038498 0.0023214088
0.0022618393 0.0020313282 0.0018972966 0.0021394978 0.0021447784 0.0019683167 0.0017219546 0.0017530071
0.0016788904 0.0014399268 0.0014093212 0.0014184671 0.0015634676 0.0013524852 0.0012493748 0.0012844253
0.0013421616 0.00038972372 0.00037150763 0.00033745685 0.00035829845 0.0003939517 0.00035059455 0.0003046438
0.00029803222 0.00036482885 0.0004232401 0.0003053804 0.00027912608 0.00035890678 0.00042941043 0.00049007323
0.00029345986 0.00032246078 0.0004458123 0.00057845056 0.0005913724 0.00031663064 0.00038571414 0.0005237974
0.0006003605 0.000538696

exp_avg f4 [10]
00000000: fcae d8bb 3f60 033b 8f0d b53b 0118 4b3b
00000010: d8e1 e9b9 58b6 b8bb 0d20 7bbb 5a94 a63b
00000020: e68f e03b 223f 9b3b
-0.0066126566 0.002004638 0.005525298 0.003098965 -0.0004460949 -0.0056369714 -0.0038318664 0.005083603
0.0068530915 0.0047377506

exp_avg_sq f4 [10]
00000000: ee81 2b3a 69d9 af39 4f4c 1139 60ec 6039
00000010: d46a 653a abfc 333a c389 8639 bbdd e139
00000020: 98ad 973a 3a2c b139
0.00065424934 0.00033540584 0.00013856705 0.00021450361 0.00087515754 0.00068659586 0.00025661112 0.00043080546
0.0011572121 0.00033793022

exp_avg f4 [20, 10, 5, 5]
00000000: 7358 8d3a b518 bb3a bbfd 2e3b c665 853b
00000010: 41f1 283b b9ec e03a 041b b139 0336 15bb
00000020: dbdb e3bb 5282 07bc b54e 3eba bd29 00bb
00000030: 061f 54bb 89f1 0dbb be83 393a ad2c a4ba
00000040: 010e 53bb 742e f8ba ea14 a039 16a7 a23a
00000050: eac6 ceba 9c33 13bb 0f0c 4bba 022d ac38
00000060: a6e6 ecba 2656 b73a 3bb4 ba3a 5bd5 2a39
00000070: 4600 983a 7dee 8a3b 38f2 ddb9 cec4 0fb9
00000080: d925 1239 3170 6d3b c7a8 8c3b 1ec6 02b9
00000090: eaee 88ba 647c d239 3286 f8ba cf3a 07bc
000000a0: abaf 01bb 0ec6 5bbb e08f 9bba bd06 febb
000000b0: 4279 12bc 8939 71ba 456e 6cba 4ce1 3fbb
000000c0: d0c2 f7bb 9cd1 8dba 80ad d13a d2ee e93a
000000d0: a7c2 61ba 505e cb3a 034a 2e3b 768b b739
000000e0: 4a59 36ba b019 8a3a ed7e 753b 2b89 5b3b
000000f0: 711d bb3a 7837 f5ba ef92 b2ba e9df 84bb
00000100: 5ded 0bbc bee3 01bb 6bc0 a5bb 408d 7aba
00000110: 4527 bcbb cf85 77bb d5ee a3ba 2e9d 8a3a
00000120: ba58 81ba 2265 1fbb b33b 9d3a aabc 17bc
00000130: fc4f e8bb 7f5a 29bc 1c8a 34bc 2961 26bc
00000140: ee53 0fbc 7884 02bc 2944 35bc 35f7 0bbc
00000150: 3523 acbb 3f5a edbb 8830 0ebc ca9e 06bc
00000160: 296e a2bb 2348 f4bb c3fe 9fbb c2b2 ecbb
00000170: f436 88bb 2b87 fcbb 56ee 78bc 0aa9 b7bb
00000180: 3ec8 b2bb a26c 94bb 26c3 2cbc 4505 57bc
00000190: d7d6 e639 cfa9 7cba 36b7 fb37 7908 7b3b
000001a0: 2389 903a a25f 893a 371b 4aba 2944 9e39
000001b0: 5e11 2d3b bf54 e1ba a836 d43a 9dd3 8cba
000001c0: 98d8 813a 2c50 b73a 3820 b3ba 2ab5 ffba
000001d0: 733d d138 bbba efb9 fdad 05bc 0728 5fbb
000001e0: 227d abbb c901 0dbb a073 cebb d92e 25bc
000001f0: ccb8 f4ba 7393 153b d19e 6c3a 3bfe e9b8
00000200: 7829 77bb 20c3 b8bb 1654 053b a08e a9b9
00000210: 029d a5bb 0cea acbb 7657 c2bb 166e 65ba
00000220: af5e a4bb 4fee 67bb 3a40 783b ec38 ee3b
00000230: b9f3 10bb a6ae 57bb b129 36bb ae28 2cba
00000240: 887d 443b 7892 67bb 7e4f b5ba 41dc 1a3b
00000250: 9c91 d8b9 adc8 96bb 17f5 c93a 2b0a 023b
00000260: 48e6 81ba b413 1f3a 3a40 893a 7569 2e3a
00000270: bc11 7b3a 64e1 8c3a 08b1 04ba 2f09 0f39
00000280: bceb e739 b3b7 ba3a 3dbc e4ba 85ce bebb
00000290: 9038 bebb 108d 52ba b474 e4ba 7f1e 813a
000002a0: 26b9 8439 0b7a acba df78 beb9 a53a 5aba
000002b0: 1aff cfba 8c0c 733b d2ab 323b 4355 233b
000002c0: 98c9 563b 7850 d8b9 c9af 9139 ce40 2a3b
000002d0: 2651 60b9 bef2 113a 67a2 453a 2f57 cdb9
000002e0: 681c 03ba e9b9 c03a 8f65 7c3a 8bf1 0ebb
000002f0: 684b c8bb 75d5 22bc 8584 e1ba 1c05 43bb
00000300: 29c3 6a3a f31b bf3a a852 9bba 4ff9 9e3a
00000310: d78b 50ba 452d 5fbb 16c5 4b3b d4a5 b43b
00000320: bcf7 acb9 3614 2e37 9a1a 86ba bb75 39ba
00000330: bc8e e93a 9f7c 8d39 709d 9c37 30d8 44ba
00000340: b1d9 deba 8dfc ddba 708b f339 2df3 16bb
00000350: 246d 58bb f2f7 44bb 9dc5 e9bb 0ce6 4abb
00000360: 3790 89bb 353c 9438 a6e5 a33b fab3 8d3b
00000370: b87a a439 c936 833a b0b1 f8ba 4110 ddba
00000380: 5787 2a3b 8e9b ed3a 4f7b 91b9 2794 ceba
00000390: 25d5 c5ba b898 0ebb ae8d 883b 8da7 a73a
000003a0: fa64 31ba 82c5 ef3a ce11 c739 28ba 5e3b
000003b0: aa99 afba f7dc 173b 8648 e23b 2d5e d43b
000003c0: 3a8a 19b9 810f a6ba e05a 0c3b 118c 863a
000003d0: 6c65 a63b 5b6e 87bb 0866 36bb aea9 05b9
000003e0: 1e06 4ebb 921b ccba db1a ce3a 520c 9f3a
000003f0: 3551 eb3a e040 373b e784 3f3b 6cb6 f4b9
0.0010783806 0.0014274331 0.0026701528 0.00407097 0.0025778564 0.0017160393 0.000337802 -0.002276779
-0.006953699 -0.008270817 -0.0007259653 -0.0019556128 -0.0032367124 -0.0021658859 0.0007076821 -0.0012525521
-0.0032204392 -0.0018934743 0.0003053316 0.0012409415 -0.0015775834 -0.0022461182 -0.00077456323 8.2099825e-05
-0.001807411 0.0013987466 0.0014244387 0.00016291944 0.0011596761 0.004239856 -0.00042332872 -0.00013710858
0.00013937744 0.0036230201 0.0042925808 -0.0001247157 -0.0010447179 0.00040147 -0.0018960892 -0.008253767
-0.0019788544 -0.0033534798 -0.001186844 -0.007752268 -0.008940043 -0.0009201994 -0.0009019117 -0.0029278575
-0.0075610653 -0.0010819915 0.0015997142 0.0017847663 -0.00086120743 0.0015515778 0.0026594407 0.00035008386
-0.0006956054 0.001053622 0.0037459687 0.0033498507 0.0014275742 -0.0018708548 -0.0013624112 -0.0040550125
-0.008540479 -0.0019819583 -0.0050583384 -0.0009557791 -0.005741986 -0.0037768965 -0.001250709 0.0010575408
-0.0009868362 -0.0024321754 0.0011995941 -0.00926129 -0.007089613 -0.010336517 -0.011019256 -0.010155001
-0.008748038 -0.007966153 -0.011063614 -0.0085428255 -0.0052532204 -0.007243424 -0.008678563 -0.008216569
-0.00495698 -0.0074548884 -0.004882665 -0.007223458 -0.0041569415 -0.007706543 -0.015193542 -0.005604868
-0.0054559996 -0.0045295516 -0.010544574 -0.013123815 0.00044029087 -0.00096383406 3.0006846e-05 0.003830461
0.0011027198 0.0010480771 -0.0007709744 0.00030186892 0.0026408057 -0.0017191394 0.0016190605 -0.0010744218
0.0009906469 0.0013985685 -0.0013666218 -0.0019508947 9.9773424e-05 -0.00045724757 -0.008159158 -0.0034050958
-0.005233423 -0.0021515957 -0.0063004047 -0.01008197 -0.0018670796 0.0022823482 0.0009026351 -0.0001115766
-0.0037713926 -0.005638495 0.0020344309 -0.00032340456 -0.005054117 -0.005276924 -0.0059308363 -0.0008752061
-0.00501617 -0.0035389846 0.003788008 0.007269969 -0.0022117926 -0.0032910495 -0.0027795846 -0.0006567341
0.002998205 -0.0035335105 -0.0013832895 0.0023629817 -0.00041307218 -0.004601559 0.0015408125 0.0019842486
-0.0009910548 0.00060683046 0.0010471412 0.00066532876 0.0009577533 0.0010748324 -0.000506178 0.00013640964
0.0004423539 0.001424542 -0.0017451119 -0.005822959 -0.0058050826 -0.0008031884 -0.00174298 0.0009851007
0.00025314948 -0.001315893 -0.0003632968 -0.0008324779 -0.0015868873 0.0037086336 0.0027263057 0.0024922646
0.0032773968 -0.00041258684 0.00027787525 0.0025978568 -0.00021392535 0.00055674824 0.00075391534 -0.00039165604
-0.0005001486 0.0014703843 0.00096281705 -0.0021811451 -0.0061125048 -0.009938587 -0.0017205632 -0.0029757684
0.0008955473 0.0014580473 -0.0011850195 0.0012128743 -0.0007955408 -0.0034054082 0.0031092814 0.0055129323
-0.00032990973 1.0375914e-05 -0.0010231317 -0.0007074733 0.0017819027 0.00026986466 1.8669962e-05 -0.0007509021
-0.0017002133 -0.0016936228 0.0004645246 -0.0023033128 -0.0033024037 -0.0030055013 -0.007134153 -0.0030959873
-0.0041981 7.0684044e-05 0.0050017415 0.0043244334 0.0003137195 0.0010010834 -0.0018973853 -0.0016865806
0.002602061 0.0018128024 -0.00027748427 -0.0015760706 -0.0015093429 -0.0021758508 0.00416728 0.0012791023
-0.0006767061 0.0018293115 0.00037969503 0.003398547 -0.0013397236 0.0023172477 0.006905618 0.006480953
-0.0001464271 -0.0012669415 0.002141647 0.0010265132 0.0050780084 -0.0041330284 -0.0027831811 -0.00012747079
-0.0031436752 -0.0015572181 0.0015724556 0.0012134409 0.0017953279 0.0027962252 0.0029223503 -0.00046675222
