checkpoint/model_epoch5.pth (torch, 268573 bytes, 24 tensors)

conv1.weight f4 [10, 1, 5, 5]
-0.1740993 -0.18953098 -0.2463519 -0.30059528 -0.2628198 0.18559235 0.11929289 -0.1341726
-0.040584352 -0.18461469 -0.14430924 -0.023866665 0.13966551 0.3017938 0.41435865 0.2324837
0.16200078 0.28194833 0.19373913 0.09875992 0.09838817 -0.09560307 -0.07515766 -0.15307955
-0.09500049 0.35905913 0.3085494 0.18363468 -0.1727822 -0.08313566 0.39305744 0.3034597
0.02306785 -0.24055766 -0.074363 0.24011312 -0.08344051 -0.27231547 0.0031898129 0.060176354
0.19478145 -0.13090429 -0.15366621 -0.28350213 0.053428076 -0.112440355 -0.19397825 -0.1276288
-0.29570997 -0.24648151 -0.21897405 -0.09785159 0.22913304 0.19751999 0.21180332 0.005343926
0.40111834 0.25814062 0.0991806 -0.18465361 0.3149739 0.18310109 -0.18566693 -0.29014546
-0.29053348 0.11542215 -0.11522936 -0.46852222 -0.281326 0.0232206 -0.050143383 -0.27952486
0.015639432 0.15725178 0.2079368 -0.08580364 0.017040936 -0.16243212 -0.115342714 -0.103895135
-0.007993837 -0.12069851 -0.04787309 -0.13542892 -0.2087602 -0.06918185 -0.03927983 -0.24280876
-0.20223999 -0.121809416 -0.087427534 -0.16584744 -0.10890176 -0.024769034 -0.01986018 -0.0282998
-0.17244948 -0.035458796 -0.12421227 0.21185702 0.27390426 0.35450214 -0.06620196 -0.28261408
-0.44159612 0.19798836 0.3365967 0.1564841 -0.3741428 -0.39103365 0.08128398 0.28030267
0.20183921 -0.045238875 -0.2565578 -0.053693894 0.21843816 0.1857627 -0.013584973 -0.23296082
0.08789407 0.2135166 0.16999574 -0.14264612 -0.23998235 -0.009696975 -0.13121766 -0.1976969
-0.32349297 -0.24287875 -0.116467945 -0.23846817 -0.24919175 -0.15300946 -0.3095017 0.3557388
0.14777724 -0.082419716 -0.051568713 -0.10344137 0.16668905 0.07192477 0.3191183 0.09774573
0.104691334 -0.034644343 0.27242896 0.1228458 0.34549212 0.24412103 0.016360998 -0.32335338
0.18980315 0.36047947 0.36763194 -0.14769824 0.07852504 -0.10166795 0.30123252 0.15393762
0.05530779 -0.045216005 -0.23649271 -0.18079415 0.28797334 -0.10034715 -0.04406349 -0.05222536
-0.23741245 0.18858622 -0.12989426 -0.12734948 -0.27774823 -0.12393887 -0.08860633 -0.036135778
0.35515282 0.45199677 0.2987347 0.19874361 0.18459176 0.18634456 -0.016531033 0.24024335
0.08716287 -0.12764388 -0.28989318 0.021338956 0.20734495 0.34830096 -0.10928565 -0.17848405
-0.273239 -0.2887794 -0.16314907 -0.14203203 -0.05254698 -0.21983516 -0.28653216 -0.1141081
0.2685902 -0.070295304 -0.25307643 -0.20172326 -0.1938941 -0.027076956 0.33996207 0.3829364
0.1463025 0.1387633 0.042410724 0.056515813 0.37183514 0.28555393 0.22579089 -0.37960675
-0.26304355 -0.1769086 0.022967126 -0.031415097 0.012297064 -0.24630542 -0.3512025 -0.3057699
-0.2161981 0.20966902 0.33158028 -0.1647608 -0.2765501 0.11392968 0.45308396 0.16279167
-0.08745345 -0.29268068 -0.187741 0.32845584 0.0016921699 0.1975586 0.077473275 -0.13923672
0.12642725 -0.017931778 -0.081741914 0.23266977 0.08082365 0.21554516 0.064812765 0.4575587
0.30319488 0.22583392
00000000: 1647 32be 6914 42be ac43 7cbe a0e7 99be
00000010: 5190 86be ec0b 3e3e d54f f43d 8b64 09be
00000020: c73b 26bd a20b 3dbe cdc5 13be 0684 c3bc
00000030: 7a04 0f3e b884 9a3e d126 d43e 3510 6e3e
00000040: 88e3 253e 885b 903e 8d63 463e a442 ca3d
00000050: bd7f c93d 8bcb c3bd 42ec 99bd e3c0 1cbe
00000060: 9e8f c2bd 99d6 b73e 30fa 9d3e bb0a 3c3e
00000070: d1ed 30be 0743 aabd d33e c93e 125f 9b3e
00000080: caf8 bc3c bf54 76be a14b 98bd 37e0 753e
00000090: dce2 aabd ef6c 8bbe 2e0c 513b 7b7b 763d
000000a0: ca74 473e c60b 06be ad5a 1dbe 3127 91be
000000b0: 66d7 5a3d 2147 e6bd 3ca2 46be 20b1 02be
000000c0: 4c67 97be a665 7cbe bc3a 60be 6a66 c8bd
000000d0: daa1 6a3e ae42 4a3e f8e2 583e 1a1c af3b
000000e0: 625f cd3e 022b 843e 331f cb3d d615 3dbe
000000f0: 4244 a13e da7e 3b3e 791f 3ebe f28d 94be
00000100: cec0 94be 7362 ec3d 5ffd ebbd 25e2 efbe
00000110: f609 90be 2139 be3c 2663 4dbd e21d 8fbe
00000120: 441e 803c 9c06 213e 62ed 543e d2b9 afbd
00000130: 6f99 8b3c 9b54 26be cd38 ecbd f9c6 d4bd
00000140: 95f8 02bc c830 f7bd 9316 44bd e1ad 0abe
00000150: 3cc5 55be 37af 8dbd e3e3 20bd dca2 78be
00000160: 0018 4fbe 3777 f9bd 350d b3bd e9d3 29be
00000170: e307 dfbd 6ee8 cabc d1b1 a2bc fbd4 e7bc
00000180: 9996 30be 3e3d 11bd 0163 febd 0cf1 583e
00000190: 2e3d 8c3e 4e81 b53e e594 87bd cbb2 90be
000001a0: e318 e2be 76bd 4a3e 6756 ac3e 5e3d 203e
000001b0: a58f bfbe 9035 c8be 3778 a63d d583 8f3e
000001c0: f0ae 4e3e 664c 39bd 8b5b 83be 21ee 5bbd
000001d0: 41ae 5f3e 9438 3e3e 8293 5ebc 488d 6ebe
000001e0: ce01 b43d 18a4 5a3e 5d13 2e3e d311 12be
000001f0: efbd 75be 10e0 1ebc ec5d 06be 0e71 4abe
00000200: dfa0 a5be 35b5 78be bf86 eebd 0031 74be
00000210: 1f2c 7fbe 83ae 1cbe 0277 9ebe 6523 b63e
00000220: eb52 173e abcb a8bd b739 53bd 12d9 d3bd
00000230: 89b0 2a3e 4b4d 933d 7963 a33e ea2e c83d
00000240: 6968 d63d 3ae7 0dbd cf7b 8b3e 9496 fb3d
00000250: 58e4 b03e ddfa 793e 8007 863c 938e a5be
00000260: c25b 423e c490 b83e 413a bc3e 353e 17be
00000270: bcd1 a03d 4937 d0bd 263b 9a3e d3a1 1d3e
00000280: 6c8a 623d 6b34 39bd 252b 72be 1a22 39be
00000290: 3e71 933e ce82 cdbd eb7b 34bd 42ea 55bd
000002a0: 401c 73be bf1c 413e 0003 05be e767 02be
000002b0: 0435 8ebe aad3 fdbd 3c77 b5bd 1c03 14bd
000002c0: 97d6 b53e 1f6c e73e c1f3 983e 7283 4b3e
000002d0: 9f05 3d3e 1cd1 3e3e 176c 87bc 5a02 763e
000002e0: 7282 b23d 14b5 02be e16c 94be 09cf ae3c
000002f0: 3c52 543e 8154 b23e 28d1 dfbd 86c4 36be
00000300: fbe5 8bbe e5da 93be 8d10 27be d870 11be
00000310: 813b 57bd 781c 61be 58b4 92be 82b1 e9bd
00000320: a884 893e fcf6 8fbd 3c93 81be 8b90 4ebe
00000330: 2d8c 46be 7ed0 ddbc 820f ae3e 3d10 c43e
00000340: 53d0 153e f717 0e3e deb6 2d3d 207d 673d
00000350: 2d61 be3e 2034 923e ba35 673e d15b c2be
00000360: a5ad 86be 8727 35be 8e25 bc3c 1ead 00bd
00000370: a079 493c 7d37 7cbe d0d0 b3be df8d 9cbe
00000380: 0963 5dbe 7ab3 563e e4c4 a93e 0eb7 28be
00000390: fa97 8dbe f753 e93d 9ffa e73e dcb2 263e
000003a0: cb1a b3bd 3eda 95be 2d3f 40be 5d2b a83e
000003b0: cdcb dd3a cd4c 4a3e 4faa 9e3d 1294 0ebe
000003c0: 2576 013e aae5 92bc 4e68 a7bd fc40 6e3e
000003d0: df86 a53d dfb7 5c3e 8ebc 843d 2245 ea3e
000003e0: 5c3c 9b3e 0241 673e

conv1.bias f4 [10]
-0.10607189 -0.28259268 0.04652063 -0.3180493 -0.021672515 -0.07687512 -0.24346878 -0.0067076324
-0.28359878 0.08216136
00000000: 383c d9bd fdaf 90be 6b8c 3e3d 5cd7 a2be
00000010: 8f8a b1bc b470 9dbd e14f 79be b3cb dbbb
00000020: dc33 91be 3744 a83d

conv2.weight f4 [20, 10, 5, 5]
0.11471414 -0.03213179 -0.019904312 -0.017067568 0.05770604 -0.003709651 0.045111187 0.041484307
0.08851751 0.051896587 0.09203902 0.02315745 0.014707536 0.08032078 0.1456834 0.03469278
0.039195444 0.09942696 0.28631592 0.18251152 -0.026019895 -0.045739625 -0.012077796 0.001418556
0.120568305 0.1297971 0.059909265 0.13135217 0.18441682 0.1099526 0.05571701 0.024265273
0.08164921 0.06269196 0.04413602 0.030953761 0.0109140845 0.030753404 0.03985401 -0.02875983
0.05573989 0.04263592 0.08130986 0.0024815097 -0.066501416 0.039948095 0.059976127 -0.017255666
0.0077394443 -0.003093323 0.068499215 -0.080046564 0.048427057 0.14373372 -0.030179285 0.0998972
-0.053507783 -0.073171854 0.021068176 -0.03173391 -0.074510105 -0.09392809 0.05743616 0.069179855
0.009730194 1.3100762e-06 -0.060459256 0.011224205 -0.05805829 0.12888126 -0.073341176 -0.1490469
-0.004486455 0.052503686 0.08945439 0.10171066 0.06874339 0.06296048 0.024245385 0.06860477
0.02053833 0.046024855 0.023063466 -0.06616798 -0.027768787 -0.037066866 -0.041018046 -0.08061261
-0.025609931 -0.027099269 -0.08061236 -0.05631549 -0.024750711 -0.015487853 0.03625008 -0.14573473
-0.11090559 -0.0351582 0.015911337 0.066598 0.093716584 0.060229693 0.057159286 0.026438145
-0.10943024 -0.027711757 -0.043242853 0.021329327 -0.036237802 -0.08606213 -0.18996039 -0.0526194
-0.034814954 -0.043484103 -0.01828057 -0.10950057 -0.039137665 -0.0661699 -0.02459661 -0.1299371
0.11229346 0.082314625 0.009604271 -0.115432315 -0.25080183 0.022544976 0.0032934125 -0.012507606
0.05389914 -0.13862623 0.026437711 -0.031928103 0.057672333 0.03143558 0.008460095 0.030650897
-0.008804616 -0.0036080198 0.10066206 0.092467524 0.013301021 0.027536104 0.07274099 0.088462085
0.09226764 -0.02478519 -0.11792271 -0.035045695 -0.016246995 0.06668678 -0.12873529 -0.21631685
0.029813016 0.08867896 -0.039261762 -0.2515286 -0.18258832 0.031585835 0.06239158 0.011614741
-0.17090143 -0.0555354 -0.02320976 0.092073485 0.005893331 -0.1731527 -0.03664554 0.00571081
0.031007398 0.040680464 -0.032993343 -0.033663623 -0.0023329565 -0.07205294 -0.19598874 -0.08908386
-0.23164205 -0.15061243 -0.10663774 -0.033819314 -0.16398662 -0.32576168 -0.13028859 0.016563414
0.015799014 -0.13083744 -0.08117642 0.044040043 0.061628148 0.076730385 -0.053595383 0.05010203
0.09103868 0.075861864 0.054108202 -0.074599884 0.07201045 0.12877096 0.04017312 -0.124584526
0.02871609 -0.10344601 -0.14478162 -0.048347663 0.0046033086 -0.19715318 -0.22175913 -0.029549781
0.10785215 0.12771592 -0.08043252 0.0647414 0.08463239 0.17265597 0.13213216 -0.095740035
0.073691964 0.16947104 0.24114501 0.23904312 -0.06066438 -0.012843759 0.15416873 0.10515228
-0.014515479 0.011875862 -0.07539623 -0.06200303 -0.15023772 -0.15511696 -0.04140586 0.021827377
0.00898682 0.0034563239 -0.100819856 0.056359954 -0.054173697 0.03271309 0.024984445 0.051626578
0.101186775 -0.09925003 -0.032435 -0.034435604 0.031363264 0.050068863 0.054796815 0.04945117
-0.07367029 0.0621939 0.0075095193 -0.17127623 0.025522342 -0.02533749 -0.05771624 0.25134763
00000000: 3fef ea3d a09c 03bd 5e0e a3bc 49d1 8bbc
00000010: 2b5d 6c3d 9e1d 73bb 82c6 383d 73eb 293d
00000020: ab48 b53d 8491 543d f47e bc3d b1b4 bd3c
00000030: e1f7 703c 397f a43d 072e 153e 041a 0e3d
00000040: 678b 203d 5da0 cb3d 0098 923e 4de4 3a3e
00000050: ad27 d5bc 7959 3bbd f3e1 45bc d7ee b93a
00000060: 84ec f63d 88e9 043e 6b63 753d 2f81 063e
00000070: c3d7 3c3e d42e e13d 8537 643d f7c7 c63c
00000080: b337 a73d a464 803d f9c7 343d be92 fd3c
00000090: fdd0 323c 90ee fb3c f53d 233d bc99 ebbc
000000a0: 834f 643d 01a3 2e3d c985 a63d d3a0 223b
000000b0: e531 88bd 9da0 233d 87a9 753d c15b 8dbc
000000c0: 2a9b fd3b 59b9 4abb 5149 8c3d 74ef a3bd
000000d0: 735b 463d ef2e 133e 8c3a f7bc e796 cc3d
000000e0: fa2a 5bbd 20db 95bd 2b97 ac3c 6bfb 01bd
000000f0: c198 98bd 5f5d c0bd 2e42 6b3d 2bae 8d3d
00000100: 646b 1f3c e0d5 af35 20a4 77bd bae5 373c
00000110: 88ce 6dbd 73f9 033e e633 96bd c09f 18be
00000120: 1d03 93bb 1b0e 573d dd33 b73d ae4d d03d
00000130: 56c9 8c3d 6df1 803d 429e c63c a880 8c3d
00000140: 0040 a83c 8f84 3c3d 98ef bc3c 1483 87bd
00000150: 5e7b e3bc 6dd3 17bd 8a02 28bd 3918 a5bd
00000160: ebcb d1bc 49ff ddbc 1818 a5bd 12ab 66bd
00000170: 01c2 cabc c4c0 7dbc f77a 143d 7c3b 15be
00000180: 7822 e3bd 0b02 10bd 7e58 823c 8864 883d
00000190: 7bee bf3d 69b3 763d db1f 6a3d cf94 d83c
000001a0: f61c e0bd c403 e3bc 6b1f 31bd d7ba ae3c
000001b0: 176e 14bd 5841 b0bd fa84 42be 7187 57bd
000001c0: 209a 0ebd 631c 32bd 22c1 95bc d641 e0bd
000001d0: d14e 20bd 1684 87bd d47e c9bc 3b0e 05be
000001e0: 1dfa e53d 9294 a83d 3b5b 1d3c c767 ecbd
000001f0: 1969 80be 3eb0 b83c 4bd6 573b b4ec 4cbc
00000200: 58c5 5c3d 09f4 0dbe e693 d83c 0bc7 02bd
00000210: d339 6c3d 98c2 003d 369c 0a3c 9717 fb3c
00000220: 3c41 10bc 8774 6cbb e927 ce3d 9d5f bd3d
00000230: 87ec 593c 6593 e13c 3af9 943d 9c2b b53d
00000240: d1f6 bc3d 500a cbbc 7681 f1bd 138c 0fbd
00000250: 6b18 85bc 1493 883d 2fd3 03be 2a82 5dbe
00000260: 6d3a f43c 519d b53d f1d0 20bd 5bc8 80be
00000270: 6ff8 3abe 2660 013d 508e 7f3d c14b 3e3c
00000280: c900 2fbe 1679 63bd 6522 bebc 0691 bc3d
00000290: d81c c13b f14e 31be a219 16bd bf21 bb3b
000002a0: 3a03 fe3c 8fa0 263d 0724 07bd dee2 09bd
000002b0: 84e4 18bb 7e90 93bd 46b1 48be 9971 b6bd
000002c0: 9333 6dbe 253a 1abe e364 dabd 1f86 0abd
000002d0: 1cec 27be 3cca a6be 5f6a 05be ffaf 873c
000002e0: ef6c 813c 40fa 05be d33f a6bd 5563 343d
000002f0: cc6d 7c3d d224 9d3d d586 5bbd c937 4d3d
00000300: 7d72 ba3d 775d 9b3d 90a0 5d3d d3c7 98bd
00000310: 377a 933d 89dc 033e 928c 243d 2c26 ffbd
00000320: 013e eb3c 80db d3bd a241 14be 3308 46bd
00000330: 5ad7 963b 86e2 49be d314 63be 6212 f2bc
00000340: 97e1 dc3d f6c7 023e ceb9 a4bd 2497 843d
00000350: bf53 ad3d bacc 303e a74d 073e 5a13 c4bd
00000360: d0eb 963d d189 2d3e b8ee 763e b8c7 743e
00000370: 377b 78bd a16e 52bc 68de 1d3e 145a d73d
00000380: 55d2 6dbc fa92 423c 5769 9abd e4f6 7dbd
00000390: ebd7 19be fbd6 1ebe 3199 29bd 54cf b23c
000003a0: 743d 133c 7e83 623b a47a cebd b2d9 663d
000003b0: 3de5 5dbd 29fe 053d 2eac cc3c 6476 533d
000003c0: 033b cf3d 9a43 cbbd 90da 04bd 590c 0dbd
000003d0: c476 003d 0215 4d3d a072 603d 4f8d 4a3d
000003e0: 73e0 96bd 08bf 7e3d 6a12 f63b 0963 2fbe
000003f0: 3b14 d13c 9190 cfbc dd67 6cbd a3b0 803e

conv2.bias f4 [20]
-0.025990868 -0.025608925 -0.03858472 -0.047452226 -0.06814649 0.0061335443 -0.019914864 0.04669867
0.03556715 0.044915788 0.04137398 -0.0034301071 0.09102768 -0.024047753 0.0044580367 -0.014141716
-0.075784996 -0.011432982 -0.031171648 0.052595828
00000000: cdea d4bc cfc9 d1bc 030b 1ebd 445d 42bd
00000010: 6390 8bbd e6fb c83b 7f24 a3bc 1b47 3f3d
00000020: dcae 113d 9ef9 373d c377 293d a6cb 60bb
00000030: b86c ba3d cbff c4bc b914 923b a8b2 67bc
00000040: 2a35 9bbd 6751 3bbc af5b ffbc b96e 573d

fc1.weight f4 [50, 320]
-0.070150815 -0.008358964 -0.09954728 -0.10115328 0.088474914 0.02764822 -0.21760452 -0.10440793
0.038423784 0.070179604 -0.04712977 0.15895681 -0.06016647 0.013212944 0.070225626 0.15560456
0.041735806 -0.0205308 -0.016431505 -0.029389039 0.061849434 0.041226804 -0.052100055 -0.19727422
-0.18392223 0.05541796 0.06366882 -0.07896554 -0.015200263 0.061805483 0.10276771 -0.098394334
-0.14012893 -0.056156162 0.017291073 -0.19427934 -0.12237603 -0.024928018 0.0058969036 -0.15801316
0.09327591 0.060341436 -0.039914783 -0.029669551 -0.021924987 0.02389782 0.03681291 0.022538725
0.13212706 0.04949355 -0.057700466 -0.10811639 0.03287834 -0.009245529 0.009201248 0.10130719
0.052167397 0.008688384 -0.15013538 0.10598389 0.03409113 -0.047664344 -0.13513532 -0.07004658
-0.12628977 -0.07880377 0.02926065 -0.00090840325 -0.01471606 -0.025591891 -0.05070903 0.0009969003
-0.017215988 -0.016981857 0.053808182 -0.081913084 0.0151481945 0.05481118 0.027696662 0.07795005
-0.023278365 0.03507739 0.04589249 -0.205178 -0.19367237 -0.034945708 0.016429383 0.02604296
0.010388188 0.09674979 -0.013014977 -0.05547527 0.050325394 -0.030936876 -0.089357585 -0.078496605
-0.029482964 -0.03030521 -0.1892944 -0.08410518 0.048829023 -0.01486524 -0.041188266 0.054620408
-0.0239793 0.075048566 0.051025588 0.06649845 -0.041126538 -0.0021581748 -0.037760984 -0.0054520587
-0.06358004 -0.0112985745 -0.024461508 -0.1292386 -0.011425779 -0.08542942 -0.1588541 -0.09545868
0.13980545 0.064050205 -0.019999482 -0.116390005 -0.022187935 0.050048843 0.102640994 -0.10631835
-0.10197665 -0.0070151533 -0.029200027 -0.10922659 0.057079483 -0.057905078 -0.031112634 0.027743012
0.10770065 -0.10515983 -0.05658323 0.10207892 0.19122607 -0.024934327 -0.064469114 -0.08337939
0.008326906 0.01610698 0.062382977 0.020522814 0.00967441 0.0040699434 -0.032565027 0.052380107
0.10782077 -0.08425172 -0.12088373 -0.02129274 0.05252588 -0.11615308 -0.07112519 -0.14983913
-0.03624585 -0.010870736 0.12116816 -0.006578535 -0.04390785 -0.038741548 0.075525425 0.014911019
0.014663317 -0.0752353 0.07019543 -0.050090097 -0.022479283 -0.14193922 -0.048448756 -0.14810489
-0.10692234 -0.14133671 -0.22593312 -0.0907078 -0.01108368 0.029777601 -0.03612707 0.05599999
0.04570186 0.05244208 -0.019619497 0.10294733 0.0075190268 0.13243273 0.08805706 0.010944381
-0.12811856 -0.024765026 0.051978312 0.103124894 -0.034638718 -0.09868967 -0.017177194 0.1931617
0.06374546 -0.104990885 -0.043036018 -0.02257123 0.11207393 -0.15029551 -0.12282544 -0.053650755
0.042222735 0.0236034 -0.09352549 -0.17573793 0.049740173 0.12378441 0.012840367 -0.033499233
0.013318176 -0.114865765 -0.034209162 0.11973606 -0.02316324 -0.0655459 0.052991565 0.12510121
-0.12710139 -0.1277722 -0.12485624 -0.18980637 0.04665363 0.02762612 -0.1002618 -0.07844688
-0.012824464 0.05300443 0.11486481 0.08777238 0.07738161 -0.076260865 0.06102065 0.09347111
-0.04579797 -0.022374678 -0.011768913 0.035220034 0.04473385 -0.0141857015 0.07125043 0.124311544
-0.0021439611 -0.16353194 0.03010247 0.15201691 -0.19891602 -0.04242961 -0.07316761 -0.0044319597
00000000: 3bab 8fbd 09f4 08bc 72df cbbd 7329 cfbd
00000010: 5632 b53d 857e e23c b8d3 5ebe d3d3 d5bd
00000020: 4262 1d3d 53ba 8f3d 250b 41bd 93c5 223e
00000030: 1e71 76bd 1b7b 583c 74d2 8f3d cd56 1f3e
00000040: 2af3 2a3d 3530 a8bc 5d9b 86bc 48c1 f0bc
00000050: d555 7d3d 70dd 283d de66 55bd 4102 4abe
00000060: 1c56 3cbe f1fd 623d cc64 823d afb8 a1bd
00000070: 860a 79bc bf27 7d3d e177 d23d f882 c9bd
00000080: f57d 0fbe 0104 66bd 02a6 8d3c 2af1 46be
00000090: 49a0 fabd d835 ccbc d03a c13b 34ce 21be
000000a0: 7107 bf3d 9528 773d af7d 23bd 8f0d f3bc
000000b0: 089c b3bc 5cc5 c33c 22c9 163d 22a3 b83c
000000c0: 514c 073e c0b9 4a3d 5357 6cbd 206c ddbd
000000d0: 70ab 063d 8f7a 17bc d5c0 163c 257a cf3d
000000e0: 7bad 553d b959 0e3c 17bd 19be 150e d93d
000000f0: 24a3 0b3d b03b 43bd ea60 0abe 9574 8fbd
00000100: 1b52 01be df63 a1bd 08b4 ef3c e921 6eba
00000110: a11b 71bc 16a6 d1bc 46b4 4fbd 6caa 823a
00000120: 8b08 8dbc 891d 8bbc f865 5c3d 0cc2 a7bd
00000130: 2230 783c b081 603d 1ce4 e23c 47a4 9f3d
00000140: 45b2 bebc 4fad 0f3d c3f9 3b3d 2e1a 52be
00000150: 0d52 46be 3b23 0fbd ea96 863c 0c58 d53c
00000160: 3833 2a3c c124 c63d c53c 55bc 093a 63bd
00000170: 0022 4e3d 556f fdbc 1c01 b7bd d4c2 a0bd
00000180: 4286 f1bc a242 f8bc 64d6 41be 563f acbd
00000190: f100 483d 568d 73bc 07b5 28bd a6b9 5f3d
000001a0: 3d70 c4bc 10b3 993d 3500 513d 5730 883d
000001b0: 4d74 28bd 2a70 0dbb 43ab 1abd 2fa7 b2bb
000001c0: 4136 82bd a81d 39bc 8063 c8bc 2057 04be
000001d0: 3133 3bbc 9ff5 aebd a6aa 22be d77f c3bd
000001e0: 2929 0f3e c12c 833d f4d5 a3bc e25d eebd
000001f0: 79c3 b5bc 0400 4d3d 7135 d23d 6fbd d9bd
00000200: 22d9 d0bd 5fdf e5bb e534 efbc 31b2 dfbd
00000210: 2dcc 693d e02d 6dbd ecdf febc 5045 e33c
00000220: 2992 dc3d 095e d7bd d1c3 67bd c10e d13d
00000230: c4d0 433e 1343 ccbc 6208 84bd d0c2 aabd
00000240: 936d 083c c9f2 833c 4b85 7f3d 761f a83c
00000250: 6b81 1e3c 295d 853b e862 05bd 868c 563d
00000260: 23d1 dc3d 2a8c acbd e491 f7bd 1d6e aebc
00000270: 6125 573d aae1 edbd 15aa 91bd 6e6f 19be
00000280: 8776 14bd 2c1b 32bc 0327 f83d c090 d7bb
00000290: b8d8 33bd 75af 1ebd 13ad 9a3d 594d 743c
000002a0: 693e 703c f714 9abd 9fc2 8f3d 462b 4dbd
000002b0: 7926 b8bc 8458 11be 3472 46bd cfa8 17be
000002c0: 1afa dabd 92ba 10be 035b 67be 03c5 b9bd
000002d0: 5398 35bc 28f0 f33c fbf9 13bd 3f60 653d
000002e0: e031 3b3d 82cd 563d 11b9 a0bc 0dd6 d23d
000002f0: 2b62 f63b 729c 073e 4357 b43d 1050 333c
00000300: 8331 03be 06e0 cabc 36e7 543d 2533 d33d
00000310: 54e1 0dbd cf1d cabd 30b7 8cbc 2ecc 453e
00000320: fb8c 823d 7605 d7bd 8946 30bd 4de7 b8bc
00000330: 0487 e53d 11e7 19be e78b fbbd e5c0 5bbd
00000340: bff1 2c3d eb5b c13c 4b8a bfbd a5f4 33be
00000350: 5abc 4b3d ae82 fd3d 6760 523c 7e36 09bd
00000360: 7b34 5a3c be3e ebbd e81e 0cbd 2e38 f53d
00000370: d6c0 bdbc ee3c 86bd af0d 593d 881a 003e
00000380: de26 02be b7d6 02be a1b4 ffbd 9a5c 42be
00000390: e017 3f3d 2c50 e23c 0f56 cdbd c2a8 a0bd
000003a0: b31d 52bc 2c1b 593d 3e3e eb3d 01c2 b33d
000003b0: 407a 9e3d a82e 9cbd caf0 793d c86d bf3d
000003c0: a796 3bbd 1a4b b7bc 66d2 40bc e242 103d
000003d0: d73a 373d 256b 68bc bfeb 913d 0d97 fe3d
000003e0: b381 0cbb eb74 27be 7599 f63c 52aa 1b3e
000003f0: a4b0 4bbe acca 2dbd e6d8 95bd f939 91bb

fc1.bias f4 [50]
-0.007872314 0.14893267 0.13299568 -0.041426677 0.17000565 -0.017244725 0.21020238 0.03724696
-0.037980795 0.024959855 0.14504161 0.1576772 0.00080019695 0.21117157 0.10188708 0.20627394
0.29910722 0.014464799 0.11442868 0.042250905 0.1963348 0.1436262 0.09282504 0.19313325
0.12033125 0.05648023 0.122500524 0.054271255 -0.103584886 0.05061186 0.08830203 0.09464252
0.09299965 -0.0048774225 0.16418031 0.05180523 0.13840501 -0.060670562 0.055003613 0.18026096
0.1746939 0.2174996 0.166283 0.25531784 0.12626576 0.16531132 0.15058011 0.15153345
0.14922085 0.30844966
00000000: e1fa 00bc ce81 183e 0530 083e 05af 29bd
00000010: f615 2e3e cf44 8dbc 4b3f 573e 4590 183d
00000020: c091 1bbd 9c78 cc3c ca85 143e 2276 213e
00000030: 4fc4 513a 5c3d 583e 2caa d03d 7a39 533e
00000040: 9524 993e c4fd 6c3c 9559 ea3d 490f 2d3d
00000050: fd0b 493e bf12 133e 0e1b be3d b9c4 453e
00000060: 3b70 f63d d057 673d 8ee1 fa3d 894b 5e3d
00000070: 5024 d4bd 624e 4f3d b2d7 b43d f0d3 c13d
00000080: 9a76 be3d c9d2 9fbb e21e 283e b931 543d
00000090: 0bba 0d3e b281 78bd 784b 613d 5496 383e
000000a0: f5e2 323e 37b8 5e3e 1746 2a3e 05b9 823e
000000b0: d04b 013e 5f47 293e ac31 1a3e 962b 1b3e
000000c0: 5acd 183e 1ded 9d3e

fc2.weight f4 [10, 50]
0.15360522 0.2035107 -0.19957514 -0.19079475 -0.036964502 0.12051906 -0.20315713 -0.24267866
-0.08176237 0.046157766 -0.16876931 -0.29904678 -0.25147736 -0.20415516 0.116736695 -0.36253482
-0.27044743 -0.39216533 0.13815849 0.1972038 -0.4008457 0.029120544 0.10321459 0.009067886
-0.06622582 0.040908836 -0.24933727 -0.044554804 -0.20009165 0.056734685 0.1299553 0.15253887
0.1120446 -0.31089634 -0.18579717 0.109129235 -0.3466285 -0.0541777 0.110563375 0.10862586
-0.28664413 -0.056045666 -0.35251817 -0.23891677 0.10123865 0.08919805 -0.36802977 -0.29102778
0.15160166 -0.01768705 -0.13377003 -0.036687475 0.078459986 -0.25805497 0.09069172 -0.27867615
0.10387949 -0.09556908 -0.20305192 -0.23772697 -0.215325 0.0692569 -0.21570078 0.19815835
-0.34678724 0.09800711 0.13996644 -0.28722686 -0.19842348 -0.269861 0.11825394 0.03399244
-0.08192542 0.11322859 0.125278 -0.30488908 -0.19952843 -0.33306938 -0.13213252 -0.34710157
0.12638983 -0.2922617 -0.07371776 -0.28705022 0.15521832 -0.18447904 0.07089428 -0.3384297
-0.35732552 0.11900591 0.07840238 0.123010084 0.09597852 0.12348935 0.09415879 0.11355069
0.093194015 0.07561004 -0.1446301 0.24552289 0.12412335 0.16822559 -0.10615415 -0.10505382
-0.136406 0.066513725 0.11558567 0.13571131 0.12274514 0.05287117 -0.14587237 0.1072913
-0.07732471 -0.06361619 -0.17897122 -0.20193182 -0.13014989 -0.10380247 -0.15639822 -0.047044132
-0.18249281 0.10876076 -0.18485276 0.12624168 0.0312124 0.038797017 -0.020867553 -0.23362477
0.09466198 -0.06905698 0.11879453 -0.054136194 0.14622976 -0.092957824 0.21441069 0.026191445
-0.07116519 0.054338347 -0.010957452 -0.17769633 0.12095023 0.16414751 -0.2797169 0.13779879
0.11518851 0.12696016 -0.33433583 -0.09684347 -0.16643716 -0.1505636 -0.037708838 -0.09237894
-0.1259721 0.11224292 -0.22719689 -0.20697284 -0.2575942 0.1699134 0.08290797 0.04572114
-0.10329044 0.12201221 0.17449364 -0.35459012 0.0376626 0.062494237 -0.24059044 0.14232302
-0.12209386 -0.18994011 -0.1313782 0.08180311 -0.18133266 -0.24229684 0.017995503 -0.18462667
-0.17005986 -0.15620996 0.08800528 0.116558045 -0.17240179 -0.1926077 0.13576247 0.073388174
0.049203116 0.08775301 0.13347763 -0.102527566 -0.17098516 -0.070245735 0.10375815 -0.102340974
-0.15350054 -0.018248526 0.119720645 0.08951934 0.02043674 0.13108663 -0.12828884 -0.18396167
0.14177431 -0.019114083 -0.11903772 -0.19142476 0.15972584 0.09318003 0.029075038 0.16398825
0.120159306 -0.39325893 0.07866226 -0.24289127 0.029819012 0.2157168 -0.16959943 -0.14048669
0.12689748 0.13012324 -0.193735 -0.20364942 0.09953722 -0.23303972 -0.26428282 0.119381994
0.098151654 0.2107409 0.15700564 0.09863907 0.0034196412 -0.147218 0.12406411 -0.1224888
-0.0066275857 0.09611695 -0.06848506 -0.20964772 0.14100659 0.04256497 -0.23433279 -0.18038587
-0.09814854 -0.0664144 0.095599405 -0.15094036 -0.15387806 -0.20526737 0.106693275 -0.09884247
0.061585214 -0.08828732 -0.21447743 -0.12600538 -0.27564773 0.11384003 0.105122484 -0.21003404
00000000: b04a 1d3e 1c65 503e 6d5d 4cbe b35f 43be
00000010: 1768 17bd b2d2 f63d 6c08 50be c180 78be
00000020: 0873 a7bd ed0f 3d3d ddd1 2cbe a91c 99be
00000030: a4c1 80be 0d0e 51be a613 ef3d 2a9e b9be
00000040: 1678 8abe e5c9 c8be 6b79 0d3e cbef 493e
00000050: a63b cdbe 358e ee3c 2c62 d33d 7891 143c
00000060: 67a1 87bd 0690 273d 4552 7fbe 197f 36bd
00000070: d3e4 4cbe a162 683d 0113 053e 2633 1c3e
00000080: a477 e53d ce2d 9fbe 9d41 3ebe 267f df3d
00000090: 4a79 b1be 70e9 5dbd 0d6f e23d 3c77 de3d
000000a0: 05c3 92be 2490 65bd 437d b4be 99a6 74be
000000b0: 3656 cf3d 78ad b63d 666e bcbe 9801 95be
000000c0: 773d 1b3e 6fe4 90bc 03fb 08be 9b45 16bd
000000d0: a1af a03d c81f 84be 95bc b93d a4ae 8ebe
000000e0: c5be d43d b9b9 c3bd d8ec 4fbe b36e 73be
000000f0: 287e 5cbe 90d6 8d3d aae0 5cbe 06ea 4a3e
00000100: 198e b1be f4b7 c83d 5d53 0f3e 660f 93be
00000110: 862f 4bbe 392b 8abe 1f2f f23d a83b 0b3d
00000120: 84c8 a7bd 64e4 e73d e048 003e 6c1a 9cbe
00000130: 2e51 4cbe 1288 aabe bf4d 07be 4cb7 b1be
00000140: 566c 013e 53a3 95be 56f9 96bd 3ff8 92be
00000150: 8df1 1e3e 13e8 3cbe 0531 913d a846 adbe
00000160: 5ff3 b6be 5fb9 f33d 6d91 a03d b6ec fb3d
00000170: 6390 c43d fce7 fc3d 53d6 c03d 448d e83d
00000180: 81dc be3d 70d9 9a3d ea19 14be 5a6a 7b3e
00000190: 6234 fe3d 5443 2c3e 5967 d9bd 7526 d7bd
000001a0: 04ae 0bbe 5938 883d 2eb8 ec3d e8f7 0a3e
000001b0: ce61 fb3d 718f 583d 915f 15be 8bbb db3d
000001c0: 6b5c 9ebd 3449 82bd 3b44 37be 37c7 4ebe
000001d0: 0346 05be 6496 d4bd db26 20be 59b1 40bd
000001e0: 65df 3abe f6bd de3d 0b4a 3dbe 8045 013e
000001f0: 26b1 ff3c 9fe9 1e3d 6ef2 aabc 553b 6fbe
00000200: 24de c13d bf6d 8dbd 8c4a f33d eabd 5dbd
00000210: 41bd 153e ac60 bebd 7a8e 5b3e 718f d63c
00000220: 0ebf 91bd e391 5e3d e286 33bc 07f6 35be
00000230: c1b4 f73d 4916 283e 0e37 8fbe 201b 0d3e
00000240: f4e7 eb3d d801 023e 112e abbe df55 c6bd
00000250: 816e 2abe 582d 1abe 9574 1abd 2b31 bdbd
00000260: d5fe 00be 9edf e53d 4da6 68be b0f0 53be
00000270: 63e3 83be c7fd 2d3e a7cb a93d 1746 3b3d
00000280: f089 d3bd 8ae1 f93d 76ae 323e d68c b5be
00000290: 1944 1a3d f5f9 7f3d 575d 76be 20bd 113e
000002a0: 580c fabd a97f 42be 0288 06be 6488 a73d
000002b0: 45af 39be aa1c 78be 4e6b 933c c60e 3dbe
000002c0: 2c24 2ebe 81f5 1fbe 1d3c b43d fcb5 ee3d
000002d0: 188a 30be f43a 45be 5105 0b3e 8a4c 963d
000002e0: 3589 493d dab7 b33d 5cae 083e f9f9 d1bd
000002f0: bc16 2fbe ffdc 8fbd 277f d43d 2598 d1bd
00000300: 3f2f 1dbe ef7d 95bc 1930 f53d ea55 b73d
00000310: f36a a73c 933b 063e 265e 03be 7360 3cbe
00000320: 492d 113e 2395 9cbc 0cca f3bd da04 44be
00000330: 2c8f 233e 2cd5 be3d c62e ee3c 89ec 273e
00000340: 1516 f63d 3c59 c9be ae19 a13d 7db8 78be
00000350: 0047 f43c dde4 5c3e 79ab 2dbe bedb 0fbe
00000360: 6af1 013e 073f 053e 7862 46be 7989 50be
00000370: 2cda cb3d f7a1 6ebe 1450 87be 8c7e f43d
00000380: bc03 c93d 76cc 573e 16c6 203e 4803 ca3d
00000390: 0f1c 603b 51c0 16be 5315 fe3d 68db fabd
000003a0: 382c d9bb f7d8 c43d e541 8cbd e4ad 56be
000003b0: 0864 103e 9b58 2e3d eff4 6fbe 13b7 38be
000003c0: 1a02 c9bd 4604 88bd 9fc9 c33d 1c90 1abe
000003d0: 3692 1dbe 9c31 52be 0182 da3d ec6d cabd
000003e0: c740 7c3d fccf b4bd f99f 5bbe 8e07 01be
000003f0: b321 8dbe f624 e93d 754a d73d 2a13 57be

fc2.bias f4 [10]
0.10093089 0.42181554 -0.20244253 0.07431129 -0.0988668 0.12574679 0.08829227 -0.14422026
-0.074855156 -0.16237354
00000000: dbb4 ce3d 35f8 d73e 184d 4fbe 8530 983d
00000010: ad7a cabd c4c3 003e 94d2 b43d 7aae 13be
00000020: a94d 99bd 4045 26be

exp_avg f4 [10, 1, 5, 5]
0.0010427317 -0.0003227106 -0.0009551679 -0.003385209 -0.003748618 0.0022415535 0.0028059212 0.0018452059
0.00044008862 -0.0022061802 0.0037284922 0.0058702515 0.005549726 0.0033702743 -0.0010171188 0.0019619022
0.004522953 0.0033667244 0.0015542769 -0.0024290239 0.0036807994 0.004246134 0.0035671464 0.0006775336
0.00048633746 -0.0052853394 -0.005967684 -0.0060156584 -0.0047237766 -0.0036105714 -0.0069097453 -0.008422989
-0.005639 -0.005393248 -0.006617583 -0.012433613 -0.010739955 -0.00900458 -0.006946636 -0.006019053
-0.017941985 -0.013049305 -0.010879909 -0.008749603 -0.0072949096 -0.017203825 -0.014546143 -0.0113316085
-0.010863729 -0.008956191 0.011795607 0.011933369 0.0086782975 0.0102306325 0.008205212 0.014399659
0.011267881 0.009761766 0.014237781 0.009982488 0.013609518 0.009897006 0.0066716187 0.010610807
0.009329316 0.011011316 0.008138335 0.0063010766 0.009364036 0.006264387 0.006185787 0.0054068877
0.010393301 0.0150290355 0.011479763 0.004455738 0.00251465 0.0035567016 0.0052452716 0.00010304376
0.006268641 0.00322222 0.0033652822 0.005430011 -0.00044655363 0.007224124 0.004290397 0.0024034854
0.0028418077 -0.0015141768 0.0066922335 0.00428592 0.00067626534 0.0010638776 -0.0019074848 0.002401227
0.0008685515 -0.0037582645 -0.004123925 -0.009912138 -0.0033418308 -0.001698976 0.000578127 0.0018613127
0.0030577062 -0.007119774 -0.010434265 -0.0079687415 -0.00068183284 0.0027588403 -0.012098014 -0.016261414
-0.011415084 -0.0012159962 0.004804793 -0.011837953 -0.014082345 -0.011289215 -0.0007469647 0.0078064986
-0.0077624707 -0.010246205 -0.010379718 -0.0030200102 0.0035157232 -0.005393673 -0.0062330463 -0.0072962646
-0.010182953 -0.011633135 -0.0053414768 -0.0020849612 -0.003922509 -0.0073587894 -0.008365464 0.0012676461
0.0013972475 -0.0034172835 -0.0070155836 -0.008765507 0.005402241 0.004738768 -0.0020101927 -0.005549954
-0.009413982 0.005913968 0.003714839 -0.0004057979 -0.00018394517 -0.004338509 -0.005713555 -0.0067186924
-0.007069146 -0.0029410142 -0.0037802323 -0.0040031555 -0.005052447 -0.006840718 -0.0065185693 -0.009298926
-0.0037412539 -0.0045984536 -0.005747298 -0.0056328503 -0.006095447 -0.0016401584 -0.0020133364 -0.0043440736
-0.003554178 -0.0027417894 1.284551e-06 -0.00011483463 -0.001277025 -0.0015218363 -0.00043766855 -0.005173521
-0.004870946 -0.0028830033 0.0011129867 0.00034089168 -0.009022122 -0.007984727 -0.007621395 -0.0026058229
0.00047793105 -0.009272523 -0.007124413 -0.0066074957 -0.0034888622 0.003873789 -0.0046155355 -0.004952292
-0.0053568454 -0.0003680739 0.007979976 -0.0015420319 -0.00067730533 0.0005554629 0.004720904 0.010054463
0.0070391307 0.010075348 0.009842605 0.009838087 0.010331627 0.0050915964 0.005948632 0.00983339
0.013616867 0.0156669 0.0025841114 0.006341502 0.015442496 0.018510958 0.01969826 0.008212857
0.013159375 0.016097777 0.01901426 0.025033906 0.015367057 0.013043467 0.015953703 0.020831969
0.024912087 -0.0023351398 -0.0027142188 -0.005144995 -0.0045646676 -0.0048940014 -0.0063935244 -0.006697075
-0.0055502616 -0.002163755 -0.0012950937 -0.0048327353 -0.004631642 -0.00224942 0.00013721385 0.0022154916
-0.0011074579 -0.0006416868 -0.00081425323 -0.00020274776 0.0021960102 0.00137554 0.0030489203 -0.00016252813
0.00015104958 0.0031799274
00000000: 45ac 883a 7c31 a9b9 3c64 7aba 62da 5dbb
00000010: 60ab 75bb 07e7 123b 8ce3 373b d6da f13a
00000020: b2bb e639 9095 10bb b859 743b 3d5b c03b
00000030: 7ada b53b d2df 5c3b d850 85ba 4293 003b
00000040: 4835 943b 43a4 5c3b e1b8 cb3a 4230 1fbb
00000050: 9139 713b 2723 8b3b c9c6 693b 839c 313a
00000060: 1cfb fe39 a430 adbb 908c c3bb 001f c5bb
00000070: e9c9 9abb 569f 6cbb 256b e2bb 9400 0abc
00000080: 5cc7 b8bb d8b9 b0bb 4fd8 d8bb 5ab6 4bbc
00000090: a3f6 2fbc f287 13bc 9ba0 e3bb 7a3b c5bb
000000a0: 12fb 92bc c1cc 55bc a541 32bc 7f5a 0fbc
000000b0: 230a efbb 09ef 8cbc f252 6ebc 36a8 39bc
000000c0: c8fd 31bc fdbc 12bc 5d42 413c 2d84 433c
000000d0: 6b2f 0e3c 629e 273c 276f 063c 8cec 6b3c
000000e0: eb9c 383c d0ef 1f3c 9545 693c 978d 233c
000000f0: 75fa 5e3c 0d27 223c 989d da3b f3d8 2d3c
00000100: fdd9 183c cf68 343c a756 053c 4379 ce3b
00000110: 9d6b 193c 7d45 cd3b 24b2 ca3b 432c b13b
00000120: aa48 2a3c 583c 763c 9e15 3c3c 7001 923b
00000130: d4cc 243b 8d17 693b 87e0 ab3b 3319 d838
00000140: 2c69 cd3b e22b 533b 118c 5c3b 3cee b13b
00000150: 6a1f eab9 58b8 ec3b 7596 8c3b cb83 1d3b
00000160: 9f3d 3a3b 5877 c6ba 864a db3b e770 8c3b
00000170: 6647 313a cf71 8b3a 9204 faba e75d 1d3b
00000180: 81af 633a 374d 76bb fe21 87bb 8566 22bc
00000190: 9e02 5bbb 2db0 deba 728d 173a 4af7 f33a
000001a0: cc63 483b fe4c e9bb 7bf4 2abc 538f 02bc
000001b0: 07bd 32ba a9cd 343b c036 46bc a836 85bc
000001c0: 5506 3bbc 1062 9fba 8671 9d3b f9f3 41bc
000001d0: a3b9 66bc 66f6 38bc f4cf 43ba a8cd ff3b
000001e0: 535c febb b3df 27bc b10f 2abc 5deb 45bb
000001f0: 0c68 663b 69bd b0bb 953e ccbb 8115 efbb
00000200: 67d6 26bc e898 3ebc 8e07 afbb d8a3 08bb
00000210: 6488 80bb 0022 f1bb 4d0f 09bc 2527 a63a
00000220: d923 b73a 81f4 5fbb fbe2 e5bb 339d 0fbc
00000230: 4805 b13b ab47 9b3b 70bd 03bb 63dc b5bb
00000240: 1a3d 1abc f6c9 c13b a874 733b 46c1 d4b9
00000250: 68e1 40b9 0d2a 8ebb c638 bbbb 7a28 dcbb
00000260: 4ba4 e7bb 08be 40bb c6bd 77bb e72c 83bb
00000270: ff8e a5bb 1a28 e0bb b999 d5bb 865a 18bc
00000280: d32f 75bb a0ae 96bb d453 bcbb c693 b8bb
00000290: 51bc c7bb 95fa d6ba 2ef2 03bb bb58 8ebb
000002a0: 36ed 68bb 98af 33bb d668 ac35 5fd3 f0b8
000002b0: d961 a7ba 5a78 c7ba e176 e5b9 a486 a9bb
000002c0: 759c 9fbb c5f0 3cbb a3e1 913a b5b9 b239
000002d0: 86d1 13bc 5fd2 02bc e5bc f9bb 74c6 2abb
000002e0: d292 fa39 c8eb 17bc e873 e9bb b183 d8bb
000002f0: 65a5 64bb 65df 7d3b eb3d 97bb d646 a2bb
00000300: 7a88 afbb 0bfa c0b9 72be 023c 011e caba
00000310: 318d 31ba 7c9c 113a d0b1 9a3b 79bb 243c
00000320: 82a8 e63b 1313 253c e142 213c ed2f 213c
00000330: fc45 293c 68d7 a63b beec c23b 3a1c 213c
00000340: 4819 5f3c df57 803c 325a 293b 60cc cf3b
00000350: 8602 7d3c 4ba4 973c 3f5e a13c 388f 063c
00000360: 6b9a 573c 7cdf 833c cbc3 9b3c e813 cd3c
00000370: 1cc6 7b3c 44b4 553c 57b1 823c cea7 aa3c
00000380: 6f14 cc3c 2509 19bb 09e1 31bb 5997 a8bb
00000390: 3593 95bb dc5d a0bb c580 d1bb 2373 dbbb
000003a0: f8de b5bb c9cd 0dbb 22c0 a9ba ec5b 9ebb
000003b0: 07c5 97bb 016b 13bb 10e1 0f39 c831 113b
000003c0: 1f28 91ba df36 28ba 9c73 55ba b098 54b9
000003d0: f0ea 0f3b 774b b43a 65d0 473b 506c 2ab9
000003e0: 1063 1e39 5466 503b

exp_avg_sq f4 [10, 1, 5, 5]
0.00085867086 0.0007354368 0.00067746977 0.00061611045 0.0006240289 0.00078411365 0.00062943465 0.00048271616
0.00041002667 0.00057391886 0.00066053204 0.0005042199 0.00039923817 0.0005227819 0.00067667797 0.0005777001
0.00048112354 0.00050596625 0.0005708529 0.0006120742 0.0006066733 0.00049399544 0.00044696385 0.00042573307
0.000514436 0.0006219149 0.0006658566 0.00057886145 0.00064185 0.0007351711 0.00069812906 0.0006200801
0.00053484115 0.00069581985 0.000748515 0.0006624919 0.0004880851 0.0006233024 0.0007314893 0.0007590749
0.0006411662 0.00056663563 0.00068381376 0.0007582614 0.00077647297 0.00068887405 0.0006604316 0.00073113485
0.00077702093 0.0007879548 0.0005978207 0.00061382033 0.00068516337 0.0006476429 0.0005950751 0.0006709002
0.0007472868 0.000687168 0.0006060357 0.00056863285 0.0007097968 0.000691237 0.0005490932 0.00054239057
0.000511895 0.0007205081 0.00057924626 0.00052030734 0.0005015714 0.00046706735 0.0007234292 0.0005856272
0.0004982261 0.00050606456 0.00059375784 0.0011550711 0.0010352923 0.00083018566 0.00081243605 0.0008834114
0.0010399482 0.0008152176 0.0006707376 0.0006520347 0.0007411496 0.00088985 0.00069132634 0.0005826257
0.0005994197 0.0007746138 0.00084758876 0.0006650417 0.0006262865 0.0007390636 0.0009618364 0.0008919051
0.00074810843 0.00077571446 0.0008962743 0.0011208537 0.0007049915 0.00076789386 0.00074451294 0.00083524396
0.0011416544 0.0006087574 0.0006744943 0.0005589552 0.0007927068 0.0011768613 0.00057840213 0.0006709928
0.0005941182 0.00081801566 0.0012130948 0.0006251693 0.00074303785 0.00075811683 0.0009579937 0.0012969812
0.00063886377 0.00077316485 0.00086766377 0.0010506874 0.0013519317 0.0012155514 0.00091475295 0.00077804
0.0008135986 0.0008231663 0.0010064963 0.0007401287 0.0006891643 0.00073085737 0.00078200904 0.00083917007
0.00064013706 0.00056488166 0.00060262805 0.00071226404 0.0007417275 0.0005860627 0.00049927295 0.0005613731
0.0007416501 0.0006418136 0.00051077723 0.00050501816 0.0005993102 0.00073220604 0.00058779446 0.0006117354
0.00063307735 0.0006439521 0.00062943983 0.0006451605 0.0007028932 0.00067887467 0.00061491557 0.00061134313
0.00067230815 0.00068441295 0.00058905897 0.00051376026 0.0006023741 0.00063539634 0.0006051574 0.00054370874
0.00053355744 0.00061443803 0.0005945522 0.0005650075 0.000538933 0.00060511206 0.00065655017 0.0006420936
0.0005149142 0.0005253704 0.00065951294 0.00073471945 0.0006092316 0.0005461657 0.0005636621 0.00064603373
0.0007133899 0.0006629383 0.0006126383 0.0005649342 0.0006030545 0.0006937458 0.000650922 0.000607004
0.000574181 0.00060488645 0.00070302223 0.0006008958 0.0005681986 0.00060208497 0.0006867537 0.0007338956
0.0032857037 0.0031598685 0.0030889246 0.0030165557 0.0030925404 0.0031658618 0.0035550643 0.003829324
0.0037490001 0.0035798203 0.003165937 0.0033597217 0.0036229028 0.0035716223 0.003318892 0.0027399957
0.002723886 0.0026714744 0.00282951 0.002927512 0.0025196706 0.002429036 0.0024311452 0.0025692934
0.002772961 0.000534827 0.0005916288 0.0004897261 0.0005484184 0.0005811925 0.00050366815 0.00046859472
0.000439365 0.00057128095 0.0006097334 0.00044402084 0.00041149702 0.0004970492 0.00065652037 0.0006883135
0.00039979795 0.00045431528 0.000668684 0.0008197819 0.00076298293 0.0004352148 0.0005131353 0.000745299
0.00083734706 0.00071302796
00000000: 6d18 613a 54ca 403a 3a98 313a 7982 213a
00000010: df95 233a fa8c 4d3a a500 253a 1115 fd39
00000020: d9f8 d639 0b73 163a 8e27 2d3a a02d 043a
00000030: d750 d139 4d0b 093a 1763 313a cc70 173a
00000040: 4f3f fc39 d2a2 043a 4aa5 153a 9b73 203a
00000050: 2809 1f3a 797f 013a 7956 ea39 ed34 df39
00000060: 37db 063a 0108 233a e18c 2e3a bcbe 173a
00000070: d341 283a 7fb8 403a a602 373a df8c 223a
00000080: 9534 0c3a ae67 363a fe37 443a 14ab 2d3a
00000090: ace5 ff39 1e65 233a 6ac1 3f3a a7fc 463a
000000a0: ef13 283a 468a 143a f741 333a 10c6 463a
000000b0: 388c 4b3a 8e95 343a d020 2d3a a1a9 3f3a
000000c0: feb0 4b3a c08e 4e3a 11b7 1c3a c9e8 203a
000000d0: 899c 333a 94c6 293a d0fe 1b3a 5adf 2f3a
000000e0: 91e5 433a 1023 343a 5ede 1e3a 4e10 153a
000000f0: a811 3a3a 2134 353a 05f1 0f3a 372f 0e3a
00000100: b130 063a 7be0 3c3a 8fd8 173a 3c65 083a
00000110: e37b 033a b8e0 f439 83a4 3d3a c784 193a
00000120: 639b 023a 6ba9 043a 6aa6 1b3a c165 973a
00000130: a5b2 873a d1a0 593a a9f9 543a bc94 673a
00000140: df4e 883a 54b4 553a 70d4 2f3a 4fed 2a3a
00000150: b549 423a d344 693a 203a 353a 59bb 183a
00000160: 6022 1d3a 740f 4b3a b830 5e3a 3156 2e3a
00000170: 602d 243a b8bd 413a c023 7c3a bdce 693a
00000180: b51c 443a 5159 4b3a f3f3 6a3a 9ce9 923a
00000190: 2ecf 383a 7c4c 493a 6b2b 433a 46f4 5a3a
000001a0: 91a3 953a 0495 1f3a 8cd0 303a d986 123a
000001b0: a7cd 4f3a ea40 9a3a e99f 173a 91e5 2f3a
000001c0: 99be 1b3a 1a70 563a b500 9f3a 67e2 233a
000001d0: 6dc8 423a 5cbc 463a de21 7b3a 78ff a93a
000001e0: 6c79 273a 37ae 4a3a ee73 633a 38b7 893a
000001f0: 4d33 b13a 2353 9f3a 08cc 6f3a 61f5 4b3a
00000200: ae47 553a c1c9 573a 69ec 833a 3205 423a
00000210: 09a9 343a 0297 3f3a bdff 4c3a c0fb 5b3a
00000220: dfce 273a 9114 143a aff9 1d3a 3bb7 3a3a
00000230: 7d70 423a 01a2 193a a4e1 023a 1c29 133a
00000240: 4c6b 423a 623f 283a aee5 053a 3263 043a
00000250: 071b 1d3a 84f1 3f3a 3816 1a3a de5c 203a
00000260: 1af5 253a e5ce 283a fe00 253a fd1f 293a
00000270: 5d42 383a 82f6 313a 4932 213a 8b42 203a
00000280: d63d 303a 2d6a 333a 146b 1a3a dead 063a
00000290: a4e8 1d3a ba90 263a 6da3 1e3a ad87 0e3a
000002a0: 6fde 0b3a 3d12 213a b9db 1b3a 031d 143a
000002b0: 2e47 0d3a 62a0 1e3a 561c 2c3a 2c52 283a
000002c0: 4ffb 063a 03b9 093a 2ae3 2c3a 309a 403a
000002d0: d7b4 1f3a 8f2c 0f3a b9c2 133a 975a 293a
000002e0: c902 3b3a 09c9 2d3a 7699 203a 1818 143a
000002f0: 4d16 1e3a 7edc 353a a3a2 2a3a 591f 1f3a
00000300: a284 163a 3e91 1e3a 064b 383a 6f85 1d3a
00000310: 2af3 143a 3dd5 1d3a 4307 343a e662 403a
00000320: f654 573b cc15 4f3b 8e6f 4a3b 68b1 453b
00000330: 38ac 4a3b 597a 4f3b 15fc 683b 65f5 7a3b
00000340: c9b1 753b 6b9b 6a3b 9c7b 4f3b c72e 5c3b
00000350: 396e 6d3b e111 6a3b c581 593b 8091 333b
00000360: 3983 323b e713 2f3b 4d6f 393b 80db 3f3b
00000370: 0f21 253b 7630 1f3b d953 1f3b 9761 283b
00000380: 91ba 353b a233 0c3a 8917 1b3a f660 003a
00000390: bcc3 0f3a 2b5b 183a 9908 043a b8ad f539
000003a0: 925a e639 04c2 153a 84d6 1f3a 78cb e839
000003b0: 32be d739 684c 023a 561a 2c3a f06f 343a
000003c0: f99b d139 2a31 ee39 a04a 2f3a a2e6 563a
000003d0: eb02 483a 8b2d e439 ed83 063a 2b60 433a
000003e0: 6981 5b3a 7fea 3a3a

exp_avg f4 [10]
0.012904961 0.012162973 0.0060261 -0.0029934403 -0.008216036 0.011937647 0.0001798668 0.0019958552
-0.008766164 0.00037634175
00000000: 546f 533c 3547 473c 9776 c53b 982d 44bb
00000010: 8d9c 06bc 1f96 433c a09a 3c39 e5cc 023b
00000020: f59f 0fbc bc4f c539

exp_avg_sq f4 [10]
0.0011018007 0.0008836514 0.00066975754 0.00057711697 0.0015854732 0.0011004079 0.0005288776 0.0010626515
0.0023078278 0.0005360471
00000000: 4c6a 903a d7a4 673a ab92 2f3a aa49 173a
00000010: a7cf cf3a 903b 903a 60a4 0a3a ab48 8b3a
00000020: ed3e 173b 8385 0c3a

exp_avg f4 [20, 10, 5, 5]
-0.00016289052 -0.00010574398 0.00040150108 -7.7224846e-05 0.00035888582 -0.001900094 -0.00035587946 0.001450204
0.0018349197 0.0019153067 -0.0007222656 -3.571153e-05 -0.0006780383 -0.0023182242 -0.003169441 -0.0013432824
-0.0012975945 -0.0014158661 -0.00049038074 -0.00027343936 0.00061087136 0.0018916882 0.0018232237 0.0018998326
0.00094997126 -0.0009833596 -0.00033255495 -0.0005465537 -0.00086691155 0.00090316124 -0.00061886106 0.00029174448
0.0006545557 0.001329151 0.0023338345 -0.0002775765 0.0001607038 0.000627738 0.0026814833 0.0017376225
-0.0012881631 -0.0002738037 0.0013565876 3.171191e-05 -0.0011039124 -0.0018757742 -0.0012224833 -4.3721593e-05
-0.0015268184 -0.0015119729 -0.0015593616 -0.00011840143 0.0014622012 0.0010525812 0.0019812256 0.00044610177
-0.000245484 -0.00088722934 0.0008259297 0.0022865843 -0.00043361116 0.00056301896 0.0024778233 0.004452892
0.0026673472 -0.00014056584 0.00019676205 0.00114333 -0.0002014015 -0.0021388775 -0.0019929013 -0.000389994
-0.0009281877 -0.0002057405 0.00057650136 -0.0005990895 0.00024046928 0.00093001954 -0.00041428595 -0.000903328
0.0007205187 0.0010683696 0.00044190063 -0.0007446082 -0.00064033037 0.0003547766 0.0002571412 -0.00058935524
0.0003673705 0.001053058 0.00022569278 -5.546597e-05 0.00038901583 0.0005418006 0.000829126 -0.001122412
-0.00019989525 -0.0008786714 -0.00053637126 -0.0004912088 0.0014668602 0.0013618168 -0.0009916342 -0.0012169409
0.0004998289 -0.000117509706 0.0011725184 0.00015511368 0.00011356743 0.00076604245 0.00042014482 0.00020352595
0.0005727805 0.0006325109 -0.00040193275 0.000121477 0.0015373993 0.001935316 0.0018090426 -0.0008904414
0.00083114585 0.0018107344 0.0015738126 -0.00029137038 0.00011946257 -0.0018273548 0.00037584064 0.0007141104
0.00057788723 0.0006661935 -0.0022376163 0.0005881791 -0.00013263951 -0.0009342896 -0.0015625784 -0.0010325382
-0.0007339435 -0.0026403717 -0.0022254623 -0.002012826 9.143797e-05 0.00026793816 0.000918989 0.002063695
0.00067700003 0.0021369867 0.00424546 0.0032874132 0.0021617413 0.0020288788 -0.00084055954 -0.0004528584
-0.00014217352 0.0006765869 0.0008047518 5.8320675e-05 0.00026320943 -0.00063121656 0.00025466076 0.0006848542
0.0004021072 0.0018056213 0.00064184115 0.0012603555 0.0009777056 2.8737973e-05 0.0012090103 0.0012461968
-0.0003440182 -0.00068169856 -0.0004080178 -0.00032680528 0.00034473257 -0.000196696 9.3298215e-05 -0.0014685212
-0.0013484379 -0.00018499223 0.0009790008 0.002322731 -0.0005194925 0.00010628199 -0.00015983329 0.0006204909
0.0010421464 0.00033906644 0.00087954075 -2.6488855e-05 0.0010435869 0.0019971924 -0.001983463 0.0002591255
-0.00068595906 -0.0017637127 -0.0019635886 5.256502e-07 -0.0018407728 -0.0020294662 -0.0030037577 -0.0012814696
-1.436072e-05 -0.00070982 -0.0009457663 -0.0009769916 -0.00033189807 -0.00074988446 -2.996553e-05 2.5059375e-05
0.0010842457 0.0019103232 -4.030446e-05 0.00090686657 0.0008758554 -0.00012606315 -0.00029430375 -0.0015953289
-0.0012436202 -0.00037233473 -0.0019849725 -0.0023630366 0.0030231848 -0.00013139521 1.48938125e-05 0.0008746501
-0.0004978191 0.0011204421 0.0009527574 -0.00019127816 -0.00016185622 -0.00054525374 -0.00047521215 6.257119e-05
-0.0016746611 -0.0015291343 -0.0014022611 -0.0013993423 -0.0013845306 -0.0021649986 -0.0009658869 -0.0016532463
0.00023293043 0.0011489749 0.00032403096 0.0010228594 -0.00037537713 0.0013472658 0.0015043898 0.00087989954
0.00156404 0.000158705 -0.00060818007 -0.0008210638 -0.0005284289 -0.00031926736 0.0013801926 0.0005584579
00000000: 97cd 2ab9 dec2 ddb8 9080 d239 c6f3 a1b8
00000010: d728 bc39 930c f9ba 5595 bab9 c614 be3a
00000020: b081 f03a 070b fb3a 6d56 3dba f7c8 15b8
00000030: 61be 31ba 59ed 17bb 65b6 4fbb 1411 b0ba
00000040: 0c14 aaba 9594 b9ba e58c 00ba 695c 8fb9
00000050: e222 203a 86f2 f73a 3cf9 ee3a ce03 f93a
00000060: 7e07 793a 13e4 80ba c55a aeb9 9946 0fba
00000070: 7341 63ba 20c2 6c3a 103b 22ba 48f5 9839
00000080: 7d96 2b3a e836 ae3a 3ff3 183b b087 91b9
00000090: 9982 2839 c98e 243a d3bb 2f3b f0c0 e33a
000000a0: 95d7 a8ba 4f8d 8fb9 87cf b13a 6702 0538
000000b0: 27b1 90ba 8adc f5ba bc3b a0ba b461 37b8
000000c0: 861f c8ba 642d c6ba 7e63 ccba 494e f8b8
000000d0: 55a7 bf3a c4f6 893a 73d7 013b c4e2 e939
000000e0: 4eb4 80b9 f494 68ba 3483 583a 85da 153b
000000f0: 4e56 e3b9 9097 133a fa62 223b 91e9 913b
00000100: a9ce 2e3b db64 13b9 e951 4e39 cadb 953a
00000110: 4e2f 53b9 692c 0cbb 569b 02bb 1c78 ccb9
00000120: 9f51 73ba 0cbc 57b9 5a20 173a 370c 1dba
00000130: 7b26 7c39 8ecc 733a 8534 d9b9 51cd 6cba
00000140: 31e1 3c3a 8908 8c3a e6ae e739 cf31 43ba
00000150: d8db 27ba 4f01 ba39 e8d0 8639 f67e 1aba
00000160: a29b c039 c306 8a3a f2a7 6c39 22a4 68b8
00000170: d2f4 cb39 9f07 0e3a b459 593a e61d 93ba
00000180: f99a 51b9 a456 66ba 449b 0cba 77c4 00ba
00000190: a943 c03a fd7e b23a b9f9 81ba c381 9fba
000001a0: f306 033a 8b6f f6b8 30af 993a 03a6 2239
000001b0: 0d2b ee38 3dd0 483a e246 dc39 9569 5539
000001c0: a626 163a 17cf 253a 80ba d2b9 78c1 fe38
000001d0: 8f82 c93a 6eaa fd3a 661d ed3a 836c 69ba
000001e0: 41e1 593a 2a56 ed3a 6348 ce3a 12c3 98b9
000001f0: fb87 fa38 da83 efba 7a0c c539 2333 3b3a
00000200: 5b7d 173a 7da3 2e3a f9a4 12bb 0830 1a3a
00000210: 2615 0bb9 1deb 74ba 6ecf ccba 3c56 87ba
00000220: 1d66 40ba 160a 2dbb 10d9 11bb 9ee9 03bb
00000230: 63c2 bf38 0d7a 8c39 4fe8 703a 0f3f 073b
00000240: b478 313a b00c 0c3b 801d 8b3b a471 573b
00000250: 00ac 0d3b f0f6 043b ff58 5cba a06d edb9
00000260: 6a14 15b9 fa5c 313a fbf5 523a 599d 7438
00000270: 5fff 8939 3a78 25ba fd83 8539 ca87 333a
00000280: ead1 d239 99aa ec3a 3b41 283a 8332 a53a
00000290: 5b26 803a 5412 f137 a777 9e3a 6d57 a33a
000002a0: 575d b4b9 04b4 32ba 39eb d5b9 1057 abb9
000002b0: 39bd b439 2e40 4eb9 19a9 c338 657b c0ba
000002c0: 11be b0ba 79fa 41b9 d151 803a f638 183b
000002d0: 8d2e 08ba b5e3 de38 ec98 27b9 70a8 223a
000002e0: a198 883a bac4 b139 fb90 663a 6234 deb7
000002f0: f7c8 883a 54e3 023b fdfc 01bb 3cdb 8739
00000300: efd1 33ba 612c e7ba 8daf 00bb 681a 0d35
00000310: 1646 f1ba cb00 05bb b1da 44bb fcf6 a7ba
00000320: d3ee 70b7 3713 3aba 4ded 77ba 660e 80ba
00000330: 9b02 aeb9 e593 44ba 7c5e fbb7 9936 d237
00000340: 401d 8e3a cf63 fa3a 960c 29b8 c9ba 6d3a
00000350: a999 653a d22f 04b9 c84c 9ab9 5b1a d1ba
00000360: f800 a3ba ec35 c3b9 5016 02bb 2ddd 1abb
00000370: a020 463b 22c7 09b9 70e0 7937 c648 653a
00000380: 1380 02ba ccdb 923a 77c2 793a d791 48b9
00000390: f3b7 29b9 5cef 0eba e525 f9b9 a738 8338
000003a0: 4d80 dbba 3c6d c8ba 13cc b7ba 236a b7ba
000003b0: 2379 b5ba a6e2 0dbb 9333 7dba beb1 d8ba
000003c0: c93e 7439 3399 963a b3e2 a939 7711 863a
000003d0: 44ce c4b9 bd96 b03a f22e c53a 0fa9 663a
000003e0: 7900 cd3a 0d6a 2639 466e 1fba a93c 57ba
000003f0: 4386 0aba 5763 a7b9 94e7 b43a 7a65 123a
