checkpoint/model_epoch8.pth (torch, 268573 bytes, 24 tensors)

conv1.weight f4 [10, 1, 5, 5]
000000 d3 16 29 be 6b ab 1b be 48 54 66 be 15 ae a1 be
       -0.16512613 -0.1520211 -0.22493088 -0.31578127
000010 f2 e4 98 be db 3b 34 3e 25 eb fc 3d 91 27 01 be
       -0.2986217 0.17600958 0.12349538 -0.1261275
000020 33 7b 9b bd 63 fc 3d be 11 db 0d be 78 95 06 bd
       -0.07591858 -0.18553309 -0.13853098 -0.03285739
000030 c2 bc 08 3e dd 3d 98 3e 8a cf dc 3e 9b 25 75 3e
       0.13353255 0.29734698 0.4312709 0.23940127
000040 58 36 fe 3d 95 8c 84 3e e5 52 20 3e 2a d0 91 3d
       0.12412709 0.25888506 0.15656622 0.07119782
000050 7f 32 bb 3d c9 c0 1a be 3f 7b 08 be 1c 2b 1f be
       0.09140491 -0.15112604 -0.13328265 -0.15543789
000060 42 87 4b bd 46 fd aa 3e e4 bd 8d 3e 54 d5 0f 3e
       -0.04968954 0.33396357 0.27683938 0.14046222
000070 ae 3d 41 be 26 d9 c9 bd 74 ff c9 3e 84 e8 95 3e
       -0.18871185 -0.09855871 0.39452708 0.29278958
000080 de 10 20 3d c0 26 61 be a4 65 9c bd d8 6c 94 3e
       0.039078586 -0.21987438 -0.07636574 0.2898929
000090 6b ea 9c bd 32 53 6b be 40 7b c1 3c d8 59 5b 3d
       -0.07661899 -0.22980955 0.02361834 0.05355248
0000a0 14 5f 6d 3e 40 bd 07 be dd 41 ff bd 66 bd 81 be
       0.231808 -0.13255787 -0.12463734 -0.25339812
0000b0 8a 32 8a 3d 0f 1b b3 bd 95 30 5c be 85 7e 06 be
       0.06747921 -0.087453954 -0.21502908 -0.13134201
0000c0 90 79 99 be ec c8 82 be 82 1f 8c be e1 99 1b be
       -0.29975557 -0.25543916 -0.2736779 -0.15195419
0000d0 c1 31 62 3e d7 e5 3c 3e 39 2b 47 3e 4c e7 79 bd
       0.22089292 0.18447052 0.19450082 -0.061011598
0000e0 2d 6c e2 3e b0 fb a5 3e 4b c4 a7 3d d8 e0 5b be
       0.44223157 0.32418585 0.08191737 -0.2147249
0000f0 9a a1 9e 3e 26 2d 7a 3e c0 c6 2c be 6f d8 ac be
       0.30982667 0.24431285 -0.16872692 -0.33758876
000100 26 cc 82 be 88 09 e8 3d 76 2d 02 be df 6d 02 bf
       -0.25546378 0.11329943 -0.12712654 -0.509489
000110 59 5d 9c be 2a 9a e2 3d 4a fb 80 bd e4 fc 73 be
       -0.3053997 0.11064561 -0.062979296 -0.23826939
000120 39 25 79 3d fe be 4e 3e 3f c9 80 3e de 76 91 bd
       0.060826514 0.20190045 0.2515354 -0.0710275
000130 7b 9e 06 3d 64 03 ef bd ac c9 ae bd 1b 84 ca bd
       0.032865983 -0.116705686 -0.085345596 -0.09888478
000140 2d 35 e6 3c 24 f3 c7 bd 3a 41 0e bd 25 43 11 be
       0.028101528 -0.09763172 -0.034730174 -0.1418577
000150 9d a1 56 be ad 45 0a bd d0 11 1f bc 00 25 62 be
       -0.20960088 -0.033757854 -0.009708837 -0.22084427
000160 55 92 3e be 12 0d 98 bd cf 43 89 bd a7 0d 1a be
       -0.18610509 -0.07424368 -0.067023866 -0.1504427
000170 b1 93 a9 bd 5b e9 3f 3b fe e2 c2 3c df 07 c7 bc
       -0.08280123 0.0029283378 0.023789879 -0.024295745
000180 74 be 29 be 2f c6 84 bc e7 73 c4 bd ff 9f 4c 3e
       -0.16576558 -0.016207783 -0.09592419 0.19982909
000190 a2 01 61 3e 3d fd 97 3e b6 2e 5e bd 9f ae 71 be
       0.21973279 0.29685393 -0.054243766 -0.23601769
0001a0 15 6f df be 1c 07 2b 3e b9 2b a8 3e 89 e2 2a 3e
       -0.43639436 0.16701931 0.32845858 0.16687979
0001b0 f9 63 ac be 05 0f c8 be 72 e8 b9 3d bb c4 9b 3e
       -0.33670023 -0.3907396 0.090775385 0.3042353
0001c0 1e ea 5d 3e 3c be bc bc 6f 1e 80 be 04 8b 81 bd
       0.2167134 -0.02303993 -0.2502322 -0.06325343
0001d0 a6 ca 47 3e 7a 71 41 3e c9 c1 22 3b f3 4b 4b be
       0.19510898 0.18890944 0.0024834743 -0.19853191
0001e0 07 dc 95 3d 3a 29 47 3e 91 0b 27 3e 61 65 e2 bd
       0.073173575 0.1944932 0.16313006 -0.11054493
0001f0 f8 43 46 be f8 be d3 3c 42 6e 07 be 81 5b 51 be
       -0.19361866 0.025847897 -0.13225654 -0.20445062
000200 0a 9e 9e be 31 a9 39 be 83 67 e6 bd a3 c9 81 be
       -0.3097995 -0.18130948 -0.11250212 -0.2534915
000210 22 4d 76 be d5 ba 01 be a5 ae 9d be 8a 01 a4 3e
       -0.24052861 -0.12668927 -0.30797306 0.32032424
000220 29 f3 0d 3e fa 56 85 bd bf f1 04 bd 24 9d 1d be
       0.1386229 -0.0651073 -0.03245711 -0.15391976
000230 4c 1d 24 3e 64 9e aa 3d d2 34 98 3e 26 8f 77 3d
       0.16026801 0.08330992 0.297278 0.06043925
000240 78 f4 19 3d ed b5 13 bc 4a 69 98 3e 0e 63 fc 3d
       0.03758666 -0.009015542 0.2976783 0.12323581
000250 a4 8e b0 3e a7 7f 83 3e 20 af ff 3c ec 17 a4 be
       0.34483826 0.25683329 0.031211436 -0.320495
000260 0b b3 27 3e 77 e6 b1 3e 36 f0 af 3e 7d f8 e8 bd
       0.16376893 0.34746143 0.34362954 -0.113755204
000270 77 9c c6 3d 64 0d 05 be 15 ae 8c 3e 20 6f 24 3e
       0.09697812 -0.1299339 0.27476564 0.16058016
000280 46 8f 51 3d 0c ce 36 bd 8d c7 7e be 39 b7 3a be
       0.051162027 -0.044630095 -0.2488081 -0.18233956
000290 a3 8f a2 3e ac 03 0b be c1 46 3d bd 9e 62 18 bd
       0.3175021 -0.1357562 -0.046210054 -0.037203424
0002a0 d2 91 75 be 37 8e 66 3e 0f 47 19 be 50 07 07 be
       -0.23981407 0.22515188 -0.14968513 -0.13186383
0002b0 62 08 81 be c1 c5 23 be 6c cd b4 bd b6 3a 59 bc
       -0.25201708 -0.15993406 -0.088282436 -0.013258627
0002c0 09 b9 ac 3e 9c 73 d7 3e 2f 51 96 3e 9a 17 5c 3e
       0.3373492 0.4208039 0.29358813 0.21493378
0002d0 7a c5 4b 3e 64 cc 3a 3e 4e 5f 4d bd 67 c0 50 3e
       0.1989955 0.18242031 -0.050139718 0.20385896
0002e0 a1 9b 82 3d f3 7d 23 be 51 86 8e be ca 55 10 3d
       0.0637734 -0.15966015 -0.2783685 0.035238065
0002f0 1d 6e 2f 3e b9 9b 97 3e 9b 78 0b be 78 cb 31 be
       0.17131849 0.29610994 -0.13620226 -0.17362773
000300 d8 10 81 be 50 1d 9b be aa b7 44 be 52 48 f1 bd
       -0.25208163 -0.302958 -0.19210687 -0.11781372
000310 87 c4 a3 bc cf 90 37 be 48 30 7d be 54 70 97 bd
       -0.019991172 -0.17926334 -0.24725449 -0.07394472
000320 ca e6 91 3e ef cf 70 bd 3f 91 87 be 1f 0b 5a be
       0.2849639 -0.05879205 -0.26478 -0.21293305
000330 5d a6 4b be 2f 7f 89 bc 9e a8 bd 3e 6d e0 c8 3e
       -0.19887681 -0.016784279 0.37042707 0.39233723
000340 34 c9 0e 3e 3f bc 09 3e 46 0c 26 3d 6a 20 a2 3d
       0.1394394 0.13450716 0.04053905 0.07916339
000350 ca 16 be 3e 88 7a 90 3e cf ee 74 3e eb 9a d1 be
       0.37126762 0.28218484 0.23919223 -0.40938506
000360 fa 43 90 be 3c 31 37 be 57 e1 cf 3c 1f 11 8d 3b
       -0.28176862 -0.17889875 0.025376005 0.0043050195
000370 d5 19 04 3d ff 5f 57 be de 08 aa be 08 6d 9a be
       0.032251198 -0.21032713 -0.3320989 -0.3016131
000380 9f d2 3c be 13 45 3a 3e 69 34 a2 3e 15 78 34 be
       -0.1843972 0.18190412 0.3168061 -0.17623933
000390 48 32 91 be 3f ea 1f 3e 07 c2 de 3e db e6 06 3e
       -0.28358674 0.15616702 0.43507406 0.13174002
0003a0 8d 99 00 be 00 6a a5 be d1 bd 3f be 5d 75 9f 3e
       -0.12558575 -0.32307434 -0.18724753 0.3114423
0003b0 69 cd e2 3b 45 71 3a 3e 4f 99 6a 3d 92 c0 12 be
       0.0069214595 0.18207271 0.057275113 -0.14331272
0003c0 f3 95 13 3e a9 dc c1 bc ab 33 de bd f6 fb 5f 3e
       0.1441267 -0.02366479 -0.10849699 0.21873459
0003d0 02 1a b4 3d c3 0d 59 3e ac 79 52 3d 40 a0 ed 3e
       0.08794023 0.21196656 0.051385567 0.46411324
0003e0 9d a4 a3 3e 5f 5c 63 3e
       0.31961527 0.22203206

conv1.bias f4 [10]
000000 f7 8c 1b be 1e e4 b8 be 59 45 63 bd 67 a5 e0 be
       -0.15190493 -0.3611154 -0.055486057 -0.43876192
000010 5e be 72 bd 0d b3 37 be d3 95 b4 be 0c 39 b8 bd
       -0.05926358 -0.17939396 -0.35270557 -0.08995256
000020 3e 69 b7 be af 8c 37 3d
       -0.3582248 0.0448119

conv2.weight f4 [20, 10, 5, 5]
000000 7f fe 91 3d f9 33 86 bd cb ce a3 bd 5c ac 1e bd
       0.071286194 -0.06552882 -0.07998427 -0.038738593
000010 d1 f0 82 3d 5d 01 36 bc 1e 76 d5 3c 7c be 2e 3d
       0.06393588 -0.0111087235 0.0260573 0.04266213
000020 c4 d2 a2 3d 4b 7f 80 3c ab d1 96 3d 8a 51 23 3d
       0.079503566 0.015685698 0.0736421 0.039872684
000030 9c bb e7 3c 02 6b 9a 3d 08 77 2b 3e e4 fe 34 3d
       0.028287701 0.07539941 0.16744626 0.044188395
000040 75 04 80 3d 45 1e 01 3e 33 d6 9e 3e 05 6c 38 3e
       0.0625085 0.12609203 0.31022796 0.18009956
000050 1a 07 80 3c 7d b9 4e bd 4e d8 21 bd 36 1b dc 3b
       0.015628386 -0.050469864 -0.039512925 0.006717111
000060 4d a8 e3 3d 59 91 04 3e 6f 4f 60 3d 3e ac 36 3e
       0.11116085 0.1294607 0.054763254 0.17839143
000070 95 a8 58 3e c0 bd 27 3e b7 1a 6f 3d 80 4d cd 3a
       0.21158059 0.16380978 0.058375087 0.0015663356
000080 12 7e d0 3d 02 3e 01 3d 55 05 48 3c a4 fe 3d 3d
       0.10180296 0.031553276 0.0122083025 0.046385422
000090 91 78 f3 3c 56 ed d6 3c a3 08 2e 3b 00 88 21 bd
       0.029720576 0.026236217 0.002655544 -0.03943634
0000a0 a5 94 9e 3d 81 f1 90 3d d0 c3 b1 3d 26 fc 07 bb
       0.077431954 0.07077313 0.086799264 -0.0020749657
0000b0 1c db c2 bd af fc cd 3d bd 7d b7 3d d2 fc 85 3c
       -0.09514448 0.10057961 0.089595295 0.016355906
0000c0 8e ae 01 bd 41 99 aa bc 22 ab 36 3d 3d ce 10 be
       -0.03166061 -0.02082503 0.0445968 -0.14141174
0000d0 1b 79 79 3d 3c 42 25 3e 9b 4b c8 bc a4 54 8f 3c
       0.06090651 0.16138548 -0.024450114 0.017496414
0000e0 32 7e 39 bd 0e 74 bb bd a3 4c 25 bd d7 71 ae bc
       -0.045286365 -0.09152995 -0.04035629 -0.021294517
0000f0 fb bf fc bd e3 5a 92 bd 1c c7 3e 3d 99 1c 4c 3d
       -0.12341305 -0.071462415 0.046576604 0.04983196
000100 a0 75 6c bd f3 d3 3e 3d 5d 96 60 bd c8 de b3 3c
       -0.057729363 0.04658885 -0.054830898 0.021956816
000110 0c aa 7f bd b2 06 0a 3e e4 d0 a1 bd bc c7 32 be
       -0.06241803 0.13479117 -0.07901171 -0.17459005
000120 a8 19 c6 bc c1 56 0f 3d ec 73 75 3d f0 7a f5 3d
       -0.024182156 0.034994844 0.059925005 0.11986339
000130 92 82 75 3d f6 65 8e 3d b3 3c b3 3c ee df 94 3d
       0.059938975 0.06953041 0.02187953 0.07269274
000140 3f 19 a5 3c f9 8a f9 3c f9 eb d4 3c 90 95 c1 bd
       0.02015364 0.030461775 0.025991427 -0.09452355
000150 ac ac 07 bd f3 7a 1b bd c5 52 f2 bc 33 ee ca bd
       -0.033123657 -0.03795905 -0.029580483 -0.09908714
000160 99 0e 69 bc 01 fb 0e bd 82 7f 95 bd 3f c6 88 bd
       -0.014224672 -0.034907345 -0.07299711 -0.066784374
000170 e8 b0 e5 bc 57 d5 e1 bc 75 eb fd 3c db 43 2e be
       -0.028038457 -0.027567549 0.030996064 -0.17018072
000180 47 19 18 be 88 29 5f bd ac e1 da 3b c4 1c 8a 3d
       -0.14853393 -0.054482967 0.006679734 0.06743768
000190 98 7f dd 3d 63 00 c6 3d 41 c9 99 3d 8f 2c 70 3d
       0.10815352 0.096680425 0.07509089 0.058636244
0001a0 b4 bb f4 bd 4c a7 0b bc 6e 32 96 bc de 15 41 3d
       -0.11949864 -0.008523773 -0.018334594 0.047139995
0001b0 c5 7e 59 3b d9 30 b3 bd 82 03 45 be 74 50 1b bd
       0.0033187133 -0.08749551 -0.1923962 -0.037918523
0001c0 87 41 18 bd f2 5f c9 bc 72 ed 92 bc 33 b3 1c be
       -0.037171867 -0.024581883 -0.017935488 -0.15302734
0001d0 28 f9 87 bd 0c 8b b3 bd a4 fc 84 bc 90 9f 1e be
       -0.0663932 -0.087667555 -0.01623375 -0.15490556
0001e0 97 f2 de 3d 8d 98 b0 3d 14 34 24 3d d2 55 dd bd
       0.10886114 0.08622847 0.040088728 -0.108073846
0001f0 34 1b 71 be b9 e7 81 3d 76 a5 d0 bc 36 e5 d3 bc
       -0.23545533 0.06343026 -0.025469523 -0.025866132
000200 07 b5 00 3d 36 8f 30 be 0d 6f 0f 3d 36 03 dd bc
       0.03142264 -0.1724213 0.035018016 -0.02697907
000210 95 7f 49 3d 7e 16 18 3d d3 fc 9e 3c c1 ea 90 3b
       0.049193937 0.037130825 0.019407665 0.004422516
000220 7a 8c 18 bc 9a 53 0d bc 3d 6d be 3d 91 2d d7 3d
       -0.009310836 -0.008625889 0.09298179 0.10506738
000230 d4 c8 5d bc c5 b9 c4 3c d6 6d ad 3d ba 53 b7 3d
       -0.013536651 0.024014363 0.08468215 0.089515164
000240 cc 58 96 3d ec a7 3a bd c2 8a 16 be 34 be e6 bc
       0.073411554 -0.0455703 -0.1470137 -0.028166868
000250 64 4a 00 bd 97 6c 84 3d 99 bb f2 bd 0c 59 64 be
       -0.031320944 0.06466024 -0.11852188 -0.22299594
000260 c8 14 49 3d 32 2f 81 3d ce 96 26 bd 9a 61 a1 be
       0.049092084 0.0630783 -0.040671162 -0.31519777
000270 eb 39 6d be 97 56 82 3d c0 58 ca 3d a0 22 b2 3c
       -0.23166625 0.06364172 0.09880209 0.021745026
000280 fc ea 45 be 53 4e f5 bd fa d0 6f bc d2 09 db 3d
       -0.1932792 -0.1197783 -0.014637226 0.106952325
000290 81 dc 81 bc 6c a7 45 be bf 2c b2 bd d3 41 5b bc
       -0.015852215 -0.19302148 -0.08699941 -0.013382393
0002a0 b3 71 5f 3c cb 2b c0 bb 57 59 2c bc 77 61 69 bd
       0.013637948 -0.0058645955 -0.010519347 -0.056977715
0002b0 9c 2a a8 bc f8 de 9c bd 7c 40 99 be 90 95 11 be
       -0.02052813 -0.076597154 -0.2993201 -0.1421721
0002c0 8b 1d 99 be c0 4f 29 be 66 70 10 be 5b 5c e3 bc
       -0.29905352 -0.16534328 -0.14105377 -0.027754
0002d0 00 ed 63 be 09 c1 dd be 5c f3 2c be 50 c5 97 bb
       -0.22258377 -0.43311337 -0.16889709 -0.004631676
0002e0 07 ef 14 3b f7 a1 1a be 0c 98 d8 bd 11 e2 dc 3c
       0.002272548 -0.15100847 -0.10575876 0.026963266
0002f0 fe 72 77 3d 27 c8 a6 3d 42 c9 82 bd f6 5a 38 3d
       0.0604124 0.08143645 -0.06386043 0.045008622
000300 f7 5c d7 3d fb 78 c0 3d 92 c4 db 3c 5e 67 b2 bd
       0.105157785 0.09398075 0.02682713 -0.08711122
000310 70 56 90 3d f8 8d cd 3d 01 37 22 3d c5 72 19 be
       0.07047737 0.10036844 0.039603237 -0.14985187
000320 a7 73 be 3c f8 83 fd bd 5a c1 de bd a0 12 05 bc
       0.023248507 -0.12378687 -0.10876723 -0.008122116
000330 8d f9 40 bc fe 32 44 be 47 2d 69 be 25 e7 99 3c
       -0.011778248 -0.19160077 -0.22771178 0.018786976
000340 be b9 0e 3e e5 d2 11 3e a8 ce d9 bd 44 52 59 3d
       0.13938043 0.14240606 -0.1063512 0.05305697
000350 dc 5c 8d 3d c5 6b 38 3e c1 9d 3a 3e 3f 88 1d be
       0.06902477 0.18009861 0.18224241 -0.15384005
000360 c2 07 49 3d 71 63 08 3e d0 8e 70 3e 80 7d 6d 3e
       0.049079664 0.13319184 0.23491979 0.23192406
000370 7f 36 df bd bb 54 da bb 58 71 2a 3e d9 47 ee 3d
       -0.10899066 -0.0066629327 0.166448 0.116347976
000380 11 f4 ae 3b 16 44 1b 3c 7c 2f c8 bd 31 54 97 bd
       0.0053391536 0.009476682 -0.09774682 -0.07389105
000390 ec 29 37 be 22 ff 4a be fe f8 27 bd 7b a1 84 3c
       -0.17887086 -0.19823888 -0.04100894 0.016190281
0003a0 93 72 3f 3d 5e b2 02 3c 42 cc 93 bd 06 81 5f 3d
       0.046740126 0.007977096 -0.072166935 0.054566406
0003b0 26 a4 1f bd 43 e8 8c 3c 56 b0 c7 3c 90 a4 05 3d
       -0.038974904 0.017200595 0.024376076 0.032627642
0003c0 59 72 4f 3d de 32 f5 bd c5 05 6d bd 9a f9 64 bd
       0.05064616 -0.11972593 -0.05786683 -0.0559021
0003d0 aa 37 9f 3c 46 9f 0b 3d f7 93 df 3c bf a5 79 3d
       0.019435722 0.03408744 0.027292235 0.060949083
0003e0 3f ce a2 bd fa d5 7f 3d e9 59 15 3d 3d f1 38 be
       -0.079494946 0.062459923 0.036462698 -0.18060775
0003f0 e7 7e d9 3b 77 d0 af bc a2 a3 a8 bd e5 23 98 3e
       0.0066374424 -0.021461708 -0.082343355 0.29714885

conv2.bias f4 [20]
000000 60 8b 12 bd b1 87 1c bd 58 51 40 bd 30 75 5d bd
       -0.03577745 -0.038215343 -0.046952575 -0.054066837
000010 35 f1 46 bd f4 84 90 bc 12 11 c1 bc 39 37 1d 3d
       -0.048569877 -0.017641522 -0.02356771 0.038382743
000020 10 bf ea 3c 0f b2 db 3c 15 78 6c 3d 52 ad ff bc
       0.028655559 0.026818303 0.057731707 -0.031210575
000030 82 db b4 3d 54 85 06 bd 1d 1a e4 bb 48 4e 81 bc
       0.0883093 -0.032841995 -0.0069611208 -0.015784398
000040 b4 04 b5 bd ca 36 24 bd 4f bb 3a bd 20 53 3b 3d
       -0.08838788 -0.040091313 -0.045588788 0.04573357

fc1.weight f4 [50, 320]
000000 e7 f7 98 bd 35 ec e8 bc a9 91 ef bd e6 5a 18 be
       -0.074691586 -0.028432945 -0.11697704 -0.14878425
000010 b2 59 e0 3d d8 16 25 3d ac c5 90 be 21 44 1a be
       0.10954608 0.04030499 -0.28275812 -0.15065052
000020 1a a8 46 3d 8e 2f ad 3d 94 eb e0 bd 7e 58 d1 3d
       0.048500158 0.08456336 -0.10982433 0.10221957
000030 b1 46 9a bd bf d3 82 3d b2 f9 c4 3d f2 83 2e 3e
       -0.075330146 0.063880436 0.09617938 0.1704252
000040 f6 15 1a 3d 63 2f 29 bd 96 76 a9 3c a5 3a d9 3a
       0.0376186 -0.041304957 0.020686429 0.0016573264
000050 fc f5 5c 3d 97 05 c8 3c d2 88 08 bd ac 15 8c be
       0.053945526 0.024416728 -0.033333607 -0.27360284
000060 34 cd 0b be 02 a3 af 3d a6 9f bc 3d c0 a5 cb bd
       -0.13652498 0.08576013 0.09210138 -0.09943724
000070 53 10 a6 3c 7c cc b0 3d 1b d4 7d 3d 0e d3 7e 3c
       0.020271456 0.08632752 0.061969858 0.015553249
000080 ea 03 d6 bd d0 82 87 bd 58 1f d4 bc 2e 69 8b be
       -0.10449965 -0.066167474 -0.025893852 -0.27228683
000090 4b a1 cd bd 88 10 74 3c 36 0f 23 3d 64 4e 1b be
       -0.1004053 0.0148965195 0.03980943 -0.15166622
0000a0 d7 84 c0 3d 1a d4 1c 3d bd 6d b1 bd be 27 c6 bc
       0.09400337 0.038288213 -0.08663509 -0.024188872
0000b0 a1 cf 26 bd 9a 9b 94 3c ff 4e b2 3c c0 87 f2 3c
       -0.040725354 0.018140603 0.021766184 0.029605746
0000c0 0c b3 20 3e 8c fe 07 3d 01 91 22 bd 4f a8 3f be
       0.15693301 0.03320174 -0.039689068 -0.18716548
0000d0 65 1d 19 3d ae 77 0a bc c3 14 5b bb 84 f5 0c 3e
       0.03738155 -0.008451385 -0.0033429123 0.13765532
0000e0 9d 43 a7 3d 24 62 9a bc 6c ec 88 be cd 42 02 3e
       0.08167193 -0.018845625 -0.26742876 0.12720795
0000f0 1b 15 ad 3d c7 48 4c bd e5 a1 73 be bb c1 0e be
       0.08451291 -0.049874093 -0.23792227 -0.1394109
000100 3d 53 ef bd a5 19 a2 bd 20 87 38 3d f7 53 a4 bc
       -0.11685798 -0.079150476 0.04505074 -0.020059569
000110 49 f1 cc bc d4 4b a3 3a 71 79 2a 3c 47 fe 03 bd
       -0.025017397 0.0012458512 0.01040493 -0.03222492
000120 37 3d 99 bb 91 c5 00 3c 82 06 81 3d 42 74 18 be
       -0.004676487 0.0078596035 0.063000694 -0.14888099
000130 8a 9a 0c 3d 96 e5 82 3d a3 25 2b bb c5 17 e5 3d
       0.034327067 0.06391446 -0.0026114963 0.11186174
000140 e4 13 90 3d 77 a3 7b 3d 49 fa ac 3c ed 07 63 be
       0.07035044 0.06143519 0.021115439 -0.22170992
000150 a2 e6 08 be 31 45 6c 3d 75 90 8f 3d c2 0a 95 3d
       -0.1336923 0.057683174 0.07009975 0.072774425
000160 04 17 04 3c f2 55 21 3e a1 c1 24 3c 41 a0 a7 bd
       0.008062128 0.15755442 0.01005593 -0.08184863
000170 d2 db 6b 3d e3 47 cf bc e8 ba c2 bd 9a a2 34 bd
       0.057582684 -0.025302833 -0.09508306 -0.04410038
000180 ab 23 2a bd 84 d9 5f bd 19 7e 68 be 30 fb 0b be
       -0.041537922 -0.0546508 -0.22704352 -0.13670039
000190 f8 b1 74 3c ba 9f c3 3c 82 1d 92 bc 38 29 08 3d
       0.014935009 0.023879874 -0.017836336 0.033242434
0001a0 32 9f eb b9 52 73 d1 3d 49 fc 86 3d 4b 12 05 3d
       -0.00044941303 0.10227074 0.06591088 0.03248815
0001b0 cd d4 0c 3d c7 28 8a 3c b6 8e 10 bd 8d fb 13 bd
       0.03438263 0.016865147 -0.03529235 -0.03612857
0001c0 63 ab b7 bd 66 d2 41 bc bf 3e fd bc ea 63 1d be
       -0.08968236 -0.011829948 -0.030913709 -0.15370145
0001d0 72 8d 37 3d 87 94 68 bc ca 98 5d be 61 ae c3 bd
       0.044812627 -0.014195568 -0.21640316 -0.095547445
0001e0 b2 9e 53 3e 1c f6 f1 3d ad af 9e 3c 67 4f ed bd
       0.20666006 0.1181452 0.019370878 -0.115874104
0001f0 31 35 ba bd c3 75 1b 3d ed c5 cf 3d 84 00 bc bd
       -0.09092177 0.037954103 0.10145173 -0.09179786
000200 77 96 59 bd 03 a1 7e 3d 3c 8f 8e 3c fc 2a 2b be
       -0.05312201 0.06216527 0.017402284 -0.16715616
000210 d2 0b a7 3d 0d fa 90 bd f0 f5 0f bd 8e f7 04 3c
       0.081565514 -0.070789434 -0.035146654 0.008115662
000220 c5 d8 f3 3d c6 54 ed bd 00 54 93 bd d6 42 85 3d
       0.1190658 -0.11588435 -0.07193756 0.065068886
000230 53 1e 2f 3e fa f6 44 bd 85 b2 72 bd 57 f3 be bd
       0.17101412 -0.048087098 -0.05925228 -0.09323757
000240 0a a1 0c bd e3 02 97 3c 22 69 c0 3d e5 8a 64 3d
       -0.034333266 0.018433994 0.093950525 0.055796523
000250 55 bb b4 3c a2 b1 a7 3c a9 d3 9b 3c 13 7a 91 3d
       0.022061983 0.020470444 0.019021826 0.07103362
000260 bc a0 a9 3d 63 09 a4 bd 17 bc f1 bc c0 6b ce bc
       0.08282611 -0.08009603 -0.029508634 -0.025197864
000270 e9 8b 33 3d 70 35 c6 bd c5 dd 9b bb 26 1d 57 be
       0.0438346 -0.09678161 -0.0047566616 -0.21007213
000280 53 77 9f bd 6b 6f 3a bc 33 3c 1a 3e ed bd 93 3c
       -0.07786431 -0.011379103 0.15062027 0.0180349
000290 e2 6a 94 bc 98 9e 07 bc 6e 8b d0 3d 3e 43 8d 3c
       -0.018117372 -0.008277558 0.10182844 0.017243978
0002a0 08 03 78 3d 16 05 ae bd 3d d0 e5 3d ef 16 a6 bd
       0.060549766 -0.08497064 0.11221359 -0.08109843
0002b0 38 71 e9 bc 38 1d 42 be ce 89 9d bb e2 95 28 be
       -0.02849637 -0.18956459 -0.0048076874 -0.16463426
0002c0 d9 19 c2 bd 3d d9 42 be f2 ca b6 be 6a 80 6b be
       -0.09477586 -0.19028182 -0.3570171 -0.22998205
0002d0 5a 73 f5 3c 2f 63 78 bc 1b ad 8f bd 03 b3 5c 3d
       0.02996223 -0.015160366 -0.07015439 0.053881656
0002e0 3a ac 6c 3d 07 12 17 3d f7 23 75 bd 1e 10 bd 3d
       0.057781436 0.036882427 -0.059848752 0.0923159
0002f0 1e 82 28 bd 9d 13 ad 3d 59 01 bd 3d 41 28 39 3d
       -0.041139714 0.084510066 0.09228773 0.045204405
000300 f8 b8 1b be 72 76 03 bd 2d a8 29 3d b7 ec ed 3d
       -0.15207279 -0.03209538 0.04142015 0.116174154
000310 5b 31 b0 bc 8c 6e e5 bd 4d 96 66 bc 56 50 49 3e
       -0.02150791 -0.11202726 -0.01407392 0.19659552
000320 50 11 3f 3c 90 bc 7d be dc 2a 95 bd 81 7b 35 bd
       0.011661842 -0.24778962 -0.072835654 -0.044307236
000330 25 3e 0b 3e e5 c6 0d be d4 a1 9f bd f4 86 79 bd
       0.13597925 -0.13845403 -0.07794538 -0.060919717
000340 27 61 47 3d 3b f3 ac 3b ad 1d e0 bd 5c a5 85 be
       0.048676636 0.005278019 -0.1094316 -0.26102722
000350 56 bf 07 bc cd f2 0e 3e ea b0 be 3c f6 38 d1 bb
       -0.008285364 0.13959809 0.023277719 -0.006384964
000360 a5 f3 d4 bc 5b 77 b2 bd 23 fd 18 bc 0f 80 09 3e
       -0.025995085 -0.087141715 -0.009337696 0.13427757
000370 d0 67 6a bd 03 be ab bd 5d 66 29 bc a9 23 b2 3d
       -0.05722791 -0.08385851 -0.010339347 0.08698208
000380 8c 5a e5 bd ab 7f 16 be 93 e2 5b be 79 40 ad be
       -0.11198911 -0.14697139 -0.2147315 -0.3383825
000390 a6 9d 20 3d 61 25 31 3d 93 36 35 be 45 02 0f be
       0.039212845 0.043248538 -0.176966 -0.1396571
0003a0 d9 fe 33 bd ae f0 0f 3d 76 8a e3 3d bf 1d b1 3d
       -0.043944214 0.03514164 0.11110394 0.08648252
0003b0 96 ad 3c 3d 3d bb 93 bd 86 c8 94 3d ac bc bc 3d
       0.046063982 -0.07213447 0.07264809 0.09215674
0003c0 8b 54 01 bd 30 ed 4a 3c 5d d9 6e 3c f9 5f 12 3d
       -0.031574767 0.0123856515 0.014578191 0.035736058
0003d0 4d 52 85 3d 0d eb 11 bd 81 ba 8b 3d cd 1c 2c 3e
       0.06509838 -0.035624553 0.06822682 0.16807862
0003e0 95 e0 8a 3c 08 06 5b be 9b b4 40 bb 7a 70 10 3e
       0.016952792 -0.2138902 -0.0029404524 0.14105406
0003f0 1d c3 6f be c0 d4 02 bd 70 66 86 bd c7 4d 39 bc
       -0.23414274 -0.031941175 -0.06562507 -0.0113100475

fc1.bias f4 [50]
000000 78 85 f6 3b ae 46 4e 3e 9b dc 3b 3e 10 71 cb 3a
       0.007523235 0.2014415 0.18345873 0.0015521366
000010 8f 23 86 3e 70 5f 0e bd 42 73 81 3e f5 a2 ae 3d
       0.26199004 -0.034758985 0.25283247 0.08527175
000020 49 3f 84 bd a8 36 60 3d de 68 24 3e 11 46 33 3e
       -0.06457383 0.054739624 0.16055629 0.17507197
000030 37 16 19 bd ef ba b7 3e f3 65 42 3e be 06 8a 3e
       -0.0373747 0.35884807 0.18984203 0.2695827
000040 64 c7 cd 3e 74 eb 8e 3d f7 39 25 3e 55 70 c3 3c
       0.40191185 0.06978503 0.16135393 0.023857275
000050 b9 68 98 3e f6 05 4a 3e 7c 60 05 3e 9a 31 86 3e
       0.29767397 0.19728836 0.13025087 0.26209718
000060 30 24 60 3e 26 e5 81 3d 38 a2 13 3e ab 91 5e 3c
       0.21888804 0.06342535 0.1441735 0.013584535
000070 5f 49 d5 bd ec 45 c9 3c 31 51 1a 3e f9 b7 e5 3d
       -0.10414385 0.024569474 0.15070035 0.112167306
000080 88 7c 2b 3e 02 48 c5 3b 8f f9 3f 3e 0a e6 41 3d
       0.16746724 0.006020547 0.18747543 0.047338523
000090 d8 25 4b 3e 52 d0 e1 bd 60 aa 91 3d 45 8b 8a 3e
       0.19838655 -0.11026062 0.071125746 0.2705938
0000a0 c6 0b 8d 3e ff c6 90 3e ec f1 6f 3e 25 ab b5 3e
       0.27548045 0.28276822 0.2343213 0.35482135
0000b0 b1 49 44 3e cf a9 91 3e 31 91 41 3e bd 18 2d 3e
       0.19168736 0.28449866 0.18903042 0.16903968
0000c0 d5 3b 4d 3e ea 6a dd 3e
       0.20042355 0.4324563

fc2.weight f4 [10, 50]
000000 4b 1f 1b 3e b7 52 45 3e 35 ae 76 be 52 50 38 be
       0.15148656 0.19269834 -0.24089892 -0.1799939
000010 30 af 66 bd 1d 5d e2 3d 42 aa 5b be e7 76 8f be
       -0.056319416 0.11052916 -0.21451667 -0.28020403
000020 11 c7 d5 bd 94 32 84 3d e7 6c 79 be fa bd 8a be
       -0.104383595 0.064549595 -0.24357949 -0.27098066
000030 20 ea 91 be 75 36 85 be 4c c3 ea 3d 1b ab b9 be
       -0.28498936 -0.2601811 0.11463031 -0.36263356
000040 3b 30 b5 be 0f 59 d1 be 5e 05 18 3e 6a 14 34 3e
       -0.3538836 -0.4088826 0.14845797 0.17585912
000050 be 23 e1 be 75 bc bf 3c 2a 38 d1 3d 24 5d 0b 3d
       -0.43972582 0.023405293 0.102157906 0.034024373
000060 4a 56 12 be 70 9c b7 3c 80 e9 a1 be 82 46 b2 bd
       -0.14290729 0.022413462 -0.3162346 -0.087048545
000070 63 3d 42 be 4f cb 48 3d 19 c2 0c 3e 2f 0a 2c 3e
       -0.1896873 0.049022015 0.13745917 0.1680076
000080 73 cc f6 3d 71 b6 bc be 03 60 2e be 0e b2 b0 3d
       0.12050714 -0.36857942 -0.17028813 0.08627711
000090 c5 de fa be ca e5 a1 bd 5e 84 c2 3d 7b f8 04 3e
       -0.48998085 -0.07905157 0.09497903 0.12985413
0000a0 fe 46 98 be 00 4b a6 bd cc c5 c4 be c7 14 78 be
       -0.29741663 -0.08119774 -0.38432157 -0.24226676
0000b0 4e cd fe 3d b9 8c b5 3d 5a 43 d3 be 32 f7 b4 be
       0.124415025 0.08864731 -0.41262323 -0.35344845
0000c0 04 f8 1e 3e 7d 56 71 bb 75 fe 12 be c8 8e d8 bc
       0.15524298 -0.0036825233 -0.1435488 -0.02643527
0000d0 d1 da c3 3d c5 35 91 be 44 c6 1a 3e 13 15 a0 be
       0.0956322 -0.28361335 0.15114695 -0.31266078
0000e0 88 2b cb 3d 03 66 06 be fb 13 7e be f5 d0 90 be
       0.09920412 -0.13124852 -0.2481231 -0.28284422
0000f0 b5 7e 87 be 48 f9 af 3c 8e 66 86 be ef 52 75 3e
       -0.26463857 0.021481171 -0.26250118 0.23957418
000100 96 90 f1 be 3a d4 b2 3d 10 b0 e1 3d 43 52 a9 be
       -0.47180623 0.08731885 0.110199094 -0.33070573
000110 66 70 82 be 46 37 49 be 76 9d cd 3d c8 ce 1e 3d
       -0.25476378 -0.19649991 0.10039799 0.03877142
000120 85 7c 18 bd 58 69 91 3d f9 a7 09 3e 6e 38 a6 be
       -0.037228126 0.07100171 0.13442983 -0.32464927
000130 09 46 48 be 69 b0 be be 6a c0 24 be 9a aa d7 be
       -0.19557966 -0.37243965 -0.16089025 -0.42122346
000140 dd 69 d7 3d 8f 86 a8 be d0 7d ce bd 95 77 cf be
       0.10518239 -0.3291516 -0.100825906 -0.4052092
000150 82 43 2a 3e 30 50 26 be 19 7f d4 3d 66 1b ca be
       0.16627315 -0.16241527 0.103758045 -0.39474028
000160 92 9c bd be eb 64 b2 3d c9 c2 d7 3d e8 1a 1b 3e
       -0.37033516 0.08710655 0.10535199 0.15146983
000170 8f 04 da 3d af 92 d1 3d a8 5c b7 3d 93 4c d4 3d
       0.10645401 0.10233056 0.0895322 0.10366168
000180 6e 26 8d 3d 47 43 11 3d ad 88 28 be 37 99 5c 3e
       0.068920955 0.03546455 -0.16458388 0.21542822
000190 b8 45 09 3e 43 07 58 3e b3 2d f8 bd f5 e9 0a be
       0.13405502 0.2109652 -0.121180914 -0.1356581
0001a0 fd 49 64 bd d8 53 a6 3d fc 48 b2 3d 93 6c 23 3e
       -0.055734623 0.08121461 0.08705327 0.15959387
0001b0 b4 a4 ec 3d f4 cb 44 3d ef 04 1f be 86 6f e9 3d
       0.11554852 0.048046067 -0.15529226 0.113982245
0001c0 7d 68 ff bd 9d 33 97 bd 8c cd 59 be 4e 4c 8a be
       -0.124711014 -0.07382891 -0.21269816 -0.2701134
0001d0 2e 0a ee bd 80 9a cc bd 22 65 2d be 34 3e c0 bd
       -0.11623035 -0.09990406 -0.1693311 -0.09386864
0001e0 c3 c7 27 be ed 0d f7 3d 7f ca 42 be 08 62 10 3e
       -0.16384797 0.12063203 -0.19022559 0.14099896
0001f0 4f b0 5e 3d d3 fc 72 3d 9c ab 63 bd 9b 91 80 be
       0.05436736 0.059323143 -0.05558358 -0.25111088
000200 5e b6 b9 3d 86 3c b2 bd 63 42 0e 3e 48 ed 65 bd
       0.09067987 -0.0870295 0.13892512 -0.056134492
000210 43 2d 1e 3e a4 fc b9 bd 30 ad 6c 3e 35 fc e9 39
       0.15446953 -0.090813905 0.23112941 0.00044629132
000220 f4 ec ff bd 07 d9 93 3d 50 09 e3 bc 42 63 57 be
       -0.12496367 0.07219129 -0.027714401 -0.21033958
000230 b1 57 01 3e b2 7c 32 3e 9b 94 96 be d4 f2 19 3e
       0.12631108 0.1743038 -0.29410252 0.15034038
000240 f7 3a d5 3d a6 ba 04 3e 3f 85 9f be a6 f0 f2 bd
       0.10411637 0.12961826 -0.31156346 -0.11862306
000250 4d d3 4e be 9b fe 2f be 76 5d 1e bd a9 0b e9 bd
       -0.20197792 -0.17186968 -0.03866335 -0.11379177
000260 24 2c 2f be 3d 0f 00 3e 62 5a 89 be 3c 65 61 be
       -0.17106682 0.12505813 -0.2682677 -0.22011274
000270 5b 34 4a be e8 35 2f 3e 39 86 e5 3d 49 be 26 3d
       -0.19746535 0.17110407 0.112072416 0.040708814
000280 1f bd f4 bd 14 de ea 3d dd c0 26 3e d7 5e dd be
       -0.119501345 0.11468139 0.16284509 -0.4323642
000290 34 de 18 3d 7b 74 9e 3d 24 57 84 be 81 99 18 3e
       0.037321284 0.07737061 -0.25847733 0.14902307
0002a0 d1 a3 5b be d6 77 2a be 21 b9 3e be 78 94 c9 3d
       -0.2144921 -0.16647276 -0.18625309 0.09842771
0002b0 bf ea 5d be 9d 88 3f be bb ec 82 3c cb a4 8a be
       -0.2167158 -0.18704458 0.015982023 -0.27078852
0002c0 a1 3d 2d be f6 c4 0a be 68 fc b6 3d b6 5f 12 3e
       -0.16918041 -0.13551697 0.089348614 0.14294323
0002d0 5b 07 33 be aa a3 49 be ea 97 09 3e 3e 3d c5 3d
       -0.17483275 -0.19691339 0.13436857 0.09630822
0002e0 c5 4a 09 bc be 0b 02 3e 08 79 ff 3d d3 54 07 be
       -0.008379643 0.12699792 0.12474257 -0.13215952
0002f0 09 e0 34 be 7b 0a da bd dd 61 d8 3d 24 22 e2 bd
       -0.17663588 -0.1064653 0.10565541 -0.11041668
000300 19 35 28 be 2d ea b2 bc d4 30 f7 3d 18 c1 ca 3d
       -0.16426505 -0.02184018 0.1206986 0.09900111
000310 a1 b6 40 3d ab 42 f7 3d e7 95 49 be f1 1c 10 be
       0.04704917 0.12073263 -0.1968609 -0.1407354
000320 51 6b 23 3e 19 85 3d bd 35 9e f6 bd b5 03 65 be
       0.15958907 -0.04626951 -0.12041894 -0.22364695
000330 6d 25 0f 3e 8f 5d e7 3d 66 05 4a 3d 0b 1c fc 3d
       0.1397912 0.11297142 0.049321555 0.12310036
000340 7e 3e f5 3d b8 60 e0 be cd 74 b4 3d 3b 98 67 be
       0.1197481 -0.4382379 0.088113405 -0.22616665
000350 9f b3 50 3d 92 f4 69 3e 6e 28 37 be 3a 2d 24 be
       0.05095255 0.22847202 -0.17886516 -0.16032878
000360 9d c9 03 3e d8 29 07 3e b0 99 41 be 28 fe 1d be
       0.12869878 0.13199556 -0.18906283 -0.15428984
000370 43 c5 ba 3d 49 38 2c be 0a 8a 92 be cf bd ff 3d
       0.09119656 -0.16818346 -0.2862094 0.12487375
000380 6b 9e f2 3d a2 c1 53 3e 48 ca 20 3e 2a 8c bd 3d
       0.11846622 0.20679334 0.15702164 0.0925525
000390 17 cc 57 bc 9a 04 0d be 52 df 0d 3e b4 f3 ff bd
       -0.013171217 -0.13771287 0.13854721 -0.124976546
0003a0 90 7f 83 39 30 e5 db 3d ca dc b8 bd bc 72 3d be
       0.0002508131 0.107370734 -0.09026487 -0.18500799
0003b0 95 69 1a 3e cd f3 2e 3d dd bd 5f be 96 1d 35 be
       0.15079339 0.042712975 -0.21849771 -0.17687067
0003c0 8e 6d f6 bd 02 84 7c bd ec 38 de 3d b4 1c 04 be
       -0.12032615 -0.06164933 0.10850701 -0.12901574
0003d0 bc 52 03 be 60 f3 71 be 35 14 ca 3d fa a5 05 be
       -0.1282453 -0.23627996 0.098671354 -0.13051596
0003e0 7c 2a 41 3d 69 bf ee bd d6 4e 91 be f9 f6 1b be
       0.047159657 -0.11657602 -0.2838046 -0.15230931
0003f0 fd 6c a1 be da 77 c7 3d 84 cb b9 3d 99 1a 6f be
       -0.31528464 0.09739657 0.09072021 -0.2334999

fc2.bias f4 [10]
000000 ae 75 8e 3e 7e b9 0b 3f 8c 2b 87 be 48 2c 9d 3d
       0.27824157 0.54579914 -0.2640041 0.076744616
000010 91 9d 24 be 56 f2 a6 3d bc 3e db 3d eb db f2 bd
       -0.16075732 0.08151691 0.10705325 -0.11858352
000020 40 b9 15 be 31 da 4b be
       -0.14621449 -0.19907452

exp_avg f4 [10, 1, 5, 5]
000000 94 4e 8f 3b 41 57 bd 3b ae 1e 93 ba 9c 2c 82 bb
       0.004373381 0.0057782237 -0.0011224353 -0.003972603
000010 8f 92 79 ba d9 49 66 3c 85 e2 5a 3c 46 ac a2 3a
       -0.0009520435 0.014055693 0.0133596705 0.0012410961
000020 f8 26 72 bb be b6 95 bb d4 b5 85 3c 4e c6 42 3c
       -0.0036949497 -0.0045689037 0.016322054 0.0118881
000030 11 3a 12 bb 72 8e c1 bb 3c 87 20 bc a8 d3 68 3c
       -0.0022312442 -0.0059068734 -0.009797867 0.014210619
000040 d0 fb cd 3b 06 65 93 bb eb ca db bb 3d aa 26 bc
       0.006286122 -0.004498127 -0.0067075393 -0.010172424
000050 36 0a 19 3c 97 46 25 36 8c 5a b0 bb 5b ee 07 bc
       0.009340813 2.4628005e-06 -0.005381888 -0.0082965745
000060 d8 02 bf bb 3b 48 b4 bb 9d bf cb bb 47 dd a8 bb
       -0.0058291964 -0.0055017746 -0.0062179104 -0.0051533314
000070 cc 54 31 bb 52 e9 3b 3b 75 2f cd bb 39 27 e2 bb
       -0.00270586 0.0028673005 -0.006261761 -0.0069016484
000080 55 a4 23 bb b1 ea a0 3a 5f 33 df 3b 16 cc e5 ba
       -0.0024969776 0.0012276975 0.006811544 -0.0017532136
000090 b0 c8 04 b7 6c 40 97 3a c7 3e 72 3b 85 cd d5 3b
       -7.914539e-06 0.0011539585 0.0036963688 0.006524744
0000a0 4e 92 b2 38 5a 5e 12 3b c9 30 80 3a 1e 30 61 3b
       8.514953e-05 0.002233407 0.0009780164 0.0034360955
0000b0 2f 48 cb 3b c3 de 16 3b 06 fb 58 3b 83 87 52 3b
       0.0062036733 0.002302096 0.0033108606 0.0032124228
0000c0 50 c1 b7 3b 45 12 0b 3c ac e3 85 ba c3 06 43 3a
       0.0056077614 0.0084882425 -0.0010214946 0.0007439667
0000d0 ee 49 35 bb 51 6b f4 bb 7f a5 2f bc cf 88 cf 3b
       -0.0027662474 -0.007459082 -0.01072061 0.0063334475
0000e0 23 be dc 3b 35 d8 45 3b 1c 8e 6f bb 15 e7 85 bb
       0.0067365333 0.0030188684 -0.003655321 -0.004086385
0000f0 de d6 36 3c b7 b2 24 3c 9e f4 a6 3b 40 a7 0b 3b
       0.011159627 0.010052375 0.0050950786 0.0021309406
000100 6b b0 35 ba 14 f4 24 3c 20 85 18 3c 34 ec b4 3b
       -0.00069308904 0.010067958 0.009309083 0.0055213217
000110 d6 81 86 3b bf 36 52 bb 77 db 8b 3b dd 66 08 3c
       0.004104833 -0.0032076088 0.0042681056 0.008325306
000120 1d f5 19 3c 6d 1c 56 3c 2b 28 10 3c 6c 22 91 bb
       0.0093968185 0.013068301 0.008798639 -0.0044291522
000130 36 39 06 bc 5d a1 ef bb de 97 cc bb 95 eb de bb
       -0.008192351 -0.007312937 -0.00624369 -0.006802986
000140 1b c4 af ba 2e d2 95 bb 90 a1 06 bb c0 9d 07 bb
       -0.0013409884 -0.0045721745 -0.0020543076 -0.0020693392
000150 3f 39 52 bb c3 67 44 b9 ec a5 76 37 c8 ed 27 ba
       -0.0032077578 -0.00018730671 1.4701374e-05 -0.00064059766
000160 da b8 b4 38 49 ee af bb aa 36 6e bb 68 9c 2e bb
       8.6175e-05 -0.005368982 -0.00363485 -0.0026643518
000170 f9 bb ce ba cd 1d 05 bb cd 21 e2 bb a2 d8 0a bc
       -0.0015772573 -0.0020311952 -0.006901002 -0.008474501
000180 cd 8f 06 bc b7 5f e4 bb 16 d3 0d bc 46 99 57 bc
       -0.008212996 -0.006969418 -0.008656284 -0.013159102
000190 e2 e3 01 bc 0b 16 6d bc c8 37 f2 bb 0e fa 45 3b
       -0.007927867 -0.0144705875 -0.0073919035 0.0030208859
0001a0 83 80 2e 3c ef 97 6c bc 90 ac 8b bc 2b 5d f6 bb
       0.010650757 -0.014440521 -0.017050058 -0.0075184307
0001b0 2d f7 b6 3b f8 e2 4b 3c 7e 95 40 bc 9a 1b 35 bc
       0.005583665 0.01244425 -0.011754392 -0.011053944
0001c0 ee da 08 bb 94 2f 02 3c 76 35 42 3c 06 01 b8 bb
       -0.0020882445 0.007945914 0.011853566 -0.0056153564
0001d0 bf 9e ba ba 01 96 18 3c ea 42 80 3c ca e9 8f 3c
       -0.0014237984 0.0093131075 0.015656907 0.017567534
0001e0 b5 bd 17 ba c8 49 ad 3b c6 28 76 3c 82 3a 9f 3c
       -0.00057884614 0.0052883364 0.01502437 0.019437078
0001f0 2a 5f 93 3c d6 a2 ad 3b d1 07 aa 3b 47 06 ae 39
       0.017989714 0.0052989526 0.00518892 0.00033192543
000200 0a 16 78 3a ef 16 bc 3a 9e b1 e2 3b a5 30 3e 3b
       0.00094637333 0.0014350096 0.0069181463 0.0029020694
000210 ab 59 50 3a eb 9e 16 ba 81 3a a4 ba bb b7 3c 3c
       0.0007947932 -0.00057457265 -0.0012529643 0.011518414
000220 92 a6 da 3b b0 fc c8 3a c8 d0 86 bb e3 45 39 bc
       0.0066726888 0.0015334096 -0.004114244 -0.011308166
000230 17 81 36 3c f8 b8 ec 3b 19 fc 51 3a eb ee c3 bb
       0.011139176 0.0072241984 0.0008010283 -0.005979409
000240 a8 8d 54 bc 3f 59 ff 3b c8 8d 9a 3b 53 db 95 bb
       -0.012973227 0.0077926214 0.0047166087 -0.0045732646
000250 1a c3 14 bc a2 8e 47 bc 39 5f 90 bb 02 63 8d bb
       -0.009079719 -0.012180002 -0.0044058827 -0.004314781
000260 b5 38 32 bb f0 4a e0 bb 2e 3a 86 bb a1 43 3c bb
       -0.0027194445 -0.0068448707 -0.004096291 -0.0028726833
000270 06 e5 87 bb b8 ae b1 ba 04 be 0e b9 ee 3c 33 3a
       -0.004147175 -0.0013556099 -0.00013612962 0.00068373873
000280 30 bf 1a bb 2f 82 a5 ba ad 34 61 3a a1 47 82 3a
       -0.0023612492 -0.0012627299 0.0008590918 0.000993956
000290 de 71 71 3a 79 25 96 3a 04 2b 9c 3a 3d f6 06 3b
       0.0009210388 0.001145526 0.0011914675 0.0020593547
0002a0 c4 9d 16 3b 68 50 90 3b 32 e5 59 ba d6 07 3d ba
       0.002298222 0.0044041164 -0.0008312046 -0.00072109455
0002b0 e3 29 4e 39 f8 ea a1 ba 7c 2a 02 bb 15 31 6a 3b
       0.00019661295 -0.0012353351 -0.0019861748 0.0035734822
0002c0 1c bd c7 3b b3 4d 06 3c 95 1f f9 3b be c0 76 3b
       0.0060955416 0.008197236 0.007602642 0.0037651504
0002d0 c8 5e 8d 39 92 34 bc 3b e6 6c c1 3b 55 5c 6e 3b
       0.00026964233 0.0057435716 0.0059028743 0.0036370952
0002e0 dd 1b b7 3a 58 58 e8 39 97 61 3d 3b 83 c7 f0 3a
       0.0013970096 0.0004431631 0.002889728 0.0018370006
0002f0 be 47 18 ba 3b a6 56 bb 9b 84 0f 3b af 4e de 3a
       -0.000580903 -0.003275289 0.0021899107 0.0016960705
000300 51 63 1d 3a a7 b7 d3 ba 61 22 8f bb c8 e5 c5 ba
       0.0006003874 -0.0016152755 -0.004368112 -0.0015098387
000310 b4 08 54 bb 91 af 7c bb a7 98 a5 bb cf b0 02 bc
       -0.003235382 -0.0038556794 -0.005053598 -0.007976725
000320 a0 57 10 3c 41 2f 19 3c b3 6e 0b 3c e1 c0 87 3b
       0.008809954 0.009349645 0.0085102795 0.004142866
000330 eb b3 bd 3a dd b2 0e 3c 29 99 1f 3c 76 98 08 3c
       0.0014473175 0.0087096365 0.009741106 0.008337131
000340 e8 c9 b4 39 76 57 84 3a ec 4c 40 3b cc bb 97 3a
       0.00034482707 0.0010096866 0.0029342724 0.0011576354
000350 a4 68 34 3b 09 bf 2c 3a 0d b0 e6 ba 39 b8 6f 39
       0.002752819 0.0006589746 -0.0017600075 0.00022861444
000360 be 54 97 bb fe 53 91 bb 72 44 89 bb 09 5b 11 bc
       -0.0046182564 -0.0044350615 -0.0041890675 -0.008871802
000370 dd 79 90 bb 42 a0 2f bc 4d 9f d7 bb 00 6e 28 bc
       -0.0044090585 -0.010719361 -0.0065802694 -0.010280132
000380 d8 b3 48 bc 39 9b 90 ba 85 5c 17 bb 03 0d a2 b9
       -0.012249909 -0.0011032588 -0.0023095917 -0.00030908742
000390 ea 9c ee 3a be 1e b1 3b 8c dd 91 bb 55 f8 63 bb
       0.0018204723 0.005405276 -0.0044514593 -0.0034785469
0003a0 83 be 01 3b 13 ee 8d 3b 6b c3 b9 3b 98 d1 08 bc
       0.0019797392 0.004331359 0.0056690476 -0.008350752
0003b0 48 36 5d bb f9 ac 11 3b df 97 cc 3b d3 7b 2d 3c
       -0.0033754278 0.0022228344 0.0062436904 0.010588604
0003c0 d2 97 26 bb f1 0c fe 3b 39 99 30 3c 44 3a 57 3c
       -0.0025420082 0.0077530076 0.010778719 0.01313645
0003d0 3b e5 93 3c 53 85 61 3b 32 da 3d 3c 22 76 50 3c
       0.018053642 0.0034411743 0.011587666 0.012723478
0003e0 75 24 82 3c 44 0d 85 3c
       0.015886525 0.016241677

exp_avg_sq f4 [10, 1, 5, 5]
000000 49 7c 8e 3a 38 a3 6e 3a 5e ce 6e 3a 81 51 62 3a
       0.001087078 0.0009103301 0.00091097306 0.0008633361
000010 ac 1b 50 3a ba 32 7f 3a 80 4b 51 3a a8 10 3a 3a
       0.0007938694 0.0009735037 0.00079839677 0.0007097819
000020 78 8e 13 3a 7a d3 2d 3a 5d 8d 4f 3a 0e f8 22 3a
       0.00056288345 0.0006630939 0.0007917488 0.00062167726
000030 1f 6b 02 3a e8 20 19 3a 63 85 44 3a 79 3b 39 3a
       0.0004975069 0.000584139 0.0007496683 0.0007066052
000040 c0 2e 1f 3a bf 81 1d 3a 01 8d 2b 3a 68 a1 44 3a
       0.0006072335 0.00060084084 0.00065441435 0.0007500858
000050 c0 cd 4a 3a ec 81 23 3a af 9c 19 3a 5b c8 11 3a
       0.00077363476 0.00062373164 0.00058598345 0.00055611663
000060 28 cb 33 3a bf 94 3a 3a 5f d9 4c 3a d3 00 28 3a
       0.0006858581 0.0007117502 0.0007814373 0.0006408814
000070 c9 09 5b 3a bd 29 8a 3a 12 84 6c 3a e8 48 4f 3a
       0.0008355645 0.0010541003 0.00090223656 0.0007907287
000080 54 a0 32 3a 4d 04 82 3a 71 59 94 3a 81 37 60 3a
       0.0006814052 0.0009919495 0.001131816 0.00085531926
000090 fc a9 18 3a 32 15 5a 3a 44 a2 8d 3a bd 52 98 3a
       0.00058236695 0.00083191984 0.0010805805 0.0011621338
0000a0 e8 6a 50 3a ee 4e 37 3a 3f 22 79 3a b1 b6 96 3a
       0.00079505006 0.00069926574 0.0009503699 0.0011498538
0000b0 c4 82 9e 3a a2 e1 6b 3a d6 7a 6b 3a f8 8b 8d 3a
       0.0012093415 0.00089981605 0.00089828426 0.001079916
0000c0 7b 47 a0 3a a1 ed a0 3a eb c5 93 3a 58 3e 98 3a
       0.0012228334 0.001227785 0.0011274194 0.001161526
0000d0 a7 37 a9 3a bb 13 a1 3a 40 1c 9a 3a d8 6f a1 3a
       0.0012910262 0.0012289205 0.0011757687 0.0012316657
0000e0 d4 95 b8 3a 14 73 a5 3a bf 2e 8e 3a 70 47 8e 3a
       0.0014082738 0.0012622797 0.0010847672 0.001085503
0000f0 4c 6a b3 3a a7 6b ac 3a 5e f7 88 3a 77 e1 8a 3a
       0.0013688295 0.0013154641 0.0010449698 0.0010595758
000100 2e fa 82 3a 53 56 ab 3a 0f 99 92 3a 88 ec 8f 3a
       0.0009992772 0.0013071991 0.0011184531 0.0010980526
000110 8d f5 85 3a 5b 4d 6f 3a 6f 6d a9 3a 61 ca 97 3a
       0.0010220275 0.00091286533 0.001292629 0.0011580699
000120 44 50 8e 3a ea d7 86 3a f8 75 8f 3a 7b 20 e7 3a
       0.0010857661 0.0010287736 0.0010945192 0.0017633581
000130 33 f0 ce 3a 32 51 af 3a 6b 7d aa 3a 83 77 bc 3a
       0.0015788138 0.0013375639 0.0013007348 0.0014378879
000140 0e 2f d3 3a 9d 25 a6 3a 35 c1 8d 3a c8 96 91 3a
       0.0016112046 0.0012676005 0.0010815026 0.0011107558
000150 7c 6f a9 3a 6b 08 b3 3a 3a c3 8a 3a 40 45 84 3a
       0.0012926902 0.0013659125 0.0010586747 0.0010091439
000160 99 a7 8a 3a 81 3a aa 3a 23 38 a6 3a 15 c6 8a 3a
       0.0010578512 0.0012987406 0.0012681525 0.0010587597
000170 88 9d 88 3a 62 fb 95 3a 78 0a cb 3a c9 00 ad 3a
       0.0010422925 0.0011442716 0.0015490791 0.0013199087
000180 e2 ad 9c 3a fc 68 a0 3a ae 6e c2 3a 88 9f 00 3b
       0.0011953677 0.0012238319 0.001483401 0.0019626338
000190 02 4f 6e 3a d2 98 77 3a aa d9 77 3a c5 8b 87 3a
       0.00090907526 0.0009445074 0.0009454737 0.0010341337
0001a0 4b 53 b7 3a 4e 25 5a 3a 89 ce 4a 3a d1 1a 2c 3a
       0.0013986615 0.0008321599 0.00077364646 0.0006565275
0001b0 60 f7 82 3a 9f 48 be 3a ff c8 3a 3a 9d e7 48 3a
       0.0009991936 0.0014517492 0.00071252877 0.00076639076
0001c0 22 f0 39 3a 82 65 80 3a c4 bb ba 3a b4 a6 3d 3a
       0.00070929725 0.0009795877 0.0014246632 0.00072346185
0001d0 75 98 61 3a 51 36 6c 3a b5 49 98 3a 95 74 c5 3a
       0.0008605787 0.00090107793 0.0011618646 0.0015064651
0001e0 39 5b 51 3a 75 b9 7a 3a cc a7 8a 3a 10 cb aa 3a
       0.00079863105 0.00095643784 0.0010578572 0.0013030488
0001f0 0d 34 d1 3a 50 c0 c1 3a b7 22 9d 3a 2e 4d 8d 3a
       0.0015960947 0.0014782045 0.0011988495 0.0010780448
000200 a3 3a 95 3a 8b d3 9d 3a 61 16 a0 3a 68 ed 80 3a
       0.0011385273 0.0012041194 0.0012213701 0.0009836378
000210 e2 50 79 3a 43 74 8e 3a 1a 34 97 3a 42 06 84 3a
       0.00095106487 0.0010868389 0.0011535913 0.0010072666
000220 32 f6 59 3a b5 c4 4c 3a 4e fc 6d 3a 22 99 87 3a
       0.0008314579 0.0007811294 0.0009078429 0.001034532
000230 03 71 5b 3a e4 17 42 3a 5b a4 32 3a 1f b4 45 3a
       0.0008371027 0.00074040727 0.0006814652 0.0007541794
000240 75 3c 77 3a 3d 0b 44 3a 7a be 2b 3a d2 ec 30 3a
       0.0009431311 0.0007478481 0.00065515155 0.0006749156
000250 b3 3f 46 3a 98 e6 7a 3a 2c 98 5d 3a 8c eb 5d 3a
       0.00075625925 0.00095711043 0.00084531563 0.000846558
000260 8d 4c 5d 3a 1f a6 50 3a f5 44 46 3a f1 74 77 3a
       0.0008441888 0.0007959324 0.0007563376 0.0009439728
000270 6e 89 7c 3a c1 8f 68 3a d0 63 3e 3a f4 e5 35 3a
       0.0009633516 0.00088715187 0.0007262798 0.0006938868
000280 9e d4 80 3a a5 ed 76 3a b9 34 51 3a 50 c7 29 3a
       0.000982899 0.0009419567 0.00079805736 0.0006476538
000290 c3 30 37 3a b5 ab 72 3a 56 b4 5b 3a b6 b5 44 3a
       0.0006988162 0.0009257154 0.0008381059 0.00075038837
0002a0 cc 05 3a 3a 79 d8 4d 3a c2 75 6c 3a 77 3d 56 3a
       0.0007096201 0.00078523863 0.0009020233 0.0008172611
0002b0 61 c0 4b 3a cd 82 56 3a 21 58 5b 3a 3e e4 3c 3a
       0.0007772502 0.0008182943 0.0008367319 0.00072056416
0002c0 40 2f 2f 3a 90 ff 30 3a 1e e8 44 3a 3b e4 51 3a
       0.0006682761 0.0006751949 0.0007511395 0.0008006726
0002d0 b8 e5 45 3a a0 f9 3c 3a 2c 08 2d 3a 46 54 3e 3a
       0.00075491844 0.0007208828 0.0006600644 0.00072604825
0002e0 1f 0a 56 3a 99 3b 53 3a 9c c0 36 3a 22 92 22 3a
       0.00081649603 0.0008057892 0.000697145 0.0006201585
0002f0 ee 89 2d 3a fe 17 57 3a a3 69 43 3a 14 0c 33 3a
       0.00066199794 0.0008205174 0.0007454401 0.0006830108
000300 49 e3 26 3a 27 89 36 3a 14 5f 65 3a f4 44 39 3a
       0.00063662656 0.00069631863 0.00087498245 0.0007067465
000310 bc 1d 33 3a 63 5e 3c 3a 46 79 5a 3a 04 71 74 3a
       0.0006832739 0.00071856956 0.0008334111 0.0009324702
000320 3e 8f 69 3b e6 d9 53 3b 96 ed 4a 3b 9b 5d 44 3b
       0.0035638358 0.0032325923 0.0030964366 0.002996302
000330 43 19 46 3b d6 75 5b 3b dd e6 68 3b d8 4c 6f 3b
       0.003022746 0.0033486984 0.0035537996 0.0036514308
000340 bb fd 69 3b 95 d6 60 3b e5 94 4f 3b df 35 57 3b
       0.0035704214 0.0034307588 0.0031674441 0.0032838506
000350 36 00 67 3b 67 9b 5f 3b 2e b7 57 3b 85 ca 36 3b
       0.0035247928 0.0034119727 0.003291558 0.0027891707
000360 c4 2a 3b 3b 53 2e 3b 3b be c9 40 3b 88 e3 48 3b
       0.0028559426 0.0028561547 0.0029417123 0.0030653197
000370 3e 61 31 3b a2 0c 3a 3b 0e ea 38 3b 7c f1 3d 3b
       0.0027066018 0.0028388877 0.002821568 0.0028983047
000380 f0 60 45 3b 1a 4e 3c 3a 89 38 36 3a c9 e2 22 3a
       0.0030117594 0.0007183269 0.00069511734 0.0006213603
000390 2a 09 41 3a 03 64 5b 3a 11 42 27 3a 15 0e 17 3a
       0.0007363731 0.000836909 0.0006380389 0.0005762291
0003a0 ca a8 26 3a 1f a6 4b 3a 71 fd 62 3a 79 b6 0c 3a
       0.0006357549 0.00077685894 0.00086589815 0.0005367767
0003b0 15 39 06 3a ad 27 3a 3a 5b 54 61 3a 67 d8 71 3a
       0.00051202 0.0007101249 0.0008595639 0.0009225667
0003c0 72 33 05 3a 88 b4 0f 3a c7 57 5d 3a cd 08 8d 3a
       0.00050812133 0.00054819183 0.0008443561 0.0010760069
0003d0 b8 8c 88 3a 0a 72 11 3a 64 85 2e 3a 19 da 83 3a
       0.0010417914 0.0005548304 0.000665745 0.0010059505
0003e0 8f 37 98 3a 40 ec 84 3a
       0.0011613237 0.0010141209

exp_avg f4 [10]
000000 83 02 f0 3b 24 70 a4 ba 8e 1e 95 3b 75 a4 ac 3a
       0.007324518 -0.0012545628 0.0045507615 0.0013171571
000010 10 3e 55 bc 61 4e 8c 3b 50 8b 0a bb 0d 32 21 3c
       -0.013015285 0.0042818044 -0.0021140166 0.009838593
000020 6c 5e 97 3c 00 00 80 b8
       0.018477641 -6.1035156e-05

exp_avg_sq f4 [10]
000000 67 d3 b8 3a 84 5a ce 3a 9c 3d bd 3a c0 2c 8e 3a
       0.0014101089 0.0015743528 0.0014437917 0.0010847077
000010 2e 76 02 3b af 71 b7 3a b4 55 6d 3a 60 0f ab 3a
       0.0019906866 0.0013995672 0.0009053603 0.0013050847
000020 cb 2b 45 3b b6 6b 3b 3a
       0.0030085917 0.0007149534
